model/simple_tag/agent_0/1_actor_params.pkl (torch_old, 40203 bytes, 8 tensors)

fc1.weight f4 [64, 16]
000000 e2 6c df 3e 5e 81 46 bf ec d5 5d be 7e c8 93 3e
       0.43637758 -0.7754115 -0.21663636 0.288639
000010 d3 05 38 3e 61 b0 0a 3f e3 bc c4 be 9b 9a 7b be
       0.17970972 0.5417538 -0.3842536 -0.24570696
000020 e7 06 4d c0 18 dc 01 c0 8b 21 8d bd 22 a4 e5 3f
       -3.2035463 -2.0290585 -0.068911634 1.7940714
000030 53 90 59 3d 3e 6c c3 bf a0 f1 c4 bf 46 e2 73 3f
       0.053116154 -1.5267408 -1.5386238 0.9526714
000040 e1 e1 d8 3e fa 54 92 3c d8 5b e6 bc 3b 37 97 3e
       0.42359832 0.017862786 -0.028119966 0.29534325
000050 fc 19 e5 3e 37 93 7f 3d 87 83 da be 39 34 8c 3e
       0.44746387 0.062396254 -0.42678472 0.27383593
000060 56 00 62 3d 57 76 52 be 97 f3 23 3f 20 b9 73 3d
       0.0551761 -0.20552956 0.64043564 0.05950272
000070 84 ac 13 40 73 d8 eb c0 e6 03 18 bf e1 55 96 bd
       2.3074045 -7.370172 -0.5938095 -0.07340599
000080 c8 29 a8 bf 72 2f 47 bf fe 67 a2 3e de d9 49 bf
       -1.3137751 -0.7780677 0.31719965 -0.78848064
000090 a0 cf 2f 3f a9 ed 4b 3e e0 03 b7 be f2 5e 77 bf
       0.68676186 0.19914879 -0.35745144 -0.9662925
0000a0 9d c4 d2 be 84 24 26 3e fe 0d 0f be 53 02 1f bf
       -0.4116563 0.16224867 -0.13970181 -0.6211292
0000b0 bd ef f8 bf 7e dd 8d c0 d0 56 f5 3e c6 13 de 3e
       -1.9448162 -4.4332876 0.47917795 0.4337446
0000c0 b9 fb ce 3f 62 10 28 bf 9c 62 b6 3e a3 78 92 be
       1.617057 -0.6565 0.35622108 -0.28607664
0000d0 dc b3 8f 3e f0 ec 04 3e d4 ec da 3c 5c 97 de be
       0.2806691 0.1298101 0.026724257 -0.43474853
0000e0 03 89 10 bf e4 15 55 3f 12 b2 0e bf 79 f8 27 3d
       -0.56459063 0.8323653 -0.55740464 0.041008446
0000f0 7a 0d 55 c0 c6 29 78 3f 20 9a 68 bf fc 41 02 bf
       -3.3289475 0.9693874 -0.90860176 -0.50881934
000100 3e c4 95 be 29 0b 28 3e 5e 6b c1 be fd 31 ee be
       -0.29251283 0.16410507 -0.37777227 -0.46522513
000110 10 8f 38 be 1e a8 93 3f d9 fd a9 be d4 bd b7 bf
       -0.18023324 1.153568 -0.33201483 -1.4354806
000120 c9 56 1b 3f 8f 93 8c bd 41 d8 23 bf b4 d5 59 3f
       0.606793 -0.06864082 -0.6400185 0.8509171
000130 ad b5 bd 3e 54 06 8e c0 41 5f a3 3e a8 77 0c bf
       0.3705267 -4.4382725 0.3190861 -0.5487008
000140 04 58 e0 3e 24 88 16 3f 09 a2 6b bf a7 ed a6 3e
       0.4381715 0.58801484 -0.9204412 0.3260319
000150 72 00 81 bf b4 2c 69 3e 19 16 a5 3d df 36 06 3b
       -1.0078261 0.22770959 0.080608554 0.0020479483
000160 5f d2 a5 bf cd 21 60 3f 08 d7 16 bf 99 2f c2 3f
       -1.2954825 0.87551576 -0.5892186 1.5170776
000170 99 1e 51 c0 23 f1 95 40 6e 5a a8 3c 9f 53 95 bf
       -3.2674925 4.6856856 0.020550933 -1.1666144
000180 06 6c 9f be dd 67 b1 bd 87 24 e3 3c 8b 47 9e be
       -0.31137103 -0.086623885 0.027727379 -0.30913958
000190 49 69 41 bf 5c 8b f0 3d 36 29 4b 3f 0f 48 bb be
       -0.7555128 0.11745331 0.7935976 -0.36578414
0001a0 e5 d3 25 3f 58 0c 53 3f 3c 32 d3 3e b1 0f fe be
       0.6477645 0.8244071 0.41249263 -0.49621347
0001b0 26 da 18 be 96 2f c7 3f 60 a9 22 bf 48 14 5c 3f
       -0.14926967 1.5561397 -0.63539696 0.85968447
0001c0 71 3c 94 bf d9 6c c7 bf e2 e9 ca be 6c 00 37 bf
       -1.1580945 -1.5580093 -0.39631563 -0.7148502
0001d0 3e ee 15 bf e1 d7 3a be 1d 38 58 3e 68 ac 17 bf
       -0.58566654 -0.18246414 0.21115156 -0.59247446
0001e0 ea 34 ac 3d 7f e1 c7 3f cc e3 bd 3f 8d 24 fe 3f
       0.0840853 1.5615691 1.4835143 1.9854904
0001f0 ea 59 f4 bf b8 9d 07 c0 93 44 b8 3d 9d 30 90 3c
       -1.908994 -2.1190014 0.089974545 0.017601306
000200 e3 42 e4 be 96 95 37 3c ad 60 22 be ba bb 97 be
       -0.4458228 0.011205098 -0.15857191 -0.29635412
000210 9c 26 76 be 68 1c 64 be 21 06 3c 3e 1a d1 2a bd
       -0.24038166 -0.22276461 0.18361713 -0.04170332
000220 98 cd 09 bf 01 7a ad 3e 38 0d c5 3f 9a be 0a 40
       -0.53829336 0.33882144 1.5394659 2.1678834
000230 05 35 d8 40 f3 63 aa 3f f3 6b af 3e 09 53 c7 3e
       6.756472 1.3311752 0.34262046 0.38930538
000240 ac fd e6 3e 9a 8e 2b bb 7d 76 bc 3e cb 5a 87 be
       0.4511541 -0.0026177526 0.3680915 -0.26436457
000250 24 aa 47 3e f5 ec 76 bf fb be 5e 3e 2d f3 24 3f
       0.19498497 -0.9645532 0.21752541 0.64433557
000260 ac 51 c8 be cc 09 10 3f 96 b4 8f 3e 51 9e 59 3f
       -0.3912481 0.5626495 0.28067464 0.85007197
000270 28 47 b8 c0 4b d1 24 40 ef 5d e2 bd 5d c5 88 bd
       -5.758686 2.5752742 -0.11053073 -0.06678269
000280 3c 5a ac 3e a6 2a ef ba ad a3 02 3e c3 c7 99 be
       0.33662593 -0.0018246963 0.1275775 -0.3003522
000290 32 f1 3e 3e aa 99 d8 be ba 62 45 bd 65 c9 b9 3d
       0.18646696 -0.42304736 -0.048189856 0.09071616
0002a0 ee 5b e0 3f 4b 0e 5d 3f 06 92 34 c0 b8 b7 19 3e
       1.7528055 0.86349934 -2.8214126 0.1501149
0002b0 6e 6d 3b c0 c0 78 55 c0 61 ef ab 3f 2c 7b 34 3f
       -2.928554 -3.335495 1.3432428 0.70500445
0002c0 1f 8a 42 be f6 c7 94 be c7 98 ca 3c 0b 33 07 3e
       -0.18998002 -0.29058808 0.024731053 0.13203065
0002d0 ca 55 ba 3e 03 e7 0f be 4a f4 9d be 9c 8e 84 3e
       0.36393577 -0.14052968 -0.3085044 0.25890052
0002e0 ae c2 04 40 26 c8 c5 3f 6e c2 63 3f e7 60 13 3f
       2.0743823 1.5451705 0.8896855 0.57569736
0002f0 98 60 2a c0 d3 69 5d bf 97 91 6a bf 00 04 da 3d
       -2.6621456 -0.864896 -0.916284 0.10645294
000300 11 ca c4 3e 95 c2 19 bf 82 fe 53 be a0 90 ec bc
       0.38435414 -0.60062534 -0.20702556 -0.028877556
000310 fe 2f 2a 3e f8 18 3b 3f 37 5a c4 be f0 f2 26 bf
       0.1661987 0.73084974 -0.38350078 -0.65214443
000320 4c 9a 86 3f 2e 6a 5f bf 85 0c 68 3f cd 0f 6e bf
       1.0515838 -0.8727139 0.90644103 -0.9299286
000330 be 05 cd 40 14 72 34 c0 7f cd 8d bf 01 a4 de 3e
       6.406951 -2.8194628 -1.1078337 0.434845
000340 33 69 85 3f 6b c6 41 bf 72 d6 00 bf c8 01 8b be
       1.0422729 -0.75693387 -0.5032722 -0.27149796
000350 c3 76 75 3d 69 a4 fd be 0a b8 0d bf 2d 1e 76 3e
       0.059927713 -0.49539497 -0.55358946 0.24034949
000360 7a 9e a2 be 15 e8 51 3d d1 78 83 bd b1 ce 2c 3f
       -0.31761533 0.05124672 -0.06419528 0.67502886
000370 da 7f dc 40 54 ab 34 c0 2e 41 c8 3e e9 03 9d bf
       6.890607 -2.822957 0.39112228 -1.2266818
000380 93 6b 7f 3f d8 f5 35 3f 16 00 84 bd eb 2a 63 3f
       0.9977352 0.7107825 -0.06445329 0.8873736
000390 75 68 de 3e dd c2 f1 3d f2 c8 09 bf 83 99 41 3f
       0.4343907 0.11804745 -0.53822243 0.75624865
0003a0 fe 2f bb 3f 79 48 25 bf 61 62 2c 3f 43 b0 33 bf
       1.4624021 -0.6456371 0.67337614 -0.7019083
0003b0 1d 5d 06 40 20 74 78 c0 a5 4b a7 3d b5 3a 1e bf
       2.0994332 -3.8820877 0.08168725 -0.6180833
0003c0 8b c9 0d bf ca 13 a5 be 6b b6 48 3f 05 c1 23 3f
       -0.55385655 -0.3224166 0.7840335 0.639664
0003d0 31 15 82 3e 53 7e 8d 3e 8c 1c 09 3f 24 eb 8d 3e
       0.25406793 0.2763544 0.53559184 0.2771846
0003e0 e3 65 16 3f d2 d6 33 3f 25 fd 1b bf 6f e9 dd 3e
       0.58749217 0.70249665 -0.6093314 0.43342158
0003f0 a6 d7 90 bf 73 cc 05 41 77 dc c5 3e d3 64 d2 bd
       -1.1315811 8.362414 0.38644764 -0.10273137

fc1.bias f4 [64]
000000 73 e2 a2 bc a7 61 cc 3f 50 8f 98 3f b6 b6 ba be
       -0.01988337 1.5967301 1.1918736 -0.36467522
000010 ee 2d 3a bf 7a 45 5d 3f d9 9e 9f 3f ac 94 85 be
       -0.72726333 0.8643414 1.2470351 -0.2608999
000020 b7 84 35 be c7 b1 0f 3e 6d 91 7d 3e 24 db b5 be
       -0.17726408 0.1403266 0.24762507 -0.35518754
000030 d5 97 8d 3f fa 1f b0 3f 95 a2 08 3f 52 0d 2a 3f
       1.106196 1.3759758 0.5337308 0.66426575
000040 08 88 bb 3f 20 03 b3 3f ed 1a 89 3f 7a 1e 93 3e
       1.4650888 1.3985329 1.0711342 0.2873419
000050 f0 67 2e 3f 7d b7 69 3f 3e a8 35 3f 21 72 25 3f
       0.68127346 0.91295606 0.7095984 0.6462727
000060 31 69 12 3f 6a 64 f2 3f cf 9b 08 bf 61 96 7a 3f
       0.5719176 1.8936894 -0.53362745 0.9788571
000070 f6 6d 4b 3f f1 54 b6 3f 89 77 e0 3f 77 d5 7b bf
       0.7946466 1.4244672 1.7536479 -0.98372597
000080 d7 45 a9 3f 97 1e b5 3f ca 8a 9e 3f fb 69 3d 3f
       1.3224438 1.414996 1.2386105 0.7398984
000090 ba 2b 3a 3f c1 42 b4 3f c8 b5 59 3f 31 62 43 3f
       0.7272297 1.4082872 0.85043 0.76321703
0000a0 a7 3e 8c be 8a 3a b8 bd 9d 55 b4 3f 7c 32 c8 3e
       -0.2739155 -0.089955404 1.4088627 0.39101017
0000b0 c6 a0 80 bf ad 7c c0 be eb 80 2f 3f 41 21 0c bf
       -1.0049064 -0.3759512 0.6855609 -0.5473824
0000c0 bf 94 ca 3f 53 9c 91 3e 7c 64 7e 3f fd 5a d4 bc
       1.5826644 0.28439578 0.99372077 -0.025922293
0000d0 ee a8 42 3f e3 86 d3 3e 05 7a 54 3f ad 9b 88 3e
       0.76039016 0.41313848 0.8299869 0.2668127
0000e0 02 5c 8e 3f 3a c1 fb 3e 75 86 ac bc 86 10 a1 bf
       1.1121829 0.49170858 -0.021060208 -1.2583168
0000f0 34 d8 fc 3e 48 09 11 3f 25 cb 18 3f 67 61 85 3f
       0.493837 0.5665479 0.59684974 1.042035

fc2.weight f4 [64, 64]
000000 ff a0 fd 3e 47 59 79 3f b3 82 f0 3e 89 9f f2 be
       0.49536893 0.9740185 0.46974716 -0.4738734
000010 0f 4e 21 3f 44 83 1e bf 37 e4 9a 3f 6e 74 e4 be
       0.6300973 -0.61919045 1.2100896 -0.4462008
000020 f3 79 f3 be b5 22 b4 be fc 3d c3 3e c6 f0 ce 3e
       -0.47553977 -0.3518273 0.38133228 0.4041807
000030 e3 20 66 3f 3d a9 9b 3e 59 f2 50 3e 76 37 69 bf
       0.8989393 0.30402556 0.20404948 -0.9110025
000040 71 e8 4c 3f 9c 72 0e 3f 5c 38 09 bf 12 71 e7 3d
       0.8004218 0.5564363 -0.5360162 0.11300863
000050 23 ef 48 be 2d 40 c4 be dd 53 b6 bd c9 26 85 bf
       -0.19622473 -0.38330212 -0.089027144 -1.0402461
000060 be 41 74 bf c1 58 18 bd e1 e4 06 3f d9 37 92 3f
       -0.95412815 -0.037194017 0.5269299 1.1423293
000070 1f 9b 24 be 43 ae c9 3c de 13 f5 3e a5 a3 ed be
       -0.16074799 0.024619227 0.4786672 -0.46413913
000080 da 35 0b 3f 1f e8 9c be c4 42 1b 3f a7 24 bb be
       0.54379046 -0.30645844 0.6064875 -0.365514
000090 7c 1c 00 be 0a 8f 67 3e 35 06 10 3f 41 94 1b 3f
       -0.12510866 0.22613159 0.5625947 0.6077309
0000a0 13 e2 54 be 72 1b bb 3e 44 ad de 3d 29 99 9c 3e
       -0.20789365 0.36544377 0.108728915 0.30585602
0000b0 df 04 03 bf 50 ba 8e be 5f 1f 75 be 80 f4 2d 3e
       -0.5117931 -0.2787652 -0.23937748 0.169878
0000c0 e8 cf ca be cb 8a 0f 3f 19 e9 ca bd e2 1c 3b 3d
       -0.39611745 0.56071156 -0.09907741 0.04568184
0000d0 77 9d dd 3e 89 d4 1a 3e 23 70 b6 be 12 b4 3b bf
       0.432842 0.15120138 -0.3563243 -0.7332164
0000e0 41 3b 3d 3f 57 f3 37 3d 69 b8 98 be 19 55 c0 be
       0.7391854 0.0449098 -0.29828194 -0.37564924
0000f0 9f a8 7b 3e 14 27 43 be 22 61 cf 3d b3 e0 cd 3d
       0.24576043 -0.19057876 0.101259485 0.100526236
000100 d8 db fb bf d2 c2 3d 3f 04 6c f8 be b2 c4 60 be
       -1.9676466 0.741254 -0.4851991 -0.21950033
000110 e0 e7 7e be 58 fb 84 bf 99 29 f6 bd 20 64 fd be
       -0.24893141 -1.0389204 -0.12019653 -0.49490452
000120 e2 be 80 be cc fe 5a bf 53 4e 66 3f 64 9e 2a 3f
       -0.25145632 -0.8554504 0.89963263 0.66647935
000130 ed 02 f9 be 98 6d bf 3d e7 27 03 bd 6f 94 0b 3e
       -0.48635045 0.09347075 -0.032020476 0.13630842
000140 e1 30 87 3e 00 8a 23 bf 8e e6 63 3f 54 51 7d 3e
       0.2640448 -0.63882446 0.89023674 0.24738055
000150 5a 6f 5b 3f ae 6c 92 3e 71 2f 32 3e 37 9b 83 be
       0.85716784 0.2859854 0.1740091 -0.25704357
000160 9c f7 c5 bc a3 e8 d3 be 60 1e 7b bf b5 78 ca 3e
       -0.02416592 -0.41388425 -0.98093224 0.39545217
000170 d5 07 b8 be 36 2a cc 3d 8b 0f 41 be eb 3f 95 bf
       -0.35943475 0.099689886 -0.18853585 -1.1660131
000180 09 71 f5 3e 66 42 bf bd 8d 44 f0 3e 5f 28 15 3d
       0.479378 -0.09338836 0.469273 0.036415454
000190 2c ea bb 3d 97 8a e9 3e 08 0b d3 bd 29 33 78 bf
       0.09175524 0.45613548 -0.103048384 -0.96953064
0001a0 1e b0 10 3e 9a d5 f9 be ee 4a 1a 3f 06 8d b0 be
       0.14129683 -0.48795778 0.60270584 -0.34482592
0001b0 24 57 d6 3a c4 47 2d bf 1d 36 11 3f 98 bf 9f bd
       0.0016352874 -0.6768763 0.56723195 -0.078002155
0001c0 59 d3 b0 bf 92 72 8a 3e 56 9e 81 bf 7f 44 12 3e
       -1.3814498 0.27040535 -1.0126445 0.14283942
0001d0 f7 67 88 be 31 82 b3 be 4c 1f e4 be 28 9c aa be
       -0.2664182 -0.35060266 -0.44555128 -0.33322263
0001e0 ce 18 3d 3f 64 b1 17 3f 2a 9e ff bd 2c 5e 1a be
       0.73865974 0.5925505 -0.12481339 -0.15074986
0001f0 e6 bd 79 be 50 d8 b3 3e f1 87 fe 3e 1f 1c a0 3e
       -0.24388847 0.3512597 0.4971309 0.31271455
000200 0a 03 21 3f a4 6b 01 bf d6 52 89 3d 9f 20 27 be
       0.6289526 -0.5055487 0.06705253 -0.16321038
000210 f4 6c c0 3e 06 95 e2 3d 88 66 dd 3e 30 dd d9 3e
       0.37583125 0.1106358 0.43242288 0.42551565
000220 af cb a3 3e f3 91 90 bf 57 8b ad 3e 47 98 4e be
       0.31991336 -1.129454 0.3389537 -0.20175277
000230 b1 f5 ff 3c 08 85 fa 3e d0 9f 2d bd c8 f2 91 3f
       0.031245084 0.4892962 -0.042388737 1.1402216
000240 6c d7 8b be 44 3a b8 3e 0e d8 ae 3e 79 cf e6 3d
       -0.2731279 0.35981953 0.34149212 0.11270041
000250 68 83 27 bf cd c7 2a bf c2 0f 05 3f 02 11 0c 3f
       -0.65434885 -0.6671112 0.5197717 0.5471345
000260 2a 4d d7 3e 3c b4 6e 3f e5 f2 39 bf 16 12 96 be
       0.4205106 0.93243766 -0.7263625 -0.29310673
000270 3b 41 3f bf 8f 73 ad bf f0 69 a1 3e ed 2b aa 3e
       -0.7470891 -1.3550891 0.31526136 0.33236638
000280 bb c8 98 3f 47 39 8c 3f 7d c3 15 be 04 29 c2 3e
       1.1936258 1.095498 -0.14625354 0.37921917
000290 b0 86 57 be 96 1a 36 3f 6d fe 63 be b0 14 44 be
       -0.21047473 0.71134317 -0.22265024 -0.19148517
0002a0 1e 7d c3 3d fc ce 8e be f6 4e ef bc 78 36 08 bd
       0.095453486 -0.27892292 -0.029212456 -0.03325507
0002b0 8c a1 09 3f d2 85 7d 3e bd d4 44 3e 5c c6 48 bf
       0.53762126 0.2475808 0.19221778 -0.7842767
0002c0 bc 03 b4 be b4 d2 52 3e 4b 27 f9 3b 84 c6 3e 3f
       -0.351591 0.2058819 0.007603561 0.7452166
0002d0 b5 09 5c 3d 0a 84 c6 bd 89 48 93 be 74 b6 04 bf
       0.053720195 -0.09693153 -0.28766277 -0.518409
0002e0 9f 0c bb 3e eb a8 dc 3e b5 c0 57 3f bb af 11 3e
       0.36533067 0.43097624 0.8427842 0.14227192
0002f0 bc 0d 83 3e 6e 6e d1 3e c6 d2 97 3d 20 b3 61 3d
       0.25596416 0.40904564 0.07413249 0.055102468
000300 0e 26 bd bf 4a 1c 49 3f 97 be 0b 3e 9e 2d ff be
       -1.4777238 0.7855879 0.13646923 -0.4983949
000310 c6 00 51 3e 84 d8 f2 be 61 6e 5b bd d3 ad ac 3e
       0.20410451 -0.47430813 -0.053572062 0.33726367
000320 1e 7b 00 bf ed 09 45 be 4c ea 62 3e 76 b4 45 3f
       -0.5018786 -0.19242068 0.2215969 0.77228487
000330 79 62 03 3f 8e 76 05 3e a3 ba 31 3f 93 97 d6 be
       0.5132213 0.13033506 0.6942541 -0.41912517
000340 17 9a 13 bf e0 31 49 3f 4d 69 5e 3f 1c 5e 99 be
       -0.57657 0.7859173 0.86879426 -0.29954612
000350 a4 2f a2 3c e6 9c 48 3f ea 37 47 be b6 9c 34 3f
       0.019798107 0.7836441 -0.19454923 0.7055162
000360 4c 49 1b bf 78 ce 28 bf d9 ff 37 3e 3f 5a 19 3f
       -0.6065872 -0.65940046 0.17968692 0.5990333
000370 e4 c5 42 be b9 72 7d bd 45 81 08 3f e3 2f f4 be
       -0.19020802 -0.061876986 0.5332225 -0.47692785
000380 d2 ef 05 3f e0 29 38 3e bf 34 0e bf f4 36 a0 3e
       0.5231906 0.17984724 -0.55549234 0.31291926
000390 65 13 ae bf c0 73 95 3f 5f db cc be 3e 99 63 bf
       -1.3599669 1.1675949 -0.40011117 -0.88905704
0003a0 20 94 83 3d 98 e4 3b 3f 3d ff 95 3d 67 6f e8 be
       0.06424737 0.7339568 0.073240735 -0.45397493
0003b0 d6 5b 98 bd ad 6c c9 be cc b3 a1 bd 8e 8e 58 bf
       -0.07439391 -0.39340726 -0.07895622 -0.8459252
0003c0 2b 2d 73 bf a9 6f b0 3f 82 0e 15 3f 50 85 3b 3f
       -0.94990796 1.3784076 0.5822526 0.73250294
0003d0 a8 a4 36 bf af ee 18 3f 36 8a e0 3d 23 0e fb be
       -0.71344995 0.597392 0.10963862 -0.49034223
0003e0 3b 41 a7 3f 92 3c 85 3d 1d ee d6 bc 80 72 43 3e
       1.3066782 0.065056935 -0.026236588 0.19086647
0003f0 aa 6e ae bf fa 40 04 3f 32 54 08 3f 1f b6 cc 3e
       -1.3627522 0.51661646 0.5325347 0.39982697

fc2.bias f4 [64]
000000 67 87 56 3f e5 bd c5 3d 9f f4 a2 3e 93 6f fd 3e
       0.8380036 0.0965536 0.31827256 0.49499187
000010 fb bf 44 3e 05 96 8b bf 9e af 12 bf fd 0d c1 3e
       0.1921386 -1.0905157 -0.5729922 0.37705985
000020 39 0e 31 3f 3e 4d 18 bb 80 10 37 be 30 32 8f 3e
       0.6916233 -0.00232394 -0.17877388 0.27967978
000030 e3 c1 c3 3e 6b 90 88 bd 07 76 97 be a4 59 3f 3f
       0.3823386 -0.066681705 -0.29582235 0.74746156
000040 a4 14 d0 3c 49 fb 4f bf 18 a7 15 bf 2a f3 87 be
       0.025400467 -0.81242806 -0.5845809 -0.26552707
000050 ef a1 dd 3d e2 91 5b bf 8a 16 49 3d 1f 0f 9a be
       0.10821902 -0.85769475 0.04909376 -0.3008966
000060 31 ef 12 3f f8 eb 99 be 9d 6d 32 be b6 ac 2d bf
       0.5739623 -0.30062842 -0.17424627 -0.6784166
000070 c4 71 21 bf dc 81 9c 3e 99 bb 55 bf 01 88 5f be
       -0.6306422 0.30567825 -0.83489376 -0.21829225
000080 1c dc 5a 3e 2d c2 e7 3e f4 87 fe 3e 17 45 b3 be
       0.21373028 0.45265332 0.497131 -0.3501365
000090 7a 2d b4 bd bb 65 14 3f a7 fd 8a bf a0 2d d1 3e
       -0.087977365 0.5796773 -1.0858659 0.40855122
0000a0 cb c1 c8 3e 0a de 6d 3f 1a a4 08 bd bf 77 86 3e
       0.39210352 0.9291693 -0.033359624 0.26263234
0000b0 ba f7 ac bc 4f 29 b5 be d1 24 ac be 4c 3c 81 be
       -0.021114219 -0.35383078 -0.3362184 -0.25241315
0000c0 fe 5e 1c 3d d7 a6 37 be 10 10 11 bd e6 8b 38 bf
       0.03817653 -0.17934738 -0.03541571 -0.7208847
0000d0 f1 44 5c be a4 7f 2c 3e e0 42 88 be e5 89 50 3f
       -0.21510674 0.16845566 -0.26613522 0.8146041
0000e0 35 eb 2b 3b a8 91 6d be ad a0 15 3f de 99 11 be
       0.0026232724 -0.23200095 0.58448297 -0.14218852
0000f0 97 ca 1f 3f 03 e2 81 3e 68 32 b5 be b2 7e 79 3e
       0.624185 0.25367746 -0.3539002 0.24364737

fc3.weight f4 [64, 64]
000000 9f e2 67 3f 7b ac 5e 3e c4 9e af 3e 04 10 0b bf
       0.9058017 0.21745484 0.34300816 -0.5432131
000010 6c 55 09 40 8f 0a 9c bf dd ad f5 bf fa b3 0f bf
       2.1458387 -1.2190722 -1.9193684 -0.56134
000020 d9 bc a5 3f d5 05 0a 3f e3 82 ec 3e 8b 83 7d bf
       1.2948257 0.5391515 0.4619361 -0.99028844
000030 b2 2e b5 3a 4e 9a c1 3e 96 67 64 3f 91 76 d3 3e
       0.001382312 0.37813038 0.8922056 0.41301396
000040 e7 52 f7 3e 8d 9a 9f bc 34 08 26 bf bb 55 96 be
       0.48305437 -0.019482875 -0.64856267 -0.29362282
000050 1b ed f2 3e 14 2f 10 bf c9 dd 14 3e 9b a5 58 3f
       0.47446522 -0.56321836 0.1453773 0.84627694
000060 72 93 42 3e 6a 31 8f bf 6e f2 49 3e a3 f7 b7 3e
       0.19001558 -1.1186955 0.19721386 0.3593112
000070 f5 86 a8 bf d3 55 80 be 89 58 44 be 4e 3c b0 bf
       -1.3166186 -0.2506548 -0.19174398 -1.3768404
000080 ce 51 6d 3e 3f 19 22 bf bb 08 89 be 38 e6 0c bd
       0.23175737 -0.6331977 -0.26764473 -0.03439924
000090 2a 73 b8 bf 05 ca 47 3e e8 de fe 3d a1 c3 ce 3e
       -1.4410145 0.19510658 0.1244486 0.40383628
0000a0 2a df c2 3e 4e 5a 07 3f 6f 49 06 be 9d 3a 63 bf
       0.38060886 0.5287217 -0.1311395 -0.8876131
0000b0 77 69 ef bb 34 bc a5 be fe 24 aa be 0b c7 95 bf
       -0.0073062736 -0.3237015 -0.33231348 -1.1701368
0000c0 fd 6e ea 3e 5b be a7 3e 0b 95 07 3f b4 26 c0 be
       0.45787802 0.32762417 0.52961797 -0.37529528
0000d0 45 ec 9a 3e 40 6d 25 3e b7 d4 1d bf 6e 9c 00 bd
       0.30258384 0.16154957 -0.616527 -0.031399183
0000e0 02 64 73 bf 72 8a 46 be 10 c9 32 be d1 aa 22 bd
       -0.95074475 -0.1938875 -0.17459512 -0.039713684
0000f0 32 c2 fa be 81 56 66 3f 12 4c 39 3d 5d 5f a3 3f
       -0.48976284 0.89975744 0.045238562 1.2763478
000100 29 fd a2 bd c3 43 69 3c 0b 2c 02 3c dd c9 1a be
       -0.07958443 0.014237347 0.007945071 -0.15116067
000110 8c 8c 3f 3c ce 8a 02 be f0 44 c3 bc c7 d1 25 be
       0.011691224 -0.12748262 -0.023836583 -0.16193305
000120 f6 e2 19 be 17 3b 89 bd 9c 97 1f bd fc 8f 7d bd
       -0.15027985 -0.067007236 -0.038962945 -0.061904892
000130 e7 6f ff bd ef ae c2 bc 4e 6b 86 bc 54 ec fc bc
       -0.124725156 -0.023765055 -0.016408589 -0.030874409
000140 d6 79 ea ba d6 21 9d bd 8c ee f7 bc e6 9f 01 be
       -0.0017889093 -0.07672469 -0.030265115 -0.12658653
000150 ee 9b 39 bd dd 69 0b be 37 7a e7 bd 8e 2a fa bd
       -0.04531472 -0.13614602 -0.113026075 -0.12215148
000160 13 ae b1 bd bf f0 f6 bd f0 3b 77 bc e5 76 17 bd
       -0.0867578 -0.120576374 -0.015089974 -0.03697862
000170 2e 40 c4 bd c4 d1 30 be 74 f4 69 3c 8d f8 d4 bd
       -0.09582554 -0.17267519 0.014279474 -0.1039897
000180 f9 a1 33 3d ea a2 fd bd a1 db 3e be d7 7c 5e bd
       0.04385564 -0.12384589 -0.1863847 -0.054318275
000190 a1 c4 9e bd 3f fc 8c bd c1 89 31 bd f3 97 36 3c
       -0.07752348 -0.068840496 -0.043344263 0.011144626
0001a0 58 d1 33 be 3b 0c f1 bc 4e d9 b9 bd 08 73 15 be
       -0.17560327 -0.029424777 -0.09074651 -0.14594662
0001b0 5d 8f 9a bb 80 a3 30 3d fc b0 a7 bd 3e 4a 87 bd
       -0.0047167973 0.043124676 -0.08188054 -0.066059574
0001c0 03 5a 7d 3d 6a d1 c2 3d a8 82 79 3d fd 74 98 bd
       0.06185342 0.09512599 0.06091562 -0.07444189
0001d0 16 67 0c bd 03 34 cf bd 9d b9 f6 3c b3 ef 1b 3b
       -0.034277998 -0.10117342 0.030117804 0.0023793995
0001e0 58 be f3 bd 69 6c 7e 3c 1d 2c 25 bd e5 0d d2 3b
       -0.119015396 0.015528777 -0.040325273 0.0064103478
0001f0 3f fe f1 3c 05 02 70 bd 3f 76 23 be 91 b3 7b bc
       0.02954018 -0.058595676 -0.15963076 -0.015362636
000200 e6 b3 79 be 31 c5 81 3f 6f aa 16 3f c4 9f e3 3e
       -0.24385032 1.0138303 0.5885381 0.4445783
000210 34 9d 00 be a5 a1 86 bf 03 93 af be 56 5d 74 3e
       -0.12559968 -1.051808 -0.3429185 0.2386373
000220 22 b1 ee be d0 99 ce 3f 51 28 eb bd ed 5b 6c 3e
       -0.46619517 1.614069 -0.11482299 0.23081942
000230 fd b2 b5 3e 5d 70 4c 3f 98 a2 11 3e 47 32 d0 3e
       0.3548812 0.7985895 0.14222181 0.4066336
000240 d3 13 47 3f 94 1b a4 3d 6c 1d 5a bf ba 4b 12 3f
       0.77764624 0.080130726 -0.85201144 0.571468
000250 7e 3c 8c 3f e4 32 80 3e 0d be a8 be 80 0d a1 3f
       1.0955961 0.25038826 -0.32957497 1.2582245
000260 ae 6d 7a bf 88 12 63 bf 38 5d b7 bc 80 42 47 bf
       -0.9782361 -0.8870015 -0.022383317 -0.77835846
000270 a6 58 99 bf 39 21 51 3c d3 0d 62 bf 72 95 e4 be
       -1.1980178 0.012764269 -0.88302344 -0.44645268
000280 c8 dd e3 be f3 38 c4 be be df 15 bf eb 34 d1 be
       -0.44505143 -0.383247 -0.5854453 -0.40860686
000290 ad b4 45 bf 23 cc f1 3e 23 82 b6 be 6d ce b9 3e
       -0.77228814 0.47226056 -0.3564616 0.36290303
0002a0 70 60 cf 3e 55 42 95 3e a6 15 d4 bf 1c c8 4d bf
       0.40503263 0.2915217 -1.6569107 -0.8038347
0002b0 ad 9f 9e be e4 c0 cb 3e df 34 1d bf a6 18 0c 3e
       -0.30981198 0.397956 -0.614088 0.13681278
0002c0 fe 72 81 be 50 ed 0a bf db f1 74 3b 34 10 8a bf
       -0.25283045 -0.5426836 0.0037375602 -1.0786195
0002d0 49 cb 87 bf e5 68 7c 3f 6a 15 bf 3e 8b d5 ba bf
       -1.0608913 0.98597556 0.37321025 -1.4596418
0002e0 2c d3 16 bf 17 f2 75 bf f3 cb db bd 40 23 38 bf
       -0.5891597 -0.96072525 -0.107322596 -0.7192879
0002f0 2c 7a c6 bd 47 e2 eb 3e 91 72 63 3f 54 36 03 bf
       -0.09691271 0.46071073 0.8884669 -0.51254773
000300 d0 83 0c 3f 57 7d 62 3f e9 3b 36 bf 11 14 8d 3f
       0.5488863 0.88472503 -0.71185166 1.1021749
000310 df 5a a0 bf 72 0a 6d 3e 5a 9b e1 3e b3 60 19 3e
       -1.2527732 0.23148516 0.44063836 0.14978294
000320 08 1c 10 3d 59 1b c6 bf 4b 6e 87 bd 20 57 58 bf
       0.035182983 -1.5477096 -0.066128336 -0.8450794
000330 b3 64 35 3f af 08 61 bf 9f 26 a7 3e ab 58 81 3e
       0.7085678 -0.87903875 0.32646653 0.2526296
000340 33 55 be bf fc d0 b6 bf fb 44 b8 be 91 6b c4 bf
       -1.4869751 -1.4282527 -0.35990128 -1.5345327
000350 f6 16 fe 3e c4 1f 05 be 7d c8 03 bf 0f a8 e1 3e
       0.49626893 -0.13000399 -0.51477796 0.4407353
000360 b6 58 e9 be ae f5 8f bc dc e7 26 c0 c3 1c 8a 3f
       -0.45575494 -0.017573204 -2.6079016 1.0790027
000370 22 d3 89 be 83 39 9c bf dc 5b 8c bf 84 22 00 3f
       -0.26918894 -1.2205051 -1.0965533 0.50052667
000380 e3 5a bf bf 03 ea d5 bf b7 25 06 3f ac 4f 0d bf
       -1.4949611 -1.671204 0.524013 -0.55199695
000390 52 6b 29 3f 3c 40 89 3d 0c dd 48 3f a6 b3 d1 3e
       0.6617938 0.06701705 0.7846229 0.40957373
0003a0 bc 35 96 3f e3 09 37 3f 6b c7 28 bf 09 1d 47 be
       1.1735148 0.7149946 -0.6592929 -0.1944467
0003b0 65 69 84 3e 27 df 13 bf 86 e5 ed bd 53 cc 60 3d
       0.2586166 -0.5776238 -0.11616044 0.05488236
0003c0 4c 32 d6 bf ca c0 e6 be 01 f7 60 3c 85 da 4f 3e
       -1.6734099 -0.4506896 0.013730765 0.20298202
0003d0 1f 1e 72 3f ac 2d 08 3e 3b 78 26 bd 80 b3 a4 be
       0.9457721 0.13298672 -0.040642004 -0.32168198
0003e0 e7 ca 82 bf 21 0e 11 bf bb 78 62 3d 67 bc 61 3f
       -1.0218171 -0.56662184 0.05529092 0.88178104
0003f0 11 0e b4 3e 35 ca 9b be 10 bf e7 3e 86 8d 20 bf
       0.35166982 -0.3042771 0.45262957 -0.6271595

fc3.bias f4 [64]
000000 3f 42 02 3e 8a 03 55 be 39 4e af bd 32 d1 5a bf
       0.12720583 -0.20802131 -0.08559842 -0.85475457
000010 3f c6 cf 3e 31 b7 01 bf 50 1a fa 3d 03 5f ef bd
       0.40580937 -0.5067015 0.1221205 -0.11688044
000020 40 b5 cf bd cf 9b e9 3e ae aa 82 bd 18 8d f8 3e
       -0.101419926 0.45626685 -0.06380211 0.48545146
000030 e4 87 9a 3e 8b ec 87 3c b8 da de 3e 96 83 98 3c
       0.301818 0.016592285 0.43526244 0.018617433
000040 ea f3 5e 3e 39 a5 8f be fd 7c 2f bc 04 8a 98 be
       0.21772733 -0.28055742 -0.010710952 -0.29792798
000050 62 86 60 bd 5e ee ca 3e 57 b0 d7 bf 73 c7 0d 3f
       -0.054815657 0.39634985 -1.685069 0.5538246
000060 76 ea a4 3e 4a 1f c6 3e ea 13 22 3f 16 e7 5f bc
       0.3221013 0.38695747 0.63311636 -0.013665935
000070 27 93 9c 3e 66 31 b1 3e ea 3d 01 3d 8c 32 82 bf
       0.30581018 0.34608 0.031553186 -1.0171676
000080 f7 96 d2 be 34 4f 39 bf 9a 3f 58 bf c9 0d d4 3e
       -0.41130802 -0.7238648 -0.8447205 0.41416767
000090 c3 94 7d be 73 5f 22 bd 7f 29 38 bd 6d e0 8d be
       -0.2476378 -0.03964181 -0.04496145 -0.27710286
0000a0 fd 45 63 3b 12 19 15 bf f4 36 10 bf 88 58 bb bf
       0.0034679167 -0.5824138 -0.5633385 -1.4636393
0000b0 ed 3d c2 3e 89 af d9 3d f7 5d 9a be 8f 30 33 bf
       0.3793787 0.10629184 -0.30149814 -0.6999597
0000c0 ed 80 ae be e9 65 af bf bf a0 b4 3d be 79 60 bf
       -0.34082738 -1.3702976 0.088197224 -0.87685764
0000d0 f1 66 46 bf e5 25 2a bf 2d e3 26 3f 85 ba 26 be
       -0.77500826 -0.6646407 0.6519039 -0.16282089
0000e0 83 e1 62 bf 23 9d 27 bf 6b d5 5f be c4 f8 8a bf
       -0.88625354 -0.65474147 -0.21858756 -1.0857167
0000f0 21 2a 81 3e dc ee f0 be 56 70 5a be 96 cc c8 3e
       0.25227454 -0.47057235 -0.21331915 0.39218587

action_out.weight f4 [5, 64]
000000 a5 41 89 3e a5 a3 de 3d c1 c4 3c be a7 03 f9 bc
       0.26807895 0.108710565 -0.1843443 -0.03039725
000010 fb 1c 41 c0 02 42 30 3f 0d b4 f9 3f 49 8e 32 be
       -3.0173938 0.6885072 1.9508072 -0.1743709
000020 73 fa 1c 3f 5b ec 19 bf ba 4c b7 be d3 2c 79 3e
       0.61319655 -0.60126275 -0.35800725 0.24333505
000030 3f 92 4c bf f2 10 a9 be e4 95 78 bf 90 6b 7a be
       -0.79910654 -0.3302074 -0.97103715 -0.24455094
000040 e2 2e c9 3d a4 b4 28 40 bf 96 4b 3f 16 84 9e 3e
       0.09823395 2.6360254 0.79526895 0.3096015
000050 3f 5d e3 bd 1e 69 74 bf 2b 39 42 be 3e 8a 04 bf
       -0.1110177 -0.95472896 -0.1896712 -0.5177344
000060 e9 aa af be 1c 58 2e bf 0a 54 fc bf 23 48 04 3d
       -0.34310082 -0.68103194 -1.9713147 0.032295357
000070 1a c6 f6 bf 31 94 e3 3f 47 46 a4 bf 4d 47 b7 3e
       -1.9279206 1.77796 -1.2833947 0.35796586
000080 9e 2f 8e 3d 2f 79 dc bf 13 c5 a7 3f 7a 12 15 bf
       0.06942676 -1.7224482 1.3107017 -0.5823132
000090 64 9f 9e bf 28 9d 5c bf 5a a7 38 3e bf 95 01 bf
       -1.2392392 -0.861773 0.1803259 -0.5061912
0000a0 b9 90 61 3f 84 26 8c 3f ef b8 96 3f 6f a5 6e 3f
       0.88111454 1.0949254 1.1775187 0.9322118
0000b0 18 2d 24 3f 7d 4f 65 bd 65 bf 23 3f 0f 5d 25 3f
       0.6413131 -0.05598401 0.6396392 0.6459512
0000c0 ab 76 01 3e 96 71 2d 3f 6f 50 d6 3e 45 25 90 3f
       0.12642924 0.67751443 0.4185824 1.1261374
0000d0 08 fa 36 be 14 c3 26 3f 40 83 4f 3f 53 3b ed 3e
       -0.17868817 0.65141416 0.81059647 0.46334323
0000e0 f9 eb 9a bf 9e 80 88 be ed 5c 3b bf b8 cc 1c 3f
       -1.2103263 -0.26660627 -0.7318867 0.61249876
0000f0 fe 07 81 bf 56 11 26 bd 8c 4f a7 bf 33 c1 36 3e
       -1.0080564 -0.040543877 -1.3071151 0.17847137
000100 19 aa a1 bf e5 c1 49 bc 46 ad c2 3f 4e e9 82 3e
       -1.2630035 -0.012314294 1.5209129 0.25568622
000110 7b 42 05 bf c5 9c a0 bf 7a b3 8f be b3 9f 5b 3e
       -0.52054566 -1.2547842 -0.28066617 0.21447639
000120 0c ac 04 bf ec b1 4b bf 68 0a 54 3e 9a d2 f3 bc
       -0.5182502 -0.7956836 0.20707095 -0.029763509
000130 1f 5c 8b bf 44 f2 00 3f 8b bd 1d 3f ba 22 9e 3e
       -1.0887488 0.5036967 0.61617345 0.3088587
000140 9a 99 10 bf 2d 65 a2 3e d3 44 d8 bf fe 8a ca 3f
       -0.5648438 0.31717816 -1.6896003 1.5823667
000150 ff 7a 2d 3d ab 42 28 3e a0 61 8f 3e 62 06 26 3f
       0.042353626 0.16431682 0.2800417 0.6485349
000160 30 92 41 be 2c 77 43 bf de b1 1f 3e 4a b5 fb bc
       -0.18903422 -0.76353717 0.15595195 -0.030726094
000170 91 87 3c 3c 11 d6 b2 3f 18 a5 fa be 87 55 81 bf
       0.011506931 1.3971578 -0.48954082 -1.0104226
000180 c1 9e e0 3e 6b fc b0 bf 0b 8c 98 3e 66 c1 73 3e
       0.4387112 -1.3827032 0.29794344 0.23804244
000190 ca e7 0b bf f3 d4 ae 3f 74 52 75 3e 83 39 4a 3f
       -0.5465056 1.3658737 0.23957235 0.78994006
0001a0 dd 2f 84 3f 4a e0 aa bf 88 de f7 3f 23 a6 85 bf
       1.0327107 -1.3349698 1.9364786 -1.0441326
0001b0 3a 44 0c 3f 06 72 3a bf a1 2a cf bf a4 66 0f c0
       0.54791605 -0.72830236 -1.6184884 -2.2406397
0001c0 82 ff 72 3e 15 67 f0 3f 37 ab af 3f ae cc 34 3e
       0.23730281 1.8781458 1.3724126 0.17656204
0001d0 85 5b ef bd db df b6 be 35 6d eb 3e 21 4e 25 3f
       -0.11687378 -0.35717663 0.45981756 0.6457234
0001e0 d2 f7 be 3f 23 f3 fd 3f 7f 3f 80 3f 0e 19 b5 3f
       1.4919379 1.9839824 1.0019377 1.4148271
0001f0 70 9b 32 bf dd d7 ca 3d 78 a5 21 3f 4d 37 df 3d
       -0.6976843 0.09904454 0.6314311 0.1089922
000200 c4 ea 05 3f af a9 a8 3c 23 76 c9 bf 36 62 85 3f
       0.5231135 0.020588724 -1.5739177 1.0420597
000210 49 e2 bc bd d7 fb 12 3f 62 b4 a3 bd f9 b1 49 bf
       -0.09222848 0.5741553 -0.0799339 -0.7878719
000220 02 3c 30 be 9e fa db 3e 2a c4 d6 bd 7d 07 d3 3f
       -0.17210391 0.42964643 -0.10486634 1.648666
000230 0f af 8a 3f ba eb d3 bf 81 0e 1a bf 3d 0e 9c be
       1.0834674 -1.6556313 -0.6017838 -0.30479613
000240 4b 9b 81 3f 59 05 a1 be fb ca 3b 3f f2 d7 a6 bf
       1.0125517 -0.31449392 0.733566 -1.3034651
000250 bb bd 42 bd 26 08 9e 3f 90 f7 b2 3f d7 9c c4 be
       -0.047544222 1.2346237 1.39818 -0.3840091
000260 a9 6c 58 3e 43 0a 70 3f 11 7c 0b bf 5c 41 32 bf
       0.211352 0.9376566 -0.54486185 -0.6963098
000270 4a 87 da 3d 07 de 89 bf 56 90 c6 3d 7b 26 76 be
       0.106703356 -1.0770882 0.09695499 -0.24038117
000280 0d 0e f6 3e a7 b6 12 3d 13 6e 00 c0 fe 53 ad 3e
       0.48057595 0.035818722 -2.0067184 0.33853143
000290 64 5d 92 bf fb c9 ae bf dc 31 a4 3e a7 ff 6a bf
       -1.143475 -1.365539 0.3206929 -0.91796345
0002a0 2c 48 6a bf 73 a2 b4 3e 91 25 ba bf ad 0b 8b 3e
       -0.91516376 0.3528019 -1.4542714 0.27157345
0002b0 21 a9 1a bf f7 37 40 3f c4 24 02 40 74 af a5 3f
       -0.6041432 0.75085396 2.033494 1.2944169
0002c0 6c 3c 1f bf aa 15 ee bf 41 e4 ba bf 5d e1 b5 3f
       -0.6220157 -1.8600361 -1.4600908 1.42094
0002d0 a7 fd b8 be 0a 03 98 3f 5a 7d d6 3e 4b 8d e6 3d
       -0.3613102 1.1875927 0.4189251 0.11257418
0002e0 03 bc 74 bf bf f6 79 bf 0e c4 61 bf 50 79 97 bf
       -0.95599383 -0.9764213 -0.8818978 -1.1833897
0002f0 33 a1 88 3f 3f 7b 83 be 07 9e 9f bf 6f 47 40 bf
       1.0674194 -0.25679967 -1.2470101 -0.75109
000300 95 67 e9 3e 79 99 17 3d 89 fc 64 3f ed c5 aa 3f
       0.4558684 0.037011597 0.8944784 1.3341652
000310 5a 82 7a be 19 66 45 bf ba 19 53 bf dc 02 9d 3f
       -0.24463788 -0.77108914 -0.8246113 1.2266498
000320 06 71 03 3f 18 78 b9 3f c1 d0 17 3f 01 a6 f4 3e
       0.51344335 1.4489775 0.5930291 0.477829
000330 51 64 ba 3e b1 cb 55 3f 7a bb a1 3f 1a 70 83 3f
       0.3640466 0.83513933 1.2635338 1.0268586
000340 8d 9c 38 3f 9a 52 f8 be 87 4c 5f 3f a2 29 1b 3f
       0.7211388 -0.4850052 0.87226146 0.606104
000350 95 ff 8a bd 16 08 03 c0 c6 5f ac be 8d a3 1c 3f
       -0.0678703 -2.0473685 -0.3366682 0.6118706
000360 c2 1c cb bf 41 1d 90 bd 80 11 9f 3f 9a f3 1e bf
       -1.5868151 -0.0703683 1.2427216 -0.62090456
000370 b2 fd 4c bd 9d 3a 8f bf c7 2b 90 bf df 27 c1 3d
       -0.05004663 -1.1189762 -1.126336 0.09431433
000380 a0 08 02 40 9d 65 a6 bf 09 03 66 3f 15 7d 17 3f
       2.0317764 -1.299976 0.8984838 0.59175235
000390 f8 5b cd 3e e3 79 79 3e 98 42 e6 bf 56 cf 26 3f
       0.4010923 0.24362902 -1.7989073 0.6516012
0003a0 36 d6 44 3e 2d ac 0a bf c7 72 85 3f 00 a5 15 bf
       0.1922234 -0.5416897 1.0425652 -0.58454895
0003b0 a9 1c 56 bf 47 f2 64 3f 9b 6d 41 3f af 54 1c bf
       -0.8363748 0.89432186 0.7555787 -0.61066717
0003c0 60 8c 90 bf c7 39 33 bf b8 36 5a 3f f7 ca 0a 40
       -1.1292839 -0.70010036 0.85239744 2.168638
0003d0 b8 cd ab bf 25 e6 e6 bf 1c 4c d3 bf e6 45 6a be
       -1.3422155 -1.8038985 -1.6507602 -0.22878227
0003e0 4d 7a c1 be b2 4a 8d 3f 8c 30 07 3f 75 b6 06 bf
       -0.3778862 1.103842 0.5280845 -0.5262216
0003f0 9f 2e 9b bf 55 72 d1 be 1e 9c 17 3f a5 d7 d8 3f
       -1.2123603 -0.4090754 0.5922259 1.694081

action_out.bias f4 [5]
000000 14 9a c5 be 1a eb 8d 3d a3 05 73 3e f9 aa 94 3e
       -0.38594115 0.06929608 0.23732619 0.29036692
000010 44 9e 81 be
       -0.2531606
