model/simple_tag/agent_0/1_critic_params.pkl (torch_old, 51179 bytes, 7 tensors)

fc1.weight f4 [64, 63]
0	0xbf9b6d96	-1.2142818
1	0x3e5c04eb	0.21486251
2	0xbe8abc5a	-0.27096826
3	0xbe9e0afd	-0.30867758
4	0xbd94e592	-0.072703496
5	0x3ec0fbcf	0.37692115
6	0x3ceb162c	0.028697096
7	0x3f07ccb8	0.5304675
8	0x3f9c9ff8	1.2236319
9	0xbe3e1315	-0.18561967
10	0x3f2198b9	0.6312366
11	0x4006c2ee	2.1056476
12	0xc0475584	-3.1145945
13	0x407111e2	3.7667165
14	0xc017da11	-2.3726847
15	0x4013085d	2.2973855
16	0x3f35de5e	0.7104243
17	0x3f028f76	0.51000154
18	0xbe98f2dd	-0.2987279
19	0x3e3418d1	0.17587592
20	0x3d7877c8	0.060661107
21	0x3c817114	0.01580099
22	0xbdfb05aa	-0.1225694
23	0x3e85617c	0.26050937
24	0xbf8333c2	-1.025017
25	0x3ca553ff	0.020181654
26	0x3d424fe3	0.047439467
27	0x4034fae6	2.8278136
28	0xc050f20c	-3.2647734
29	0x40a821bc	5.254118
30	0xc00a654f	-2.1624334
31	0x401b4f4f	2.4267156
32	0xbe898613	-0.26860103
33	0x3faf5db2	1.3700469
34	0xbe599b74	-0.21250707
35	0x3e76b3bd	0.24092002
36	0xbdd2c3ea	-0.10291274
37	0xbeb9ea72	-0.3631168
38	0xbdb92f3a	-0.09042211
39	0xbe88e6ff	-0.26738736
40	0xbf1bbd7f	-0.60836023
41	0xc00dd86e	-2.2163348
42	0x3d9a7e37	0.07543605
43	0xc029db96	-2.6540275
44	0xc06e31be	-3.721786
45	0x40538ab9	3.305342
46	0xc01413f5	-2.313718
47	0x40106147	2.2559373
48	0x3d0250db	0.03181539
49	0xbf637315	-0.88847476
50	0xbdfd9566	-0.12382011
51	0x3e15725f	0.1459441
52	0xbe7e0a34	-0.2480858
53	0xbe001757	-0.12508903
54	0x3ed2d3ab	0.41177115
55	0x3ed20956	0.41022748
56	0x3d6a250d	0.05716424
57	0xbefe3acc	-0.49654233
58	0xbd8e65fe	-0.06953047
59	0xbe8b23a2	-0.27175623
60	0x3ea28ff1	0.31750444
61	0x3e551481	0.20808603
62	0xbf349ff7	-0.70556587
63	0x3f41881b	0.75598305
64	0xbe194d29	-0.1497084
65	0xbf385fc4	-0.72021127
66	0x3f991547	1.1959618
67	0x3f48cd20	0.78437996
68	0x40421e37	3.0330942
69	0xbedfa343	-0.43679246
70	0xc0650fc7	-3.579088
71	0x3ee9aa79	0.45637873
72	0x3f16134d	0.586232
73	0xbfbbe27a	-1.467849
74	0xbebf0832	-0.3731094
75	0x3ef80011	0.4843755
76	0x4025500c	2.5830107
77	0x3df0edac	0.11764082
78	0xbd9fd173	-0.07803621
79	0x3f05f9ae	0.52334106
80	0xbdfd661d	-0.12372992
81	0xbf236296	-0.63822305
82	0x3fd9fe3f	1.7030715
83	0x3f953e9c	1.1659732
84	0x40340d4d	2.8133118
85	0xbf14bf1c	-0.5810411
86	0xc0767c83	-3.8513496
87	0xbefa907f	-0.48938367
88	0xbf1b0934	-0.6056092
89	0xc0017c89	-2.023226
90	0xbfa49d7f	-1.2860564
91	0xbf047705	-0.5174411
92	0xbf1d8b94	-0.61541104
93	0x3cfef7ee	0.031124081
94	0x3dd6ecd9	0.10494394
95	0xbed58d1d	-0.41709223
96	0x3dc23ade	0.09483884
97	0xbe7a059e	-0.24416205
98	0x3f60c22d	0.8779629
99	0x3eb270d7	0.34851715
100	0x40814446	4.039584
101	0xbee8b4b2	-0.4545036
102	0xc0510b79	-3.2663252
103	0x3fa7a016	1.3095729
104	0x3ecaa1f6	0.3957669
105	0x4005f9d8	2.0933743
106	0x3fb92ee5	1.4467436
107	0xbe58afff	-0.21160887
108	0x3fdcbcb9	1.7245094
109	0x3cd2cf52	0.025733624
110	0x3c4b84ef	0.012421831
111	0xbe054ea8	-0.13018286
112	0x3eca06c9	0.39458302
113	0x3e4442ca	0.19166103
114	0x3f1384c0	0.57624435
115	0xbd5742a2	-0.05255378
116	0x3f0d1d49	0.5512281
117	0xbef44d8f	-0.47715423
118	0x3f3c31ec	0.73513675
119	0xbed0de09	-0.407944
120	0x3e60a74b	0.21938817
121	0xbeb2dd82	-0.34934622
122	0x3e7c7b79	0.24656476
123	0x3f2e538e	0.68096244
124	0x3ea95e1f	0.3307962
125	0xbde2b003	-0.11068728
126	0xbeec3926	-0.4613735
127	0x3e80d20a	0.25160247
128	0x3d40657c	0.046971783
129	0x3f1d3ea3	0.614237
130	0xbeadd780	-0.33953476
131	0xbee7a0a9	-0.4523976
132	0x3e691f59	0.22765864
133	0xbe830d45	-0.2559606
134	0xbece978c	-0.40349996
135	0x3e73821f	0.23780106
136	0x40b6e442	5.7153635
137	0xc0419c19	-3.0251524
138	0xc125bf12	-10.359148
139	0x40bac9f1	5.837151
140	0x3e031a62	0.12803033
141	0x3eca52bb	0.39516243
142	0xbe7e2bd1	-0.24821402
143	0xbd4457e2	-0.047935374
144	0xbda10e0a	-0.07864006
145	0x3d8280cd	0.06372223
146	0x3e9df0bf	0.30847737
147	0xbde01189	-0.109408446
148	0xbe33841c	-0.17530864
149	0x3da99175	0.08279697
150	0x3f06e833	0.5269806
151	0xbec51654	-0.38493598
152	0x4081f504	4.061159
153	0xc05b86bd	-3.4300988
154	0xc1046f57	-8.277183
155	0x40ae946e	5.455619
156	0x3cd4b5a1	0.025965514
157	0x3e806a9c	0.25081336
158	0x3de1d053	0.11026063
159	0xbeaab0af	-0.33337924
160	0x3e91dcf6	0.28488892
161	0xbf05103c	-0.51977897
162	0xbdeb88ea	-0.11500724
163	0x3f0878f8	0.53309584
164	0xbd8c453b	-0.06849142
165	0x3e3088e7	0.17239724
166	0xc0ba1cae	-5.816001
167	0x40487801	3.1323245
168	0xc087eadc	-4.2474194
169	0x40683347	3.6281297
170	0xc19fb4b7	-19.96324
171	0x41338d20	11.221954
172	0x3e26446a	0.16237035
173	0x3e8c04b9	0.27347353
174	0x3e7d2d07	0.24724208
175	0xbcb3a765	-0.021930406
176	0x3e534abf	0.20633982
177	0xbaeec93a	-0.0018217929
178	0x3c26412d	0.010147375
179	0xbd6e2cde	-0.058148257
180	0xbe069e47	-0.13146316
181	0x3e70585b	0.23471205
182	0x3dbf63db	0.09345218
183	0xbe82c16f	-0.25538203
184	0xbe254640	-0.1614008
185	0x3d63be4b	0.0556014
186	0x3d748827	0.059700157
187	0xbd209ce9	-0.03921214
188	0xbcd080d4	-0.025452055
189	0x3edbd13e	0.42933077
190	0x404d6ef5	3.2098973
191	0x3d683b62	0.056697257
192	0x3efc886e	0.49322838
193	0xbe524ca0	-0.20537043
194	0xbf0057d5	-0.5013402
195	0x3d6aa19c	0.05728303
196	0xbcc53e9a	-0.024077702
197	0x3f2deec4	0.6794245
198	0x3e47ac76	0.19499382
199	0xbf82e041	-1.0224687
200	0xbf55562f	-0.8333463
201	0xbef1fe94	-0.4726454
202	0x3ff56e38	1.9174261
203	0xbe82c45b	-0.25540432
204	0x3f0069ea	0.5016161
205	0xbf828d57	-1.0199383
206	0x3ff07405	1.8785406
207	0xbdf53c1e	-0.11974357
208	0xbdc3c2d1	-0.09558643
209	0x3ed5e0ae	0.4177298
210	0xbd18ccf1	-0.037304822
211	0xbe8616d3	-0.26189288
212	0x3e8eeffb	0.27917466
213	0xbefbf87f	-0.49213025
214	0xbe3804a4	-0.1797052
215	0x3da4548a	0.08023937
216	0x3ead53d1	0.3385301
217	0xbe01db05	-0.12681206
218	0x40cca692	6.3953333
219	0xbe3eb1e1	-0.18622543
220	0x3f240b10	0.6407938
221	0xbfe46547	-1.7843407
222	0xc102fade	-8.186247
223	0xbe86f6a9	-0.26360062
224	0xbdb7a584	-0.089671165
225	0x3d6383f7	0.055545773
226	0x3f167f31	0.5878783
227	0x3e379fd1	0.17932059
228	0x3d58ab6c	0.052897856
229	0x3fa177cf	1.2614688
230	0x3f3afacb	0.7303893
231	0xbe3d8990	-0.18509507
232	0xbece1305	-0.40248886
233	0xbf42e6d0	-0.7613344
234	0x40c9fcf9	6.3121305
235	0xbd57b132	-0.05265922
236	0x3f1b373e	0.6063117
237	0x3e5e37cd	0.21700974
238	0x3dfab53c	0.12241599
239	0xbf1c3ac0	-0.61027145
240	0x3fe5eb45	1.7962424
241	0xbfa43d8e	-1.2831285
242	0xbe085517	-0.13313709
243	0xbe99f548	-0.30069947
244	0xbbca507b	-0.006174145
245	0xbd2b0aa5	-0.0417582
246	0x3e30023a	0.1718835
247	0x3df8ba2a	0.12144883
248	0xbfb7443e	-1.4317701
249	0x3f6cc235	0.92483836
250	0xc036666e	-2.8500018
251	0x405c2d2a	3.4402566
252	0xbdda8164	-0.106692106
253	0xbe893c59	-0.26803854
254	0xbeb4d8de	-0.35321707
255	0x3e879cf6	0.2648694

fc1.bias f4 [64]
0	0xc0e0466e	-7.0085974
1	0xc0f6a6c8	-7.707859
2	0x3f8c7c23	1.0975384
3	0xc008a25d	-2.1349099
4	0x3e292097	0.16516338
5	0x4170b35f	15.043792
6	0xbfe2c96f	-1.7717723
7	0xbef47473	-0.47745094
8	0x3eb002d4	0.34377158
9	0x3f6821f3	0.906768
10	0xbfb4fa17	-1.4138821
11	0x4039558d	2.8958466
12	0x3f70bbef	0.94036764
13	0xc046969e	-3.102943
14	0x3ecba192	0.39771706
15	0x41503dff	13.015136
16	0x3ebcbd90	0.36863375
17	0xbf72b9d7	-0.9481482
18	0x3d47ec56	0.048809372
19	0xc11f76ac	-9.966473
20	0x3e06515d	0.13116975
21	0xbf0c37d2	-0.54772675
22	0x3d4240bd	0.04742502
23	0xc088a49b	-4.2700934
24	0xc0270924	-2.609933
25	0x3f5d2ce8	0.86396646
26	0xc104fd95	-8.31191
27	0x413a40b4	11.640797
28	0xc15b2bf3	-13.69823
29	0xbfa30063	-1.2734493
30	0x3edd0770	0.43169737
31	0xbfc35e80	-1.5263214
32	0xc05104da	-3.265921
33	0x4189b9c9	17.215715
34	0xbc0f9fea	-0.008766154
35	0x4011c92e	2.277904
36	0xc10020e0	-8.008026
37	0x3eabe294	0.33571303
38	0xbf06f0ea	-0.52711356
39	0x3e361176	0.17780098
40	0xbf064887	-0.5245442
41	0xbf0bda6a	-0.5463015
42	0xc1014d7e	-8.081419
43	0x417cb0ca	15.793161
44	0xc12744d0	-10.4543
45	0x3eb3da77	0.35127613
46	0xc116f405	-9.434575
47	0x3f1a423a	0.60257304
48	0xc03599f5	-2.8375218
49	0xc0e3d9b9	-7.1203275
50	0xc0e0d5a9	-7.0260816
51	0xc0b288ae	-5.5791845
52	0xbe1cc445	-0.15309246
53	0xc0d6fc72	-6.718316
54	0xc126fa99	-10.436181
55	0xbec7dd05	-0.39035812
56	0xbf8dd77a	-1.1081383
57	0xc0e186ff	-7.047729
58	0x4057cc0c	3.371829
59	0xbe6dfb08	-0.23240292
60	0xc0cce1a1	-6.4025426
61	0xc15be62e	-13.743696
62	0xc0039eec	-2.0565748
63	0xbf9d3595	-1.2281977

fc2.weight f4 [64, 64]
0	0xbfd48ba7	-1.6605119
1	0x3e29f187	0.16596042
2	0xc04ed619	-3.2318175
3	0xbf5957d4	-0.8489964
4	0x3f107d1e	0.56440914
5	0x3f1e60d5	0.61866504
6	0xbfcb46c9	-1.5880977
7	0xbf3b01ce	-0.7304963
8	0x3fb148d9	1.3850356
9	0x3f91a7ec	1.1379371
10	0x3fd11578	1.6334677
11	0x3ee02e45	0.437853
12	0xc0022dc8	-2.0340443
13	0xbeebc0b7	-0.46045467
14	0xbd903952	-0.07042183
15	0x3f9e6c54	1.2376809
16	0x3e8c38f1	0.27387193
17	0x3e8cd16b	0.27503523
18	0xbf8938aa	-1.0720417
19	0xbf256c74	-0.6461861
20	0x3f75f6b9	0.96079594
21	0x4050ccfc	3.2625113
22	0x3f721eda	0.94578326
23	0xbf67879a	-0.90441287
24	0x3b715bfd	0.003682851
25	0xbfb62057	-1.4228619
26	0xbfd0952a	-1.6295521
27	0x3f051e00	0.519989
28	0x4042750e	3.0383945
29	0x3fa1d256	1.2642314
30	0x3f0ac2be	0.54203403
31	0xc01316c3	-2.2982643
32	0x3ec980a3	0.39355955
33	0x3ea1584d	0.3151268
34	0x3f51e211	0.81985575
35	0xbeb3af10	-0.350945
36	0xc0e06864	-7.012743
37	0xc0138b45	-2.3053753
38	0x3fe9e2be	1.8272321
39	0x3ea904a5	0.33011356
40	0x401898da	2.3843293
41	0x3f79fc3e	0.97650516
42	0x3e98cc42	0.29843336
43	0xbe78a6cc	-0.24282378
44	0xc045c603	-3.0902107
45	0xbee8ae52	-0.45445496
46	0x4013524d	2.3018982
47	0xbf357742	-0.708851
48	0x3f8cb9f3	1.0994247
49	0xbedcf56a	-0.43155986
50	0xbfa2db69	-1.2723209
51	0x3f8b37c3	1.0876392
52	0xc034031d	-2.81269
53	0x3facae8a	1.3490765
54	0xc026e322	-2.607613
55	0x3f946f30	1.1596432
56	0xbfc39c11	-1.5282003
57	0x3f2ca62a	0.67441046
58	0xc0447b3a	-3.0700212
59	0x3dd98b98	0.106223285
60	0x3c86e689	0.01646735
61	0x3d9d0fc2	0.07669021
62	0xbff4bf93	-1.9120964
63	0xbf543420	-0.82892036
64	0xbe6f8d18	-0.23393667
65	0x3f5da350	0.8657732
66	0x3f167a15	0.5878003
67	0x3f214ec8	0.63010836
68	0xbe7e5ccb	-0.24840085
69	0xc009eca9	-2.1550696
70	0xbe9dd8cb	-0.30829462
71	0x3f0d054a	0.55086195
72	0x3e13477e	0.14382741
73	0xbf7eb6bb	-0.99497575
74	0x3d26d228	0.040727764
75	0xc01c534e	-2.4425845
76	0xbd913060	-0.07089305
77	0x3f8db35c	1.1070361
78	0xbf2f7c5f	-0.6854915
79	0xc02b3f59	-2.6757414
80	0x3f127f17	0.57225174
81	0xbe9f6f6b	-0.31139693
82	0x3ed4ab5f	0.41536996
83	0xbf64efe3	-0.8942854
84	0xbe9b2cb7	-0.30307552
85	0xbf66a44c	-0.9009445
86	0x3cc20939	0.023686038
87	0xc01d12cc	-2.4542723
88	0xbf897fe6	-1.0742157
89	0x3f4a32b7	0.78983635
90	0xbf4b7234	-0.79471135
91	0xbfcadb96	-1.5848262
92	0xbf4b964c	-0.7952621
93	0x3f179ec1	0.59226614
94	0x3edac505	0.4272844
95	0xbece856b	-0.40336165
96	0xbd986528	-0.07441169
97	0xc0a12d4c	-5.0367794
98	0x3d097a3f	0.03356385
99	0xbffd22a0	-1.9776192
100	0xbf91a173	-1.1377395
101	0x3f284188	0.6572499
102	0x3f71bc80	0.94428253
103	0x3ed9dfaa	0.42553455
104	0x3d9e2712	0.07722296
105	0xbed8a777	-0.42315266
106	0xbf30f34a	-0.6912123
107	0xc08dc836	-4.43069
108	0x3ec89507	0.391762
109	0xbfcee255	-1.6162821
110	0xbf315440	-0.6926918
111	0xbf981ea4	-1.1884351
112	0xbf40bc5c	-0.75287414
113	0xbf68a7d1	-0.9088107
114	0x3ee09385	0.43862548
115	0xbee218b4	-0.44159472
116	0x3f29a1ad	0.6626232
117	0xbebff26b	-0.37489638
118	0xbca401dc	-0.020020418
119	0xbe9f0da5	-0.31065097
120	0x3f237c09	0.6386114
121	0x3eef321c	0.46717918
122	0xbf1dc5af	-0.61629766
123	0xbe630db3	-0.22173195
124	0xbfb820b7	-1.4384984
125	0x3f899743	1.0749286
126	0xbf7705d8	-0.9649329
127	0xbead73c8	-0.33877397
128	0xbf2b64a4	-0.6695044
129	0xbec284b9	-0.37991884
130	0xbe846e80	-0.25865555
131	0xbeffed49	-0.49985722
132	0x3f49c9ad	0.7882336
133	0x404ad6d6	3.1693625
134	0xbdae8a1c	-0.08522436
135	0xbea66abc	-0.32503307
136	0x3c85b5e6	0.016322087
137	0xbeafcb43	-0.34334764
138	0xbbdcb696	-0.006735633
139	0x3e0f3351	0.1398442
140	0xbecc5a14	-0.39912474
141	0xbf86c496	-1.0528743
142	0x3e347762	0.17623666
143	0x3f961407	1.1724862
144	0xbe16deb4	-0.14733392
145	0xbd983fdc	-0.07434055
146	0xbf4f7718	-0.810411
147	0xbe94d265	-0.29066768
148	0x3e1cea6b	0.15323798
149	0xbe628690	-0.22121644
150	0x3f33f210	0.70291233
151	0xbfa2b7f8	-1.2712393
152	0x3e207055	0.15667851
153	0x3ed80525	0.42191425
154	0xbdca4f8e	-0.09878455
155	0x3ea555fd	0.32292166
156	0x404bf456	3.186788
157	0x3f1f8aa4	0.62320924
158	0xbe98c020	-0.2983408
159	0xbf3c9ef8	-0.7368007
160	0xbf77faa1	-0.96866804
161	0x3fee0e49	1.859811
162	0xbec2ac14	-0.3802191
163	0x3e577cb7	0.21043669
164	0x3f94f7ec	1.163816
165	0x3c01cd4f	0.007922485
166	0xbf796904	-0.97425866
167	0xbe8b8c3a	-0.27255422
168	0x3f260aba	0.6486012
169	0x3f83d2c8	1.02987
170	0x3e01cda8	0.12676108
171	0x3fea5311	1.83066
172	0x3fc8ec1f	1.5697058
173	0xbe813399	-0.25234678
174	0xbe7fae9c	-0.24968952
175	0xbf935085	-1.1508948
176	0xbe806074	-0.25073588
177	0xbe8b0685	-0.27153412
178	0xc005307f	-2.081085
179	0xbf242bd0	-0.6412935
180	0xbef9238b	-0.4865993
181	0xbf6f64c8	-0.93513155
182	0x3f9aa1f1	1.208067
183	0x3f245858	0.641973
184	0xbeef613e	-0.46753877
185	0x3e5d7649	0.21627153
186	0xbe9b30d4	-0.3031069
187	0x3db4cf1e	0.08828567
188	0x3e11cc91	0.14238192
189	0x3fe94326	1.8223617
190	0xbf198756	-0.5997213
191	0x3ed63163	0.41834554
192	0xc0b23aa2	-5.5696573
193	0xbf09b95c	-0.5379846
194	0x3f8ee622	1.1163981
195	0xc0b97776	-5.7958326
196	0x3f300672	0.68759835
197	0xbf9f0fe5	-1.2426726
198	0xc0320226	-2.7813811
199	0xc037cb92	-2.8718
200	0xc013c32f	-2.308788
201	0xbfda8822	-1.7072794
202	0xbfaafacf	-1.3357791
203	0xbfdae323	-1.7100567
204	0xbfb78fd9	-1.4340774
205	0x3f8234ea	1.0172398
206	0xbfbe09e8	-1.4846773
207	0xc0dc7532	-6.889306
208	0x3ec2e4fd	0.3806533
209	0xc06b1f27	-3.6737764
210	0x3ebb639c	0.36599433
211	0x3f26510a	0.64967406
212	0x3ee50f0b	0.4473804
213	0xbf6b5bda	-0.9193703
214	0x3fcbf74d	1.5934845
215	0xbf1401a9	-0.57815033
216	0xc0c5279a	-6.161084
217	0xc0777f09	-3.8671286
218	0x3fca197b	1.5789026
219	0xbfbc3a4d	-1.4705292
220	0x3fc9272a	1.5715077
221	0xbf28d890	-0.6595545
222	0xbe90f425	-0.28311267
223	0xbf9a5f9a	-1.2060425
224	0xc058ca15	-3.387334
225	0xbf8409cf	-1.0315493
226	0xbf107a89	-0.56436974
227	0xbfc26017	-1.5185574
228	0xc0206d07	-2.5066545
229	0xbfbde046	-1.4834068
230	0x3f2fb852	0.68640625
231	0x3f8895c5	1.0670706
232	0xc098d1d4	-4.775614
233	0xbec5557d	-0.38541785
234	0x3ea9b469	0.33145455
235	0xbfe992b9	-1.8247901
236	0xbfedbb22	-1.8572733
237	0x3e945237	0.28968975
238	0xbe997c85	-0.29977813
239	0xbed66efd	-0.41881552
240	0xbf60b609	-0.87777764
241	0xbf4e7126	-0.806414
242	0x3f84fe2f	1.0390071
243	0xc0d3ed35	-6.622706
244	0x401d1121	2.4541705
245	0x3f9c2682	1.2199252
246	0xbfaf6fdc	-1.3706012
247	0xbf06e5f0	-0.52694607
248	0xbf2196a4	-0.63120484
249	0xc007af8e	-2.12009
250	0x3e8f981c	0.28045738
251	0x3f659ead	0.89695245
252	0xc071665c	-3.7718725
253	0xbfecc30d	-1.8497025
254	0xc0380043	-2.875016
255	0xc082aa5e	-4.083297

fc2.bias f4 [64]
0	0xbf72b444	-0.94806314
1	0xc0a48c94	-5.1421604
2	0x413a6044	11.648502
3	0x4095c18c	4.6798763
4	0xbe3227a6	-0.17397937
5	0xc0aa8e05	-5.3298364
6	0x3fdf13df	1.7427939
7	0xc0944856	-4.63383
8	0xc072c118	-3.7930355
9	0xc07a6599	-3.912451
10	0x40e823c4	7.254366
11	0xc07b0a30	-3.9224968
12	0x4185a9aa	16.707844
13	0xc0727f58	-3.7890224
14	0xbfa2a584	-1.2706761
15	0x3f094a1e	0.5362872
16	0xc005441a	-2.0822816
17	0x3bed2ec5	0.0072382414
18	0xbf91d27b	-1.1392359
19	0xbfffe0ce	-1.999048
20	0xc09a89db	-4.829328
21	0xbeb7b8a6	-0.35883063
22	0x411cd3e9	9.801736
23	0xbff7e13b	-1.936561
24	0x3fb46100	1.4092102
25	0xc088306f	-4.2559123
26	0x40a7af29	5.240132
27	0xc08b105f	-4.3457484
28	0xc0270f87	-2.6103227
29	0x3f040e83	0.51584643
30	0xc0848403	-4.1411147
31	0x40c5f02c	6.185568
32	0xc12e288d	-10.8849
33	0x40b1fd30	5.5621567
34	0x3e566153	0.20935564
35	0x4069bdde	3.6522136
36	0x40c9042d	6.2817597
37	0x404ac27d	3.1681206
38	0xbfdd9149	-1.7309963
39	0x3fe6bbaf	1.8026026
40	0xc0b8f2fe	-5.779662
41	0x40e8e08d	7.277411
42	0x3e83ffd6	0.25781125
43	0xc02097cb	-2.5092647
44	0x40b8bd1b	5.773084
45	0xc08a3728	-4.319233
46	0xc0afb634	-5.4909916
47	0x40b6cd7b	5.712583
48	0xbf4cdb86	-0.80022466
49	0x4036ed54	2.8582354
50	0x4065e529	3.5921118
51	0xbe1152ad	-0.14191695
52	0xc03aeb75	-2.9206212
53	0xc046914b	-3.102618
54	0x40ec4262	7.3831034
55	0x3f924caf	1.1429652
56	0xbfb84d0d	-1.4398514
57	0x40c3f1c7	6.123264
58	0x3ed370ee	0.41297096
59	0x3e57996b	0.21054618
60	0xc07c2ea3	-3.9403465
61	0xc053c6c5	-3.309007
62	0xbe00f3a2	-0.12592939
63	0xbfd18f4c	-1.6371856

fc3.weight f4 [64, 64]
0	0x3f1ad2a5	0.6047767
1	0xbdcd0c4f	-0.10012113
2	0xbf60ecd1	-0.87861353
3	0xc0483b7d	-3.1286309
4	0xbd53ae10	-0.05167967
5	0xc03a2f49	-2.909136
6	0xbf51e0d7	-0.81983703
7	0xbf04d234	-0.51883245
8	0x3f14d0df	0.5813121
9	0xbfa2d4ce	-1.2721193
10	0xbf5c6ff0	-0.86108303
11	0x3f513e6c	0.81735873
12	0xbf927ee2	-1.1444972
13	0x3f81c805	1.0139166
14	0x4092d094	4.587961
15	0xbef13439	-0.47110155
16	0x405bde4d	3.4354432
17	0xbf46ab6b	-0.77605313
18	0x401db4a2	2.46415
19	0x406d4b35	3.7077153
20	0x3f17ce01	0.5929871
21	0xbe4c798e	-0.19968244
22	0xbeb0bcf9	-0.34519175
23	0x3f972266	1.1807373
24	0xc0409615	-3.0091603
25	0xbf179992	-0.59218705
26	0x3e959c51	0.29220822
27	0xbdf8de38	-0.1215176
28	0x3f38c669	0.7217775
29	0x3fa0de1f	1.2567786
30	0x3fa01b6f	1.2508372
31	0x40092eb2	2.143475
32	0xbe209005	-0.15679939
33	0x3fb48c6d	1.4105355
34	0x3db4e46c	0.088326305
35	0xbfb9213a	-1.4463265
36	0x3f9b979a	1.215564
37	0xbf4e475c	-0.80577636
38	0xbe23e3f5	-0.16004927
39	0x3f751ba3	0.95745295
40	0xbfbeeed0	-1.491663
41	0xbebbdcec	-0.36691988
42	0xbf9bf53c	-1.2184215
43	0xbf9e5107	-1.2368478
44	0x3f44d0fd	0.7688139
45	0xc01b8463	-2.4299552
46	0xbb15a0dc	-0.0022831475
47	0xc02ca6db	-2.697684
48	0x3e139197	0.14411007
49	0xbe726f25	-0.23675211
50	0xbf917350	-1.1363316
51	0xc04944ff	-3.1448362
52	0x3fe68a56	1.8010967
53	0x3f8301b7	1.0234898
54	0x405ceee4	3.4520807
55	0x3ee3f665	0.44523922
56	0xbfe3e56b	-1.7804388
57	0xc04b0b11	-3.1725504
58	0x3f161ca4	0.5863745
59	0x40a55ac8	5.1673317
60	0xbe09dc00	-0.1346283
61	0x3dfc6997	0.12324827
62	0x3e88f5b0	0.26749945
63	0x3fab1b1e	1.336765
64	0xbed599ab	-0.41718802
65	0x3faf3a84	1.3689733
66	0xbf962f6d	-1.1733223
67	0xbfd8d16d	-1.6938912
68	0xbddcdb11	-0.10783971
69	0x3d9bf4e8	0.076150715
70	0x3e170eb7	0.14751707
71	0xc00efcb3	-2.2341735
72	0xbf8de7ae	-1.1086328
73	0x3f40e634	0.7535126
74	0xc02464f5	-2.568662
75	0xbeae343b	-0.34024224
76	0xc0468f8e	-3.102512
77	0xc00a9c3a	-2.1657853
78	0xbf6c47c7	-0.92297024
79	0xbf7c1eeb	-0.9848468
80	0x3f2a908a	0.666268
81	0x3d3d52a9	0.04622141
82	0x3f5008d6	0.8126348
83	0x3fa0d6d9	1.2565566
84	0xc00bc393	-2.183812
85	0xbe395fe1	-0.18102981
86	0x3f8564e4	1.0421414
87	0xbff9e8ca	-1.9524167
88	0xbfd215ed	-1.6412941
89	0xc02070a9	-2.5068762
90	0xbfe530c1	-1.7905504
91	0x3f8fdbf9	1.1239005
92	0x3f19a5cd	0.60018617
93	0xbe828e42	-0.2549916
94	0xbec8497d	-0.39118567
95	0xbfd67515	-1.6754481
96	0xc0317b10	-2.7731361
97	0xbfefe58a	-1.8741925
98	0xbf98061a	-1.1876862
99	0xbf2eb681	-0.6824723
100	0x3fc4b4ab	1.5367635
101	0xbf51557f	-0.8177108
102	0xbe43eff4	-0.19134504
103	0xbf99cbae	-1.2015283
104	0x3f49e4d2	0.7886478
105	0xbfd671e1	-1.6753503
106	0xc006fc3d	-2.1091454
107	0xbef12e44	-0.4710561
108	0xbfeefbae	-1.8670557
109	0xbffa13c5	-1.9537283
110	0xbf0f2942	-0.5592233
111	0xbe1b42a9	-0.15162148
112	0xc01e7b00	-2.4762573
113	0xbd04cfc6	-0.03242471
114	0xc01775c7	-2.3665636
115	0xbf5fe6f5	-0.8746179
116	0x3ed13d1c	0.40866935
117	0xbf4b6425	-0.79449683
118	0xc08f9627	-4.487079
119	0xbf6dad1b	-0.92842263
120	0x3f500f58	0.8127341
121	0xc00e6824	-2.2251062
122	0x3ea3a50d	0.3196186
123	0xbf56251a	-0.8365036
124	0xbeaae13a	-0.3337496
125	0xbf9bbd1e	-1.2167089
126	0x3f42c6a7	0.7608437
127	0xbf0b933b	-0.5452153
128	0xc013ed76	-2.3113685
129	0x3f7becbe	0.98408115
130	0xbfa6c7a0	-1.3029671
131	0xbf91d3d7	-1.1392773
132	0x3e153f51	0.14574935
133	0x3fa5fd65	1.2967955
134	0xc035332c	-2.8312483
135	0x3f44f003	0.7692873
136	0xbf566434	-0.8374665
137	0x3f2362fe	0.63822925
138	0xbff54981	-1.9163057
139	0xbf74b841	-0.9559365
140	0xbf65e6be	-0.8980521
141	0x3eed9e1f	0.464097
142	0x3e43f001	0.19134523
143	0x3ca2ddc7	0.019881142
144	0x3f81dad0	1.0144901
145	0xbef4d2f8	-0.47817206
146	0xbe8fe5b9	-0.28104952
147	0x3dc456b3	0.09586849
148	0xbeb3bc03	-0.3510438
149	0x3d495d9b	0.049161535
150	0xbfe5db41	-1.7957536
151	0x3cadcba8	0.021215275
152	0xbfcec527	-1.6153916
153	0xbf288240	-0.65823746
154	0xbf708e8d	-0.93967515
155	0x3e75e231	0.24012066
156	0xbd374c18	-0.044750303
157	0xbf98452e	-1.1896112
158	0x3e96376b	0.29339156
159	0xbf8ae841	-1.0852128
160	0xbf580733	-0.84385985
161	0x3f6e028d	0.9297264
162	0xbf9e4757	-1.2365521
163	0x3fb86ac5	1.4407583
164	0x3f742a54	0.9537709
165	0x3caba00d	0.020950342
166	0xbf0dfa97	-0.55460495
167	0xbfd96f4f	-1.6987094
168	0x3e8f20e6	0.27954787
169	0xbfc82ba9	-1.5638324
170	0xbed86da9	-0.42271164
171	0xbfb36459	-1.4014999
172	0xbd0500ba	-0.032471396
173	0xbe9b0aa6	-0.30281562
174	0xbd369558	-0.04457602
175	0x3f3414c8	0.7034421
176	0xbf96f667	-1.1793946
177	0x3f54f928	0.8319268
178	0xbf407f5b	-0.7519433
179	0x3ebcffde	0.3691396
180	0xbf3e3a73	-0.74307936
181	0x3f505d79	0.8139263
182	0xbfba6aa9	-1.45638
183	0xbe819185	-0.25306335
184	0xbec7f525	-0.39054218
185	0xbf3fd1fd	-0.7492979
186	0xbe30ab55	-0.17252858
187	0xc00f8d0a	-2.2429833
188	0xc023e02d	-2.5605576
189	0x3da70c28	0.081566155
190	0x3dc2d848	0.095139086
191	0xbddfea43	-0.10933354
192	0xbe9948f5	-0.29938474
193	0xbe449714	-0.19198257
194	0x3f7c7469	0.9861513
195	0x4040c034	3.0117311
196	0x3e895e4f	0.26829764
197	0x40ce4a17	6.446544
198	0x3e3f98f6	0.18710694
199	0xc02bff11	-2.687443
200	0xbf20f4cd	-0.62873536
201	0xbf16e595	-0.58944064
202	0x3e184333	0.14869384
203	0xbefc793b	-0.49311242
204	0x3f3970ae	0.7243756
205	0xbf24e393	-0.6440975
206	0x3edf3a38	0.43599105
207	0x3f22080d	0.63293535
208	0xbf9ce8e9	-1.2258579
209	0xbe830e03	-0.25596628
210	0xbf0472f6	-0.51737916
211	0x3f0d4d92	0.5519649
212	0xbd9a9ede	-0.07549833
213	0x3eb3b706	0.35100573
214	0x3ec37845	0.38177696
215	0xbe20133d	-0.15632339
216	0xbdb3853a	-0.08765645
217	0x40d4bd25	6.648089
218	0x3fbcdba4	1.4754529
219	0xbeadef0a	-0.33971435
220	0x3f78a3a2	0.97124684
221	0x3fc9fd3f	1.578041
222	0x3e8425ab	0.25809988
223	0x3e781c86	0.24229631
224	0x3dbaf47e	0.091286644
225	0x40c9990a	6.2999315
226	0x3f1b9c6f	0.60785574
227	0xbf035d9a	-0.513147
228	0xbb4c58da	-0.003118089
229	0xbf090a87	-0.5353169
230	0x3d0adad6	0.033900104
231	0x3eb71c04	0.35763562
232	0x3e4d5980	0.20053673
233	0x3e839c83	0.25705346
234	0x3e47f5cc	0.19527358
235	0x407a1f60	3.908165
236	0x3f40aff7	0.752685
237	0x3c10fbea	0.0088491235
238	0x3cbbbf75	0.022918442
239	0x3e8d2a22	0.27571207
240	0x405bea0a	3.4361596
241	0xbf056afe	-0.5211638
242	0xbed4502e	-0.41467422
243	0x3cb1b0e2	0.02169079
244	0xbf41658b	-0.7554557
245	0x3f94d417	1.1627225
246	0x4060986a	3.5093026
247	0x3e1cb82d	0.15304632
248	0x407b2bfc	3.9245596
249	0x40053dfd	2.0819085
250	0x3f677b04	0.9042208
251	0x3f8aca9e	1.0843084
252	0xbebbe6b8	-0.36699462
253	0x3e142b1b	0.14469568
254	0x3ee1ea55	0.44124094
255	0xbe1a793c	-0.1508531

fc3.bias f4 [64]
0	0xbfefa9af	-1.8723658
1	0xbee57771	-0.4481769
2	0xc04d1519	-3.2044127
3	0x41990bde	19.130795
4	0x3ffc1868	1.9694948
5	0x404ea7ce	3.228992
6	0x4076ea67	3.8580568
7	0xbf2b66ec	-0.6695392
8	0x3e5a585c	0.21322769
9	0x40ab7642	5.358186
10	0xc01916e1	-2.3920214
11	0x3ff13a28	1.8845873
12	0x41254fa3	10.331943
13	0x3f2daca9	0.67841583
14	0xc0844d0a	-4.134404
15	0xc0237be2	-2.5544362
16	0x3feb6790	1.839098
17	0x3feb700d	1.839357
18	0x41396bae	11.588789
19	0xbf90890e	-1.1291826
20	0xc0f3b77d	-7.6161485
21	0xc181f9b1	-16.24692
22	0x412ced98	10.808006
23	0xbf9750ab	-1.1821493
24	0x4038557b	2.8802173
25	0x3da588a6	0.08082704
26	0xc022b4d8	-2.5422878
27	0xc0b5ab79	-5.6771817
28	0xc16666bd	-14.400083
29	0xbe9fa700	-0.31182098
30	0xbfed1827	-1.8522996
31	0x400db9a8	2.2144566
32	0xbfe57c6e	-1.7928598
33	0x3fef6f92	1.8705924
34	0xc028c021	-2.6367266
35	0xc032e638	-2.7953014
36	0xbf14a795	-0.5806821
37	0xc084fd94	-4.1559544
38	0xc0e94bd1	-7.290505
39	0x3ffcb71e	1.9743383
40	0x40297ebc	2.6483603
41	0x3ff1d480	1.8892975
42	0xbf6ed095	-0.9328702
43	0x3eb3e0c2	0.35132414
44	0x3f3a3df0	0.7275076
45	0xbfcdceba	-1.6078713
46	0x4096298c	4.6925716
47	0xbec4c74f	-0.3843331
48	0xbf087f75	-0.53319484
49	0x3fd8ad05	1.6927801
50	0xbfc2d6fd	-1.5221859
51	0xc05a4fc1	-3.4111178
52	0x407df2ae	3.967937
53	0x3eda8561	0.42679885
54	0xbfa25a90	-1.2683887
55	0xc029a115	-2.6504567
56	0xbf58ed10	-0.8473673
57	0x4180614d	16.04751
58	0xbf5a63d0	-0.8530855
59	0xbf4f9d42	-0.8109933
60	0xc0594705	-3.3949597
61	0xc0a29002	-5.080079
62	0x40c4c579	6.1491055
63	0x3e6b427c	0.2297458

q_out.weight f4 [1, 64]
0	0xbd7d509e	-0.06184446
1	0x3f0da2fc	0.5532682
2	0xbcd9a0fb	-0.02656602
3	0x3ec368cd	0.38165894
4	0x3d05bb25	0.032649178
5	0x3b894ec0	0.004190296
6	0xbd785dce	-0.060636334
7	0x3cd45f17	0.025924249
8	0xbee13260	-0.43983746
9	0x3d19b3ab	0.03752486
10	0xbdf4fe2b	-0.11962541
11	0xbbc0ef3f	-0.0058878954
12	0x3d067283	0.03282405
13	0x3f353733	0.7078735
14	0x3ed53c12	0.41647393
15	0x3e2bf31a	0.16791955
16	0xbcb704bc	-0.022341125
17	0xbf7f633b	-0.9976079
18	0x3fb98804	1.4494634
19	0x3f2f78fc	0.6854398
20	0xbe8db74d	-0.2767891
21	0xbdb35994	-0.0875732
22	0x3dc6fbb9	0.09715981
23	0xbd8c0b89	-0.06838138
24	0x3d25698c	0.04038386
25	0x3e4c11eb	0.1992871
26	0x3e052e3c	0.13005918
27	0xbd0f5a1c	-0.034998044
28	0xbd4acf5c	-0.04951416
29	0x3d178658	0.036993355
30	0xbe212372	-0.15736178
31	0x3c80dfa9	0.01573165
32	0x3da5a4d2	0.080880776
33	0xbec24b68	-0.37948155
34	0xbd498ad2	-0.049204655
35	0xbe5f9cfb	-0.21837227
36	0xbe16f9da	-0.14743748
37	0x3f2baeeb	0.6706378
38	0xbdef19c2	-0.11674835
39	0x3b9e8e32	0.0048387283
40	0x3ea8aa46	0.32942408
41	0xbe70691f	-0.234776
42	0x3c79c899	0.01524558
43	0x3c76a978	0.015055053
44	0xbc171b19	-0.009222769
45	0x3be03ad2	0.0068429494
46	0xbc3902a2	-0.011292132
47	0x3df42928	0.119219124
48	0x3d014149	0.0315564
49	0x3d87aa97	0.06624334
50	0x3e909f36	0.28246468
51	0x3cf19fab	0.029495081
52	0x3ef043d8	0.4692676
53	0x3ebc561b	0.36784443
54	0x3ecfda73	0.4059635
55	0xbd93936c	-0.07205853
56	0xbc4e2504	-0.012582067
57	0x3df14186	0.11780076
58	0x3d244d91	0.040113036
59	0x3dfba8a9	0.12288029
60	0xbdd12abb	-0.10213228
61	0xbce88597	-0.028384013
62	0x3de6647d	0.11249635
63	0x3f386709	0.7203222
