model/my_spread/agent_1/1_actor_params.pkl (torch_old, 41227 bytes, 8 tensors)

fc1.weight f4 [64, 20]
0	0xbc81ddb5	-0.015852788
1	0x3d15d8f0	0.03658384
2	0xbd5eb930	-0.054375827
3	0xbd96f6d2	-0.07371296
4	0x3d024cdd	0.031811584
5	0x3dab982b	0.08378633
6	0x3cf4fc05	0.029905329
7	0xbd96c085	-0.07360939
8	0x3e087820	0.13327074
9	0xbc20c464	-0.009812448
10	0x3e1d332f	0.15351556
11	0xbdda33d9	-0.106544204
12	0xbdeb603b	-0.11492964
13	0x3e000510	0.12501931
14	0x3d26b4d0	0.04069978
15	0xbd8d363a	-0.068951085
16	0x3d0a0d66	0.033704184
17	0xbdd46483	-0.103707336
18	0x3db4791c	0.08812162
19	0x3e218ab6	0.1577557
20	0x3dd4d540	0.10392237
21	0xbc898c24	-0.016790457
22	0xbe053c2e	-0.13011238
23	0xbd9e9a34	-0.07744256
24	0x3e3a1f3b	0.18175976
25	0xbe0b2981	-0.13590051
26	0xbd73796a	-0.05944196
27	0xbd6d4445	-0.057926435
28	0xbccea611	-0.025225671
29	0xbd536ab3	-0.05161543
30	0xbe2e0546	-0.16994199
31	0x3c0520f2	0.008125531
32	0x3d327f68	0.043578535
33	0x3e04abc8	0.12956154
34	0x3e473754	0.194547
35	0xbdf50933	-0.11964645
36	0xbd47db49	-0.04879311
37	0xbd8151c7	-0.06314426
38	0x3e08c2cd	0.1335556
39	0xbcc27d48	-0.02374138
40	0x3dc9b9c2	0.098498836
41	0x3d04a3a9	0.03238264
42	0x3e1e49ca	0.15457836
43	0x3df5a19e	0.11993717
44	0xbd4689d8	-0.0484713
45	0xbdd4aac9	-0.10384137
46	0x3d34cce7	0.044140723
47	0x3d8b4d3b	0.0680184
48	0xbd93c84d	-0.07215939
49	0x3e342e37	0.17595755
50	0x3d62e22a	0.055391468
51	0xbe5730e3	-0.21014743
52	0x3d341c20	0.043972135
53	0x3cc35348	0.023843423
54	0x3bc78820	0.0060892254
55	0xbb818f4d	-0.0039538504
56	0x3d6e2d70	0.0581488
57	0x3e51507a	0.20440856
58	0xbdecf750	-0.115706086
59	0xbae3b380	-0.0017372221
60	0x3d7c970b	0.061667483
61	0xbd2755a3	-0.040853154
62	0x3e407f61	0.18798591
63	0xbe39377f	-0.18087576
64	0x3da235f9	0.07920451
65	0x3d933a26	0.07188825
66	0x3bebe558	0.0071989708
67	0x3e514db0	0.20439792
68	0x3beee1bc	0.007290093
69	0x3e1538b6	0.14572415
70	0x3e46f509	0.19429411
71	0xbe58d589	-0.21175207
72	0xbe46b8dc	-0.19406456
73	0xbe4a92ca	-0.19782558
74	0x3e4b71aa	0.19867578
75	0x3e520778	0.20510662
76	0x3e356372	0.17713717
77	0x3d9ff656	0.07810657
78	0x3c357f10	0.011077657
79	0x3e1deaca	0.15421596
80	0x3bd9bdca	0.006644939
81	0x3cd1054c	0.025515221
82	0xbe372180	-0.17883873
83	0x3e4f7b27	0.20261823
84	0xbd4ee734	-0.05051346
85	0x3e4003b1	0.18751408
86	0xbcae7dc9	-0.021300213
87	0x3e44daac	0.19224042
88	0xbe22a9f1	-0.1588514
89	0x3e4d3ef0	0.2004354
90	0x3e212c16	0.15739474
91	0xbafd0bbc	-0.0019305865
92	0xbc32fd10	-0.010924593
93	0xbe039f46	-0.12853727
94	0xbe1ca268	-0.15296328
95	0xbdabbd28	-0.08385688
96	0xbd135c04	-0.035976425
97	0xbdd92adb	-0.10603877
98	0x3d441964	0.047875777
99	0x3d7a1738	0.0610573
100	0xbdee18ef	-0.116258495
101	0x3dc40b48	0.09572464
102	0xbdc94b78	-0.09828848
103	0xbc527140	-0.012844384
104	0x3d8b4adc	0.06801388
105	0xbe42b92a	-0.19015947
106	0xbddced14	-0.107874066
107	0x3e626f14	0.22112685
108	0x3db3446c	0.08753285
109	0xbd180e38	-0.037122935
110	0x3e4eb3a2	0.20185712
111	0x3d493350	0.0491212
112	0xbd822fc4	-0.06356767
113	0xbb593800	-0.003314495
114	0x3e3a5f8c	0.1820051
115	0x3d9a03ec	0.07520279
116	0x3d6a7d68	0.057248503
117	0xbdd27d04	-0.10277751
118	0xbe3f3088	-0.18670857
119	0x3cad87c8	0.02118291
120	0x3df31b15	0.118704
121	0xbe863406	-0.26211566
122	0xbe413844	-0.1886912
123	0x3c8123eb	0.015764197
124	0x3d9bc541	0.076059826
125	0x3e5f0970	0.21780944
126	0x3dc68d09	0.09694869
127	0x3da063d4	0.07831541
128	0x3df9574c	0.12174854
129	0x3e43c995	0.19119866
130	0x3e696e7e	0.22796056
131	0x3e8082e5	0.25099865
132	0x3dacd758	0.08439511
133	0xbcdc1760	-0.026866615
134	0xbd3b8fa0	-0.04579127
135	0x3e2c06c2	0.16799453
136	0x3e3c5f02	0.18395618
137	0x3e2b1e02	0.16710666
138	0x3df28e65	0.11843566
139	0x3e439034	0.19097978
140	0x3e4812d1	0.19538428
141	0x3db921e5	0.09039668
142	0xbdcb399d	-0.09923098
143	0xbdc041d0	-0.09387553
144	0x3c3fd369	0.011708119
145	0xbd90da31	-0.07072867
146	0xbd539b4d	-0.05166178
147	0x3e0ebbf6	0.13938889
148	0x3bc46cd1	0.0059944172
149	0xbe4b754d	-0.19868965
150	0xbe607095	-0.21917947
151	0x3e4fc53e	0.20290086
152	0x3d213ec0	0.039366484
153	0x3dccee34	0.10006371
154	0xbe593ad9	-0.21213855
155	0xbe48ce64	-0.19609982
156	0x3d4f4900	0.050606728
157	0xbe0bd461	-0.13655235
158	0x3e158aa4	0.14603668
159	0x3dac1fdc	0.08404514
160	0x3e005b6d	0.12534876
161	0xbdb5d65e	-0.08878778
162	0x3de4655e	0.11152147
163	0x3e157eef	0.14599203
164	0x3e52ab5f	0.20573185
165	0x3dfee9bd	0.12446926
166	0x3e2bb470	0.1676805
167	0x3d82a895	0.06379811
168	0x3c839e97	0.016066832
169	0xbc4b094a	-0.012392351
170	0x3de9a1d5	0.1140782
171	0x3ca320bc	0.01991307
172	0x3e0e0cca	0.13872066
173	0x3dcc2470	0.099678874
174	0x3ccbef50	0.024894387
175	0xbe7adc3d	-0.24498077
176	0xbdca1a9d	-0.09868357
177	0xbcda63cb	-0.026658913
178	0x3e0b7303	0.13618092
179	0xbc9ba278	-0.01899837
180	0x3e43e8c9	0.19131769
181	0xbe1d62f4	-0.15369779
182	0x3e281592	0.16414478
183	0x3e60f80f	0.21969627
184	0x3e544a72	0.20731524
185	0x3e1f3fdd	0.15551706
186	0xbe0cb22d	-0.13739844
187	0x3e90e943	0.28302965
188	0x3cf63dbc	0.030058734
189	0x3e8eb3b1	0.2787147
190	0x3e0f91ba	0.14020434
191	0x3e128395	0.14308007
192	0xbd86f6ca	-0.0659004
193	0xbdf26054	-0.118347794
194	0xbe35932c	-0.17731923
195	0x3e16c7f2	0.1472471
196	0x3e43fc5e	0.19139239
197	0x3dca70c4	0.098847896
198	0x3dfe4355	0.12415186
199	0xbd3d2a20	-0.04618275
200	0x3d086199	0.0332962
201	0x3e3973c7	0.18110572
202	0xbddcbfdf	-0.10778784
203	0x3de5a678	0.11213392
204	0xbe5c8dec	-0.21538514
205	0xbdd9e1ce	-0.10638772
206	0xbe45d423	-0.19319205
207	0xbe378417	-0.17921482
208	0x3c748756	0.014924845
209	0xbe6fa16d	-0.23401423
210	0x3db6e265	0.089299
211	0x3e02e524	0.12782723
212	0xbdff825b	-0.12476035
213	0xbe1ba8b6	-0.15201077
214	0x3d3b1750	0.04567653
215	0x3e4be828	0.1991278
216	0x3dc623ef	0.096748225
217	0x3de8d199	0.113681026
218	0x3bfab15a	0.0076505365
219	0xbe21a45a	-0.15785351
220	0x3dd0def4	0.10198775
221	0x3d561f9c	0.05227624
222	0x3e404fac	0.18780392
223	0x3d08fa1d	0.03344165
224	0xbe3e5e01	-0.18590547
225	0x3db2a03a	0.08721967
226	0x3e4ef585	0.20210846
227	0x3d15c808	0.036567718
228	0x3cd158e3	0.02555508
229	0xbda4c2fd	-0.080450036
230	0xbba34d5a	-0.0049835863
231	0xbde20373	-0.11035814
232	0x3c4397f0	0.01193808
233	0x3df71ec0	0.12066412
234	0xbe34ff47	-0.17675506
235	0x3e4062f9	0.18787755
236	0xbd4f3e0b	-0.05059628
237	0x3e588b3c	0.21146864
238	0xbd9d4ba4	-0.07680443
239	0xbe4bab5c	-0.19889587
240	0xbda72907	-0.08162122
241	0x3d645955	0.055749256
242	0xbe6517c3	-0.22372346
243	0x3e462329	0.1934935
244	0x3e013c36	0.12620625
245	0xbd60a4ce	-0.05484467
246	0xbe312148	-0.17297852
247	0x3d35a8f3	0.044350576
248	0x3d9ec1ee	0.07751833
249	0x3df338e7	0.11876088
250	0x3dafe988	0.085894644
251	0x3cd4d3e5	0.025979945
252	0x3e409750	0.18807721
253	0xbca20680	-0.01977849
254	0xbd1d9034	-0.0384676
255	0x3d886f23	0.06661823

fc1.bias f4 [64]
0	0xbd45100e	-0.048111014
1	0x3e14cc56	0.14531073
2	0xbd5a9a20	-0.05336964
3	0x3de82027	0.113342576
4	0xbc5ac8b0	-0.013353512
5	0x3bd83b00	0.00659883
6	0xbe252888	-0.16128743
7	0xbe1e1644	-0.15438181
8	0xbe4fc684	-0.20290571
9	0x3d767143	0.06016661
10	0xbdb95332	-0.09049071
11	0x3dcd8fc7	0.10037189
12	0xbe3c6bca	-0.18400493
13	0x3e3c7bee	0.1840665
14	0xbdf8644d	-0.12128506
15	0x3df50f7b	0.11965843
16	0x3e50d3ec	0.20393342
17	0xbe324172	-0.17407778
18	0x3dc90985	0.09816269
19	0x3e40a78a	0.18813911
20	0x3dd935b3	0.106059454
21	0xbd161a0c	-0.036645934
22	0xbdff6d69	-0.1247204
23	0x3df6a7b7	0.12043708
24	0xbe1fc03e	-0.15600678
25	0x3e2955a0	0.1653657
26	0x3dbd4d3a	0.092432454
27	0xbca0d459	-0.019632505
28	0xbda14cca	-0.078759745
29	0x3e05845e	0.13038775
30	0x3e33d84f	0.17562984
31	0x3e652dc4	0.2238074
32	0xbe2a4b0a	-0.16630188
33	0xbdfe8050	-0.124268174
34	0xbdab7374	-0.0837163
35	0xbd9697a4	-0.07353142
36	0x3e4fc510	0.20290017
37	0x3df80361	0.121100195
38	0xbdb2f5c2	-0.08738281
39	0x3c450450	0.012024954
40	0xbe67fc69	-0.2265488
41	0x3cc1aba4	0.023641415
42	0x3e2ddd8d	0.16979046
43	0xbe3b410e	-0.18286535
44	0x3d059e06	0.032621406
45	0xbe489351	-0.19587447
46	0xbe325203	-0.17414097
47	0x3e63e24e	0.22254297
48	0x3e3cba7b	0.18430512
49	0x3dfc4103	0.123170875
50	0x3e154922	0.14578679
51	0xbe2f5357	-0.17121635
52	0x3e29a1a3	0.16565566
53	0xbde3f05c	-0.11129829
54	0xbd5dad60	-0.05412042
55	0x3d16eae8	0.036845118
56	0x3e47709a	0.19476548
57	0x3e595597	0.21224056
58	0x3e38fad1	0.18064429
59	0xbcffe483	-0.031236893
60	0x3e3fe480	0.1873951
61	0x3e5fd276	0.21857628
62	0xbe3f9ad1	-0.18711402
63	0xbe36bcc7	-0.1784545

fc2.weight f4 [64, 64]
0	0x3ce5930b	0.028024217
1	0x3e0184e0	0.12648344
2	0x3da467f4	0.0802764
3	0xbda45028	-0.08023101
4	0xbda51a0d	-0.080616094
5	0xbd9d2d3c	-0.076746434
6	0x3df3d96e	0.11906706
7	0xbdaff147	-0.08590942
8	0x3dbff7ef	0.093734615
9	0xbda99990	-0.08281243
10	0xbdc4a1d9	-0.096011825
11	0x3d870946	0.06593566
12	0x3d90d9c3	0.07072785
13	0x3c8c52e8	0.017129377
14	0xbdc6b253	-0.097019814
15	0xbe00b240	-0.12567997
16	0xbdee3cc1	-0.11632682
17	0x3de8fcc5	0.11376337
18	0xbe06e54f	-0.13173412
19	0x3cd0ba68	0.02547951
20	0x3d89246c	0.066964
21	0xbdb2eb26	-0.08736257
22	0xbbc3c380	-0.005974233
23	0x3da22ed5	0.07919089
24	0x3ccbdefb	0.024886599
25	0x3db552ef	0.08853709
26	0xba8c8ff3	-0.0010724053
27	0x3add4fac	0.0016884706
28	0xbd2d7271	-0.042345468
29	0x3c562910	0.0130713135
30	0xbdc87b46	-0.097891375
31	0xbda6f7c3	-0.081527255
32	0x3cd05067	0.025428964
33	0xbdc6fc4d	-0.09716091
34	0x3ce620b1	0.02809176
35	0x3dfcd7e3	0.123458646
36	0xbd1ae508	-0.037816077
37	0xbe23eb6f	-0.1600778
38	0x3d130088	0.03588918
39	0x3dca2888	0.09871012
40	0x3d82f6aa	0.06394704
41	0xbd7e5a90	-0.062098086
42	0xbc1a0fd0	-0.009403184
43	0x3cd96534	0.026537515
44	0x3d40ba86	0.047052883
45	0x3d941055	0.072296776
46	0x3a872013	0.0010309241
47	0xbdb58ad1	-0.08864368
48	0x3df4321d	0.11923621
49	0x3c27ad86	0.010234242
50	0x3dee2b26	0.11629324
51	0x3d61ddf7	0.055143323
52	0xbcef84d1	-0.029238136
53	0xbd485cdc	-0.048916683
54	0xbc9bb197	-0.01900558
55	0x3df627de	0.12019323
56	0xbd87b378	-0.06626028
57	0xbce661eb	-0.028122863
58	0x3dc2ade8	0.09505826
59	0x3d986af2	0.07442273
60	0xbc57beb4	-0.013168026
61	0x3d9f7968	0.07786828
62	0xbd576ba1	-0.052592877
63	0x3da8935a	0.0823123
64	0xbd3bca0b	-0.04584698
65	0x3dd5a3d1	0.10431636
66	0xbd02487c	-0.031807408
67	0x3dc83565	0.09775809
68	0xbc21b3b6	-0.009869507
69	0xbc8a2f68	-0.016868308
70	0xbd94bd44	-0.07262662
71	0x3e11cd00	0.14238358
72	0x3dca4fd7	0.098785095
73	0xbdbd5b7e	-0.092459664
74	0x3df0449f	0.117318384
75	0xbd2edf23	-0.04269327
76	0xbc67483a	-0.014116341
77	0xbd677346	-0.056506418
78	0xbdb5cd22	-0.088770166
79	0x3d4c83c5	0.049930353
80	0x3c52dbb9	0.012869769
81	0xbda7a3ab	-0.08185514
82	0xbdff59c0	-0.1246829
83	0xbdd06e26	-0.10177259
84	0xbddf2f97	-0.10897749
85	0x3da58a16	0.080829784
86	0x3df3a7b4	0.11897221
87	0x3b77a3fa	0.0037786947
88	0x3cf52eb3	0.029929494
89	0x3dee8385	0.11646179
90	0x3da755d8	0.0817067
91	0x3c6c36c3	0.014417353
92	0x3d3d73b9	0.04625294
93	0x3dd3211c	0.103090495
94	0x3dc6d15e	0.09707902
95	0x3c2ababe	0.010420499
96	0xbdb29cb3	-0.08721294
97	0x3d43ce34	0.047804072
98	0x3e025689	0.12728323
99	0x3d618880	0.055061817
100	0xbda444f5	-0.08020965
101	0xbd3bbba6	-0.045833252
102	0x3d8072be	0.06271885
103	0xbd95462c	-0.07288775
104	0xbb9c0bb1	-0.004762136
105	0xbdc61370	-0.09671676
106	0xbd5ecb8a	-0.05439333
107	0x3df89bda	0.12139101
108	0x3db3e2c6	0.08783488
109	0x3e16ed48	0.14738953
110	0xbcc5a6f7	-0.024127467
111	0xbd9e79dd	-0.07738087
112	0x3def4df6	0.11684792
113	0x3dc85c90	0.0978328
114	0x3d429472	0.04750485
115	0x3dc8823b	0.097904645
116	0x3dac572f	0.084150665
117	0x3d956268	0.0729416
118	0xbd306d39	-0.043072913
119	0xbcda0eb0	-0.026618332
120	0x3dea521c	0.11441442
121	0x3d3348ca	0.04377059
122	0xbbddf044	-0.0067730267
123	0xbd4a55b9	-0.049398158
124	0x3d03d7d2	0.032188244
125	0x3da3d5ff	0.07999801
126	0x3d9dee4b	0.077114664
127	0x3c40ffce	0.011779739
128	0x3d604418	0.05475244
129	0x3cc2ff31	0.023803325
130	0xbc699388	-0.014256366
131	0x3d91834b	0.0710512
132	0xbda01c05	-0.07817844
133	0xbdc8f468	-0.09812242
134	0xbc04bc2a	-0.008101502
135	0xbdefda9a	-0.11711617
136	0x3d2508b2	0.040291496
137	0x3d5a8fc1	0.05335975
138	0xbd7b246b	-0.061314028
139	0x3d3e2bef	0.046428617
140	0xbddea6da	-0.10871668
141	0x3e3358c5	0.17514332
142	0x3e0897fa	0.13339224
143	0xbd6c3a2b	-0.05767266
144	0xbd8ea510	-0.06965077
145	0xbd935d43	-0.07195523
146	0xbe002df2	-0.12517527
147	0xbd83ef04	-0.06442073
148	0xbd8784b1	-0.06617106
149	0x3ba948e0	0.005166158
150	0xbc995797	-0.018718524
151	0x3e058920	0.1304059
152	0x3d4b22a1	0.04959357
153	0x3dc8b22f	0.09799611
154	0xbd7b3ca0	-0.061337113
155	0x3e18e9bf	0.14932917
156	0x3e00aaae	0.12565109
157	0xbdfcddce	-0.123469934
158	0x3e00e2b8	0.12586486
159	0x3d614512	0.05499751
160	0xbb947c72	-0.0045314366
161	0xbd3eb26d	-0.04655688
162	0x3e1b3d86	0.15160188
163	0xbdf6d26f	-0.12051856
164	0xbd74dc99	-0.05978069
165	0xbdeb4b30	-0.1148895
166	0x3d29f6d3	0.041495156
167	0x3dde2122	0.10846163
168	0x3e02d86f	0.12777875
169	0x3c16ca14	0.009203453
170	0x3cc9243a	0.024553407
171	0x3db6db7b	0.08928581
172	0xbd44941e	-0.047992818
173	0x3db60004	0.08886722
174	0xbb1591ec	-0.0022822572
175	0x3da5f03e	0.08102463
176	0xbc91a929	-0.017780857
177	0x3d5bdc73	0.053677034
178	0xbd8d5e61	-0.06902767
179	0x3d87832d	0.06616817
180	0x3def7204	0.11691669
181	0xbd810c6a	-0.06301196
182	0x3d52a602	0.05142785
183	0xbc7604b0	-0.015015766
184	0x3dc4ec3c	0.09615371
185	0xbd8cf2d8	-0.06882256
186	0x3bc1d4dd	0.005915268
187	0xbdb884f9	-0.090097375
188	0xbe052b2c	-0.1300475
189	0x3dbdffcf	0.09277307
190	0x3b1981d0	0.0023423322
191	0x3dafa072	0.085755244
192	0x3c056426	0.008141553
193	0xbdd36950	-0.10322821
194	0xbd6463a7	-0.0557591
195	0xbdc8f707	-0.09812742
196	0x3d92ba55	0.07164446
197	0xbde6240c	-0.11237344
198	0x3dc3c9db	0.09559985
199	0xbdcfe80b	-0.101516806
200	0x3ce6eb73	0.028188443
201	0xbdca9545	-0.09891752
202	0xbd3906b7	-0.04517242
203	0xbe05d2c8	-0.13068688
204	0x3d52dc4c	0.051479623
205	0xbdd7e822	-0.10542323
206	0x3db3484e	0.087540254
207	0xbb221772	-0.0024733213
208	0xbdf3b97e	-0.11900614
209	0xbde0b6c9	-0.109723635
210	0xbdb2dba2	-0.08733298
211	0x3d60244f	0.054722127
212	0x3dcbb3f9	0.099464364
213	0x3c9426f0	0.018084973
214	0xbc9c3892	-0.019069944
215	0x3de1ca0c	0.110248655
216	0x3d8bdfdd	0.06829808
217	0x3c41eeee	0.01183675
218	0xbe0b2918	-0.13589895
219	0xbce44240	-0.027863622
220	0x3d877e4d	0.06615887
221	0x3deea80e	0.11653148
222	0xbdbadc6f	-0.091240756
223	0x3da17b05	0.07884792
224	0xbd876b4f	-0.06612264
225	0x3d8441fd	0.06457899
226	0x3d8a6afd	0.06758688
227	0x3d02e4b1	0.03195638
228	0x3d9f2a5c	0.07771751
229	0x3df8f128	0.12155372
230	0x3d1a36b9	0.037649844
231	0x3dcdee9e	0.10055278
232	0x3d8b8585	0.06812576
233	0x3cc5ff3a	0.024169553
234	0x3d6e3ba8	0.05816236
235	0x3d9622da	0.07330866
236	0x3c53a7c7	0.012918419
237	0xbc99192b	-0.018688759
238	0x3daca111	0.084291585
239	0x3dc42074	0.095765024
240	0xbe0bbedf	-0.1364703
241	0xbdf61254	-0.120152146
242	0x3dc7f3bd	0.09763286
243	0x3dd18664	0.10230711
244	0xbd02b186	-0.03190758
245	0xbddb57a4	-0.107100755
246	0x3bcb14b0	0.0061975345
247	0xbc664be0	-0.014056176
248	0xbac9ff00	-0.0015411079
249	0xbddddc0d	-0.10832987
250	0xbddf78e5	-0.10911731
251	0x3dd73413	0.10507979
252	0xbdf8d9ef	-0.121509425
253	0xbd583f97	-0.05279502
254	0xbddaad5a	-0.106775954
255	0x3d030557	0.031987514

fc2.bias f4 [64]
0	0xbce6c083	-0.028167969
1	0xbb0447a7	-0.002018431
2	0xbbc460d6	-0.005992989
3	0xbdcc022e	-0.09961353
4	0x3c1c3e57	0.009536347
5	0x3a0d3200	0.0005386174
6	0xbc9d1335	-0.019174198
7	0xbc237a79	-0.00997793
8	0x3b8c8868	0.004288722
9	0xbde54e1d	-0.111965396
10	0xbdaa039f	-0.08301472
11	0x3d550696	0.052008234
12	0xbd9d7e3c	-0.07690093
13	0xbdd1b202	-0.102390304
14	0xbdd118d0	-0.10209811
15	0xbda00877	-0.078141145
16	0xbcf866c8	-0.030322447
17	0x3d4027b7	0.046912875
18	0xbd189e9d	-0.03726064
19	0xbd61f89d	-0.055168737
20	0xbda0369f	-0.07822918
21	0xbda5f6fd	-0.0810375
22	0xbd7741e4	-0.060365573
23	0xbdf8dc4c	-0.12151393
24	0x3dd6524f	0.10464918
25	0x3dc7a12a	0.097475365
26	0xbc9720c0	-0.018448234
27	0xbb548859	-0.0032429902
28	0x3d30c980	0.043160915
29	0x3d0e4c15	0.034740526
30	0xbc627a24	-0.013823066
31	0xbdc2eeb9	-0.09518189
32	0xbcd76000	-0.026290894
33	0x3b3b446f	0.0028574725
34	0x3dda9d72	0.106745616
35	0xbd151c9e	-0.036404245
36	0xbc039513	-0.0080311475
37	0x3dad3dfa	0.08459087
38	0x3d6b7520	0.057484746
39	0x3db78653	0.08961167
40	0x3dbb444d	0.09143887
41	0x3df295ff	0.11845016
42	0x3dddeb74	0.10835925
43	0xbbadd1af	-0.0053045372
44	0x3d972a04	0.07381061
45	0x3de06cdd	0.10958264
46	0x3def7ae8	0.116933644
47	0x3d42a762	0.04752291
48	0x3d1eb04c	0.03874235
49	0xbdb8784f	-0.09007322
50	0xbd45dc1c	-0.048305616
51	0x3d9ff8d7	0.07811134
52	0x3d47047d	0.048588265
53	0xbdfa8559	-0.12232465
54	0xbde32ef0	-0.11092937
55	0xbc053e4d	-0.008132529
56	0x3cdedecc	0.027205847
57	0x3dc9d83c	0.098556966
58	0x3d7f4c38	0.062328547
59	0x3d5ec78c	0.05438952
60	0x3d9597cf	0.07304346
61	0x3df6c264	0.12048796
62	0x3d06a6a2	0.032873757
63	0xbda020ee	-0.07818781

fc3.weight f4 [64, 64]
0	0x3d8f002c	0.06982455
1	0xbdb2a2df	-0.087224714
2	0xbdd0a1d9	-0.1018712
3	0xbdb94850	-0.09046996
4	0x3ddc1a08	0.107471526
5	0x3a40aa00	0.0007349551
6	0xbda4d730	-0.08048856
7	0x3d70b2c9	0.058764253
8	0xbd765aa7	-0.060145047
9	0x3df209fa	0.11818309
10	0x3cd39178	0.0258262
11	0x3db96642	0.09052707
12	0xbd5da562	-0.0541128
13	0x3dd0ca52	0.101948395
14	0xbe127e74	-0.1430605
15	0xbd026e2a	-0.031843342
16	0x3c93f158	0.018059418
17	0xbe031fda	-0.12805119
18	0xbd05a1f8	-0.03262517
19	0xbb73e033	-0.003721249
20	0xbd7818d9	-0.06057057
21	0x3d01fdb8	0.031736106
22	0xba9c9300	-0.0011945665
23	0xbdcec929	-0.10096962
24	0xbd224e41	-0.03962541
25	0xbd5d27f8	-0.053993195
26	0xbdebe6b6	-0.11518614
27	0x3d98b52d	0.074564315
28	0xbd92853a	-0.07154317
29	0x3cca108a	0.02466609
30	0x3e31397c	0.17307085
31	0xbd21a5e5	-0.03946485
32	0xbd7bc9dc	-0.061471805
33	0x3dcf1670	0.101117015
34	0xbcbd1bc2	-0.023084525
35	0x3d7e2984	0.06205131
36	0xbc7ed339	-0.015553289
37	0x3db000a4	0.08593872
38	0xbdca6047	-0.09881645
39	0x3d399abd	0.045313586
40	0x3d229165	0.03968944
41	0xbcde680d	-0.027149225
42	0xbd802427	-0.062568955
43	0xbd4df307	-0.050280597
44	0xbdab9509	-0.083780356
45	0x3d584d6a	0.052808203
46	0xbc7ff4e0	-0.015622348
47	0x3d0106b9	0.03150055
48	0x3da382ea	0.07983954
49	0xbdcc2063	-0.09967115
50	0xbd89b93d	-0.067247845
51	0xbd980976	-0.074236795
52	0x3ba0db78	0.004908975
53	0x3d30ee98	0.04319629
54	0x3d8de6c0	0.06928778
55	0x3d15d882	0.03658343
56	0x3d9a7541	0.07541896
57	0xbd2f9e5a	-0.042875625
58	0xbdc61268	-0.096714795
59	0x3df0e2d7	0.11762016
60	0x3df5ccc0	0.120019436
61	0x3d8287a4	0.06373528
62	0xbde574f0	-0.11203945
63	0xbd4e8e50	-0.05042869
64	0xbda43873	-0.08018579
65	0x3d2f1b0e	0.04275041
66	0xbb1cceb5	-0.0023926918
67	0x3d4c18cb	0.049828332
68	0xbd636f53	-0.05552609
69	0x3deb2f18	0.11483592
70	0x3d743dc0	0.059629202
71	0xbd8ddcfb	-0.06926914
72	0x3dd998ad	0.10624824
73	0xbdedc7ad	-0.11610351
74	0x3d9aa225	0.07550458
75	0x3d97f9b4	0.07420674
76	0xbd4d5881	-0.050133232
77	0x3dfec775	0.12440387
78	0xbdd19564	-0.10233572
79	0xbb6eaecb	-0.0036420103
80	0x3a780900	0.00094617903
81	0x3d12acfe	0.03580951
82	0xbd99583c	-0.074875325
83	0x3d59a24d	0.053133298
84	0xbd4f0261	-0.050539378
85	0xbdcdfa78	-0.10057539
86	0xba904400	-0.0011006594
87	0xbd2e4640	-0.042547464
88	0xbdeb6874	-0.11494532
89	0xbdf150d4	-0.11782995
90	0x3ddf5620	0.10905099
91	0x3cce323d	0.02517044
92	0xbd9355fa	-0.07194133
93	0xba435a89	-0.00074521505
94	0x3c5ad650	0.01335676
95	0x3d09330b	0.033495944
96	0x3da690f6	0.08133118
97	0x3d9cda92	0.076588765
98	0xbce63158	-0.0280997
99	0x3c93b011	0.018028291
100	0xbc957270	-0.018243045
101	0xbdae1c20	-0.08501458
102	0x3d24e58c	0.040257975
103	0xbbf87670	-0.007582478
104	0x3c8591ca	0.01630487
105	0x3ca7be19	0.020476388
106	0x3d72d870	0.059288442
107	0xbd041f38	-0.032256335
108	0x3da99569	0.08280451
109	0xbdaa53e9	-0.08316786
110	0x3ac06000	0.0014677048
111	0x3b1d7766	0.0024027466
112	0xbd83ac0a	-0.06429298
113	0x3da3453e	0.07972191
114	0x3d9cbbd8	0.07653016
115	0xbd886f68	-0.06661874
116	0xbcaa96a2	-0.02082378
117	0xbcb80f18	-0.022468135
118	0x3d6db3f6	0.058032952
119	0x3cee2398	0.029069707
120	0xbcbfb3bc	-0.023401134
121	0xbcdd9650	-0.027049214
122	0x3d45e3be	0.048312895
123	0x3d6dbdbc	0.058042273
124	0xbdac9ebf	-0.08428716
125	0xbbe42104	-0.0069619436
126	0xbdb94ac3	-0.09047463
127	0x3b9e8a95	0.0048382976
128	0xbdf745a9	-0.120738335
129	0x3e06045a	0.13087597
130	0x3d0b8dea	0.034070887
131	0x3d55cb63	0.052195918
132	0x3de74f66	0.11294441
133	0xbdf27ddc	-0.11840412
134	0x3dc129d0	0.09431803
135	0x3de699d3	0.112598084
136	0xbd70aef1	-0.058760587
137	0xbdef948e	-0.116982564
138	0xbd7addc0	-0.061246634
139	0xbdbfc48c	-0.0936366
140	0xbcd64626	-0.026156496
141	0x3cfdcbe8	0.03098102
142	0x3c9d7cec	0.019224606
143	0xbdb01fe2	-0.08599831
144	0xbdd80df8	-0.10549539
145	0x3dd3ab73	0.10335436
146	0xbd15db3d	-0.036586035
147	0xbd2f346a	-0.042774595
148	0xbce38c53	-0.027776873
149	0xbd2c7ac6	-0.042109273
150	0xbd82ad6c	-0.06380734
151	0xbd96fa5a	-0.073719695
152	0x3c955b0b	0.01823189
153	0x3d0531ac	0.032518074
154	0xb97f2000	-0.00024330616
155	0x3b532b91	0.0032222013
156	0x3dfe6b6a	0.12422831
157	0xbda42b40	-0.08016062
158	0x3cc069d1	0.023487957
159	0xbca85e41	-0.020552756
160	0x3dcd712f	0.10031354
161	0xbd446bb1	-0.047954265
162	0x3e0f8c3c	0.14018339
163	0xbde08c1d	-0.109642245
164	0x3d9baae2	0.07600953
165	0xbd9625d1	-0.07331432
166	0xbbc1729c	-0.005903555
167	0xbd4779f6	-0.048700295
168	0xbd89b22f	-0.06723439
169	0x3df156d3	0.117841385
170	0x3d66598d	0.056237746
171	0x3d85e5f6	0.06538002
172	0xbd7676c4	-0.060171857
173	0x3db02b7d	0.08602045
174	0x3dcf7a72	0.101307765
175	0x3cd067ea	0.025440175
176	0xbd9c27e7	-0.07624798
177	0x3d548b74	0.051890805
178	0x3d83e9b7	0.06441062
179	0x3d0fea3a	0.035135485
180	0x3df03c4d	0.117302515
181	0xbcfd9ad8	-0.030957624
182	0x3c800ad5	0.015630165
183	0x3dd65e24	0.10467175
184	0xbc741a47	-0.014898843
185	0xbd1d784c	-0.038444802
186	0xbdd6e735	-0.10493318
187	0xbd7e5812	-0.06209571
188	0x3dc13a4f	0.094349496
189	0xbda2f8e7	-0.079576306
190	0xbda39d28	-0.079889596
191	0xbc8364db	-0.016039303
192	0x3d96dec7	0.0736671
193	0x3d6e2268	0.05813828
194	0xbd28893d	-0.041146506
195	0x3d0f8b63	0.03504504
196	0x3c815cea	0.015791375
197	0xbdec1942	-0.11528255
198	0xbca91cb0	-0.020643562
199	0xbdec2d18	-0.115320385
200	0x3d2fdf29	0.04293743
201	0xbdf686b7	-0.120374136
202	0xbdd0c221	-0.10193277
203	0xbde3da99	-0.111256786
204	0x3c7d838a	0.015473256
205	0x3d45ac46	0.048259996
206	0xbd49cef3	-0.049269628
207	0xbbc85ad2	-0.0061143422
208	0xbdc6cc30	-0.097069144
209	0x3db49571	0.08817566
210	0xbd03b06c	-0.03215067
211	0x3dd5e303	0.1044369
212	0x3c8562d9	0.016282486
213	0x3d78af93	0.060714316
214	0xbd650086	-0.055908702
215	0xbc13d99b	-0.009024049
216	0xbd4f2fb4	-0.050582603
217	0x3cde7370	0.027154654
218	0xbdfc9bb4	-0.123343855
219	0x3db3d542	0.0878091
220	0x3d50a960	0.05094278
221	0xbd16aef7	-0.036787953
222	0x3af9281d	0.0019009147
223	0x3d79cf03	0.060988437
224	0x3da097bb	0.0784144
225	0xbe047d8b	-0.12938516
226	0x3d84b3db	0.06479617
227	0xbd1a7208	-0.037706405
228	0xbcc43689	-0.023951786
229	0x3d856c02	0.065147415
230	0x3dce3bf4	0.10070029
231	0xbaff906b	-0.0019497996
232	0x3dbdfc49	0.09276635
233	0x3d177100	0.036973
234	0xbdac6513	-0.08417716
235	0xbda1d3d2	-0.0790173
236	0xbd8af1aa	-0.06784375
237	0x3dc05e9e	0.09393047
238	0xbd8c329e	-0.06845592
239	0x3d924770	0.07142532
240	0xbdd2cbc4	-0.102927715
241	0x3ddeda86	0.10881524
242	0xbc85889e	-0.016300496
243	0x3dabb7f6	0.08384697
244	0x3c20508f	0.009784832
245	0xbda1e90a	-0.07905777
246	0x3d7ed1a5	0.06221165
247	0xbd563262	-0.052294143
248	0xbd6ddb63	-0.05807055
249	0x3df23390	0.11826241
250	0x3d592d90	0.053021967
251	0xbdea8e32	-0.11452903
252	0xbd99f29a	-0.07516976
253	0xbd7737cd	-0.06035595
254	0x3d2c82cf	0.042116936
255	0x3ce2e568	0.02769728

fc3.bias f4 [64]
0	0xbdfa7e85	-0.12231163
1	0x3d676886	0.056496166
2	0xbde1539a	-0.11002274
3	0x3cfe1ecf	0.03102055
4	0xbd461746	-0.04836204
5	0xbd2dec7a	-0.04246185
6	0xbbcf71ef	-0.0063307206
7	0xbde01d0b	-0.109430395
8	0x3d361395	0.04445227
9	0x3ca3aa82	0.019978765
10	0xbdb67398	-0.089087665
11	0x3cf7abf7	0.030233366
12	0xbcb78e98	-0.022406861
13	0xbdfd32dc	-0.12363216
14	0x3d6084fd	0.054814328
15	0xbdb745ef	-0.08948886
16	0x3dedd051	0.11611999
17	0x3da0bdb7	0.07848685
18	0xbde42968	-0.1114071
19	0x3d781881	0.060570244
20	0x3c384f4b	0.011249374
21	0x3ce573ed	0.02800938
22	0xbda023a0	-0.07819295
23	0xbdb0cf63	-0.08633306
24	0xbd1f2e80	-0.038862705
25	0xbd165e87	-0.036711242
26	0x3e02ea16	0.12784609
27	0xbd062734	-0.03275223
28	0xbcbb8aba	-0.022893298
29	0x3dc2183c	0.094772786
30	0xbdd3fa54	-0.10350481
31	0xbc7124ad	-0.014718217
32	0x3b6feea9	0.0036610758
33	0xbc3a3f80	-0.011367679
34	0xbdabe575	-0.08393375
35	0xbd5d2210	-0.053987563
36	0xbd03868b	-0.032110732
37	0xbdeb4228	-0.11487228
38	0xbd11c424	-0.035587445
39	0xbda205cd	-0.07911263
40	0x3df0a162	0.11749531
41	0x3d812672	0.06306161
42	0x3d89ac23	0.067222856
43	0xbd374b4f	-0.044749554
44	0x3d5a0c77	0.053234544
45	0xbd948f08	-0.072538435
46	0x3c37ef27	0.011226452
47	0x3e0257eb	0.1272885
48	0x3e155f02	0.14587024
49	0xbe03e676	-0.12880883
50	0x3c8ddca0	0.017317116
51	0x3d857dcf	0.06518137
52	0xbd93112f	-0.07181012
53	0x3df041ba	0.11731286
54	0xbdddba7b	-0.10826584
55	0x3c6e139d	0.014531043
56	0x3dffe892	0.12495531
57	0xbdc35f18	-0.09539622
58	0xbc8ca560	-0.0171687
59	0x3d977dd9	0.073970504
60	0xbdea5f5c	-0.114439696
61	0x3da40187	0.08008104
62	0xbcadd821	-0.021221222
63	0x3cca6903	0.024708277

action_out.weight f4 [5, 64]
0	0x393325a9	0.000170848
1	0x3d921cd3	0.07134404
2	0xbd3b24aa	-0.045689262
3	0x3ceef9f3	0.02917192
4	0x3dcd2c59	0.10018224
5	0x3dc01fa0	0.09381032
6	0xbdb94b53	-0.0904757
7	0x3de23d13	0.11046805
8	0x3cee0d3f	0.02905905
9	0xbd97fbad	-0.0742105
10	0xbdbdcd97	-0.09267729
11	0x3d364f15	0.044509012
12	0xbdae0c18	-0.084984004
13	0xbde451a0	-0.11148381
14	0xbdb2bce3	-0.087274335
15	0x3da9759e	0.08274387
16	0x3d867f9a	0.06567307
17	0xbce3d63e	-0.02781212
18	0xbdc3068c	-0.09522733
19	0xbd44176c	-0.0478739
20	0x3dd932fa	0.10605426
21	0xbc2c8e8c	-0.010532033
22	0x3dd531f2	0.10409917
23	0x3e308e39	0.17241754
24	0xbddd47a2	-0.108046785
25	0xbe233576	-0.15938362
26	0x3dc2cccc	0.09511718
27	0xbddabe32	-0.10680808
28	0xbc992caf	-0.018698065
29	0xbd7006c0	-0.058600187
30	0x3d6c8e2b	0.05775277
31	0xbd4d6519	-0.050145242
32	0x3cf30903	0.029667383
33	0x3d48b36e	0.048999242
34	0x3d8a5e62	0.06756283
35	0xbde84517	-0.11341303
36	0xbd9932d7	-0.074804
37	0xbd47ead8	-0.04880795
38	0x3d19bc2e	0.037532978
39	0x3d8c7849	0.0685888
40	0x3c9a3000	0.018821716
41	0x3d4a2482	0.049351223
42	0x3d6213aa	0.055194534
43	0xbdd115c2	-0.10209228
44	0xbd1550ba	-0.03645394
45	0xbca6eda8	-0.020376995
46	0x3da06817	0.078323536
47	0x3d96131d	0.07327864
48	0x3d71251e	0.05887329
49	0xbd8913d7	-0.06693237
50	0x3b9de975	0.00481909
51	0x3cbf8825	0.023380348
52	0x3d7fb069	0.062424097
53	0x3d9cae0b	0.076503836
54	0xbcfd6029	-0.030929642
55	0x3e02a622	0.12758687
56	0x3d372459	0.0447124
57	0xbd70d913	-0.058800768
58	0x3d462a74	0.04838033
59	0xbd835b43	-0.06413891
60	0xbd79defc	-0.06100367
61	0xbd648d00	-0.05579853
62	0x3dad45a2	0.08460547
63	0x3da98150	0.082766175
64	0xbe0f6eb0	-0.14007068
65	0xbc5da654	-0.013528425
66	0x3ca2578c	0.019817136
67	0x3dd9f73e	0.10642861
68	0xbdc43aa4	-0.09581497
69	0x3d449212	0.047990866
70	0xbd65e8ea	-0.056130327
71	0xbdb93035	-0.09042398
72	0x3d70c4d5	0.058781464
73	0xbdb43639	-0.08799405
74	0xba8aa3b2	-0.001057735
75	0x3dd9b947	0.10631042
76	0xbe231486	-0.15925798
77	0x3bc55e00	0.0060231686
78	0xbde86765	-0.11347846
79	0xbd873518	-0.06601924
80	0xbc82a83e	-0.015949365
81	0x3a665ae2	0.00087873463
82	0x3dd37a50	0.10326064
83	0xbd830c0e	-0.063987836
84	0xbd625e0f	-0.055265483
85	0x3d75351a	0.059865095
86	0x3d6e4870	0.05817455
87	0x3cf0b212	0.029381786
88	0x3deaafde	0.11459325
89	0xbdc36b4c	-0.0954195
90	0xbd898e89	-0.067166395
91	0xbd4053b0	-0.04695481
92	0xbd6b6e0f	-0.057478007
93	0xbba8a6c5	-0.0051468336
94	0xbb78c1a6	-0.003795722
95	0x3d2a94c8	0.041645795
96	0x3ddea632	0.10871543
97	0xbdf02e9d	-0.11727641
98	0x3d2d2cbf	0.042279
99	0xbd4893b4	-0.048968986
100	0xbc032c78	-0.008006208
101	0xbdc3cd3e	-0.09560631
102	0xbdd41cbc	-0.10357043
103	0xbd8d0a3b	-0.06886717
104	0x3d02ef50	0.031966507
105	0x3d826160	0.06366229
106	0xbe0644fe	-0.13112256
107	0xbe66c869	-0.22537388
108	0x3e457b7a	0.19285384
109	0x3da26e18	0.07931155
110	0xbd293454	-0.04130967
111	0xbd8ad59e	-0.067790255
112	0x3c3ee37f	0.011650919
113	0xbc27820b	-0.010223876
114	0xbc0be9c2	-0.008539619
115	0xbe0de9e3	-0.13858752
116	0xbcbe5d55	-0.023237864
117	0xbd2b68ef	-0.04184812
118	0xbd0a2823	-0.033729684
119	0xbdb4dd4c	-0.088312715
120	0xbe263691	-0.16231753
121	0x3de07814	0.10960403
122	0xbdfc6908	-0.123247206
123	0xbd2f31b8	-0.042772025
124	0xbdc4ad14	-0.096033245
125	0xbcd14e37	-0.025549991
126	0xbde4309e	-0.111420855
127	0xbcd297dd	-0.02570718
128	0x3b9a105f	0.0047016586
129	0x3d727905	0.059197444
130	0x3dd7f3f3	0.105445765
131	0x3c6de3b5	0.014519622
132	0x3d9337fc	0.071884125
133	0xbd39af79	-0.04533336
134	0xbd7527d5	-0.05985244
135	0x3d040ffc	0.032241806
136	0xbdbc9e6b	-0.09209903
137	0x3dee3229	0.11630661
138	0x3dbfb50a	0.09360702
139	0xbc2b5071	-0.01045619
140	0x3e17d71a	0.14828148
141	0xbd278734	-0.040900424
142	0xbe12c963	-0.14334635
143	0xbdc5344a	-0.09629114
144	0x3e0f26a3	0.13979582
145	0xbb91e8d5	-0.0044528046
146	0xbce370a8	-0.02776368
147	0xbd2d1bb2	-0.04226274
148	0xbe052306	-0.13001642
149	0xbc1afe52	-0.009460049
150	0xbd97d46e	-0.074135646
151	0xbd05b112	-0.03263957
152	0x3d5dce37	0.05415174
153	0xbc4fb192	-0.012676613
154	0x3dfd34a2	0.123635545
155	0xbd1f8778	-0.038947552
156	0x3cfa4afb	0.030553332
157	0x3caa6841	0.020801665
158	0xbd984657	-0.07435291
159	0xbc0bb3d0	-0.008526757
160	0x3b7a9c0d	0.0038239986
161	0x3cf91366	0.030404758
162	0xbc2ff02b	-0.010738413
163	0xbae441f0	-0.001741467
164	0xbcdcf5b4	-0.02697263
165	0x3d9c606a	0.07635577
166	0xbdc27237	-0.09494441
167	0xbd2ed993	-0.042687964
168	0x3da8e052	0.08245911
169	0xbdbbe207	-0.09173971
170	0x3d903727	0.070417695
171	0xbc5558e1	-0.013021679
172	0x3b20107a	0.0024423883
173	0x3d53d690	0.051718295
174	0xbddf4ace	-0.1090294
175	0xbe1a5b4a	-0.15073887
176	0x3cd1b66b	0.025599679
177	0x3c95c994	0.018284597
178	0x3d283b39	0.041072104
179	0x3d082ac7	0.03324392
180	0xbb81a9a7	-0.0039569917
181	0xbdabb823	-0.08384731
182	0x3d394214	0.045229033
183	0xbde6f14c	-0.112764925
184	0x3d79ba2c	0.060968563
185	0x3d7c3cad	0.061581302
186	0xbde642fa	-0.112432435
187	0x3d3a7d8c	0.045529887
188	0xbdd6bd58	-0.10485333
189	0xbc9e08bd	-0.019291276
190	0xbdb4aeca	-0.08822401
191	0xbdacf00a	-0.08444221
192	0xbd92c7a1	-0.071669824
193	0xbb8df276	-0.004331882
194	0x3c8edac6	0.017438304
195	0x3ddd478e	0.108046636
196	0xbcc397f8	-0.023876175
197	0x3db44e0d	0.088039495
198	0x3d0e263c	0.034704432
199	0x3dda26b7	0.106519155
200	0xbde0e056	-0.10980289
201	0xbda71e84	-0.08160117
202	0xbdeacf47	-0.11465316
203	0x3d7bdfaa	0.0614926
204	0xbb697187	-0.0035620646
205	0x3d1a9ea0	0.037748933
206	0x3d1178f0	0.035515726
207	0xbcdcb561	-0.026941957
208	0x3bf49da5	0.0074650818
209	0x3cb9b9be	0.022671577
210	0x3df5f648	0.12009865
211	0x3dd3c90d	0.10341082
212	0xbd5e3912	-0.054253645
213	0x3e1e5874	0.1546343
214	0xbd5ce448	-0.053928643
215	0xbcab8fa8	-0.020942524
216	0x3dbcd336	0.09219973
217	0x39f1f859	0.00046152135
218	0x3d8eb09c	0.06967279
219	0xbd3bded4	-0.045866802
220	0xbdd7af18	-0.10531443
221	0xbbe037c4	-0.0068425853
222	0xbdae3c0f	-0.08507549
223	0x3b3e170a	0.0029005432
224	0xbe0ecabd	-0.13944526
225	0xbdce3c9f	-0.10070156
226	0x397a987b	0.00023898661
227	0xbe074398	-0.13209379
228	0xbde5be95	-0.11217991
229	0x3d058d4b	0.03260545
230	0xbe0fc929	-0.1404158
231	0x3c064139	0.008194261
232	0xbdafc7d0	-0.08583033
233	0x3cf3a15c	0.029740028
234	0xbda9ac95	-0.082848705
235	0xbda3b59e	-0.07993625
236	0x3de7df7a	0.11321922
237	0x3ddbe4a6	0.107369706
238	0xbd446a9b	-0.04795323
239	0x3cb82f1d	0.022483403
240	0xbd93d2c1	-0.072179325
241	0x3d9b7357	0.07590359
242	0x3d821a54	0.06352678
243	0x3daecf9e	0.085356936
244	0xbca70b5b	-0.020391157
245	0x3c887cd0	0.016661078
246	0xbd088abf	-0.033335444
247	0xbd26665a	-0.040624954
248	0xbc944562	-0.01809949
249	0x3d6ac7ad	0.057319332
250	0xbd6781cc	-0.05652027
251	0xbd230566	-0.03980007
252	0xbb159b80	-0.002282828
253	0x3c715018	0.0147285685
254	0x3dff21ea	0.124576405
255	0x3c6a01dd	0.014282671

action_out.bias f4 [5]
0	0x3e005073	0.12530689
1	0x3d987f34	0.07446137
2	0xbdca612b	-0.098818146
3	0x3d81c543	0.06336453
4	0xbdbb0697	-0.09132116
