model/my_spread/agent_1/1_critic_params.pkl (torch_old, 47851 bytes, 7 tensors)

fc1.weight f4 [64, 50]
00000000: 1e9a 073d a391 003e 45ba 4abd 8dfb eabd
00000010: e807 d53d 0405 e2bc 89f3 f33d 05b7 82bc
00000020: 18bc 023e 1265 ba3d d7b2 af3d 534f 4dbd
00000030: c8ff ccbd 935b b4bd 3cf4 733d e0ba 313d
00000040: 92fd 8cbd 39c6 8dbd 028c d83d 0a7d 9bbd
00000050: 1b76 033d 06c6 093e 5758 dabc debf f33d
00000060: e11a 333d 1e48 06be df11 ae3d 5624 0abd
00000070: ed9d 2b3d d0b0 58bc ab98 6e3c 93c5 f1bb
00000080: 9079 d23c f5a4 e5bd a0ec 0a3d b44a f23c
00000090: 4169 c2bd 4630 e8bd 54d5 08bd ae5e 42bd
000000a0: f448 e6bd 556b 04be 4a70 eb3d 7dde d2bd
000000b0: 300a a93d 7684 e9bd e884 353d 004e 373b
000000c0: e339 cb3d f271 e3bd 9e7d 9bbe 33c5 f13d
000000d0: 7e23 693e da57 22bd 93af a73d e745 3abe
000000e0: eaf2 c33e 4144 80be 59cc 97bd 696d a23c
000000f0: fe45 a43e 94d4 0e3e 4a3d cbbd 3fb1 103e
00000100: 0cd0 a1bd 9c6c c5bd 1502 d8bd 1b6e 1e3e
00000110: 1b04 433c face 05be e222 86be 1b25 49be
00000120: 61e8 223e ef88 e03d 7465 37bd d296 083e
00000130: 7bcb 333e b081 9abd 93b1 83bc 0b22 68bb
00000140: dea6 043e eabd 403e ba53 4ebd 1777 89bd
00000150: c814 6a3d ea00 463e 0cc8 01bf cff7 86bd
00000160: 495e d03d 5c93 c53d 4214 19bf 5fef febd
00000170: 19e0 07bf a5fd c7bc a8a6 393e f935 f93c
00000180: 9acb f13e 377a 04be dc43 863e 232e c5be
00000190: e45e 6a3d c478 24bd b0a6 293d a091 6fbc
000001a0: 6007 ab3d a4d7 64bd 7861 b73c c4ca 09be
000001b0: ac75 523d 00ce 31bd b07e d93c bc2d 293d
000001c0: 4f31 033e e489 a5bd c87e eabc ff3a 0a3e
000001d0: 665e bbbd b0b1 67bc bf7c 09be 3848 dcbd
000001e0: 6ade 953d f809 fdbd e837 99bd f06e 26bc
000001f0: e042 2bbc 92c7 7cbd 7c1d d2bd 2024 d43c
00000200: f2f6 ec3d b06b 4d3c 0cb6 26bd 407c f5bb
00000210: 6055 f13c 3a4e bdbd 6496 2fbd 90d3 49bc
00000220: 6c15 cb3d 0ecf 34bd 4830 6a3d 8cc3 eabc
00000230: f0cf 033d a8c8 74bd d3f8 89bd 0074 4b3b
00000240: dc8a 3e3d c0d5 ba3b 3436 e1bc e9ac 043e
00000250: 16a6 813d 8821 cdbc c8ca 39be 6235 113d
00000260: 31ba 9c3e a4a8 2cbe 6823 403e 3db2 f2bd
00000270: 524c 273e 1490 13be 51d7 a9ba 7875 2bbe
00000280: b033 823e 3db8 173e 86ab c63d 2a56 e63d
00000290: 5893 d5bc 388c 14bd e1db d23d 1d55 fd3c
000002a0: b52d 2abd 10f3 36bc 64a9 2bbe 4713 80bd
000002b0: d4e0 f4bc 0954 8e3d 9005 e7bd 2414 5c3e
000002c0: e2eb cf3d adae 143e 3ae8 96bd 2d2f 7f3e
000002d0: 423d 1fbd 2b53 553e 8673 8bbd 9022 6fbc
000002e0: 38c7 753d 210d 1a3e 743d b2be 1590 adbc
000002f0: bad6 4f3e bbb5 03be bea0 b13d b32a 81bd
00000300: 0040 20bd b903 503d 2205 53be e468 e5bd
00000310: f945 48bd 48bd dfbb 4387 f9bd 6733 ccbd
00000320: ebf6 10be b751 b73d a365 f83d c956 963d
00000330: e1fc 293e 1b68 3abe b5a2 103e 3098 99bd
00000340: 092f bf3b 37f1 b2bd a6c1 473e 15a2 f13d
00000350: 1ae9 b1bd 00cc e73b 8466 4bbd e900 07be
00000360: 7954 593c f628 ed3c acb0 b13d 20c6 4d3d
00000370: 0866 14be b8fe e0bd fee7 3d3e 345e 19bb
00000380: cec6 583e 8021 e0bb 0b3c 993e f74d 9cbc
00000390: 787a b6bd ddc9 9a3d 76e0 6a3d 791e 043e
000003a0: 7803 73bd 30bb dbbd 1cbc 133d 6d03 203e
000003b0: b66b 1dbf 9f27 e0bd c7fd 833d ac0e 23bd
000003c0: 0516 d5be f412 03be ee98 aebe 50f2 30be
000003d0: a923 a33e b02a 823d 2d6a d43e a6c7 63be
000003e0: 2821 0d3e d3a8 e1bd af5a 693c 1b97 38be
000003f0: 0f2d 97bc 40d0 3b3e 2a22 9dbe b0ee 393e
0.033105962 0.12555556 -0.049494047 -0.11473761 0.104018986 -0.027590282 0.11911685 -0.015956411
0.12767065 0.09101309 0.08579033 -0.050124478 -0.10009724 -0.08806529 0.059559092 0.04339111
-0.06884302 -0.069225736 0.10573579 -0.07592209 0.032095056 0.13454446 -0.026653452 0.1190183
0.043726806 -0.13113448 0.084995024 -0.03372606 0.041898657 -0.013225749 0.014562766 -0.007378289
0.025692731 -0.11213104 0.03391707 0.029576637 -0.09492732 -0.113373324 -0.03340657 -0.047453575
-0.112443835 -0.12931569 0.11496027 -0.102963425 0.08253896 -0.11402218 0.044316202 0.0027970076
0.099231504 -0.11105718 -0.30369276 0.11805191 0.22767445 -0.039634563 0.08187785 -0.18190728
0.38271266 -0.25052074 -0.07412023 0.019827561 0.3208465 0.1394828 -0.09923799 0.14130114
-0.0790101 -0.09639856 -0.10547272 0.1547169 0.011902834 -0.13067237 -0.26198488 -0.19643061
0.15908958 0.10963618 -0.044774488 0.13338783 0.1755809 -0.07544267 -0.016075885 -0.0035420682
0.1295428 0.18822446 -0.050372817 -0.06712168 0.057148725 0.19336286 -0.5069587 -0.065902345
0.101742335 0.09647247 -0.59796536 -0.12448 -0.5307632 -0.02441294 0.1812998 0.030421244
0.47225648 -0.12937246 0.26223648 -0.38511762 0.0572194 -0.040154234 0.04141873 -0.014622122
0.08351016 -0.055869713 0.022385344 -0.13456255 0.051381752 -0.043409348 0.026549667 0.04130338
0.12811778 -0.08082941 -0.028624907 0.13499068 -0.091488644 -0.014141485 -0.13426493 -0.10755962
0.07317813 -0.12355417 -0.074813664 -0.0101582855 -0.010452956 -0.061713763 -0.1025953 0.025896132
0.115705386 0.012537882 -0.040700957 -0.0074916184 0.029459655 -0.09243436 -0.042868033 -0.012318507
0.09916195 -0.044142775 0.05717495 -0.028657697 0.032180727 -0.059761673 -0.067369126 0.0031044483
0.046519145 0.0057017505 -0.027491666 0.12956585 0.063305065 -0.025040403 -0.18143761 0.0354513
0.30610803 -0.16861206 0.18763506 -0.118504025 0.16337708 -0.1441043 -0.0012957846 -0.1674403
0.2543006 0.14816375 0.09700684 0.11246903 -0.026071236 -0.036266536 0.10295845 0.030924374
-0.041547496 -0.011166349 -0.16763836 -0.06253677 -0.029892363 0.06949622 -0.11280358 0.21492058
0.10152413 0.14519759 -0.073685125 0.2492034 -0.03887678 0.20832507 -0.06809144 -0.014595643
0.060004443 0.15044071 -0.3481251 -0.021186868 0.20296755 -0.12862293 0.08673237 -0.06306972
-0.039123535 0.0507848 -0.20607427 -0.11201647 -0.048894856 -0.006827984 -0.12184002 -0.09970742
-0.14156692 0.08951133 0.12128761 0.07340772 0.16600372 -0.18203776 0.14124568 -0.074997306
0.0058344644 -0.08737414 0.19507465 0.11798493 -0.08687039 0.0070738792 -0.049658313 -0.13183941
0.013264769 0.028950196 0.086762756 0.050237775 -0.14492047 -0.10986084 0.18545529 -0.0023402097
0.21169588 -0.006839931 0.29928622 -0.019080145 -0.08910078 0.075580336 0.05734297 0.1290225
-0.05932948 -0.107290626 0.036068067 0.15626307 -0.6149248 -0.10945057 0.064448886 -0.039808914
-0.41618362 -0.12800199 -0.3410105 -0.17279935 0.31863144 0.06355798 0.41487256 -0.22244129
0.1378218 -0.11018529 0.014242812 -0.18026392 -0.018454103 0.1834116 -0.30690128 0.18157458

fc1.bias f4 [64]
00000000: 26da d63d bd55 11be a61d ec3d bb7a 98bd
00000010: 0857 f4bd 52ad 01bd 37f9 29bd 2587 a93d
00000020: 5dd8 04be 6eb3 23be 63d8 b73d 344d 4bbd
00000030: 280b 79bd bfa7 043e 5648 62bd f5ab a0bc
00000040: dd79 bdbd 238b 083e 1660 bdbd 2e2f aa3d
00000050: c5bb 21be 5a01 3dbe acd2 08be c623 18be
00000060: b74f 933d 2180 a03c 9945 6dba 63a4 4cbe
00000070: 2118 1d3c 1f73 18be 02f0 75ba 520e 05be
00000080: ed79 b23e 3003 71be cdc6 ffbd 23c2 30be
00000090: bc7b c33d e472 ad3d 9909 b3bd 2839 963e
000000a0: 0afd 81be c4f9 143b 81c0 11be 65f7 043e
000000b0: 8f5c 273e f0fe 963d 3f4e eebd 8538 273e
000000c0: 0034 37be 24e5 7abd 0789 70bc c410 043c
000000d0: 501c afbd 75ba 22bd d25f 503e a302 f13d
000000e0: 527f e43d 186e 143e 18d8 ed3c 9bbe d9bb
000000f0: 913e b83d b603 063e 5599 953d 362d ebbd
0.10490827 -0.14192863 0.115290925 -0.07445284 -0.119306624 -0.03165943 -0.041497435 0.0827773
-0.12973161 -0.15986416 0.08976819 -0.049634174 -0.060801655 0.12954615 -0.055244766 -0.019613246
-0.09251759 0.13334326 -0.092468426 0.0830978 -0.15794285 -0.18457547 -0.13361615 -0.14857396
0.07192939 0.019592347 -0.00090512034 -0.19984584 0.009588272 -0.14887665 -0.0009381772 -0.12993744
0.34858647 -0.23536372 -0.1248909 -0.17261557 0.09545085 0.08469179 -0.08742065 0.29340482
-0.25388366 0.002273188 -0.1423359 0.12984999 0.16343902 0.07372844 -0.11636018 0.16330154
-0.1789093 -0.06125368 -0.014681107 0.008060638 -0.08550322 -0.0397286 0.20349053 0.11768081
0.11157097 0.14495122 0.029033706 -0.0066450364 0.089963086 0.13087353 0.073046364 -0.11483233

fc2.weight f4 [64, 64]
00000000: ebf5 d73d 8a09 3e3c 549f debd 941d d7be
00000010: 9774 0fbd c092 2f3d d0cb 2ebe f1ca 693e
00000020: acfd 6dbd 16b5 373e 8eec c5bd 75ab 3d3d
00000030: 8db8 f53b 9ab0 c2bc d7e1 9b3e 8a94 8a3d
00000040: 23a7 96bd 3a8a e23d f838 c33c beea 06be
00000050: 1810 07be 2d4f 223d cbf5 273d db2b 0dbe
00000060: 3ae1 2cbe 4868 2dbc 7ff6 263d 6067 a7bc
00000070: 24f2 213d 9441 35be 2b5f 933d 3087 103d
00000080: bc87 fc3c b5b0 923d 683c a1bd 7d41 d5bd
00000090: 869a ebbd 911e fdbc dbae 02bd fab4 dabd
000000a0: e71b 653e c2ea b03d 16be a4bd 940a 91bd
000000b0: a841 9a3d e082 b33c 489c a7bb b581 3fbe
000000c0: 78e9 d7bd c8db aa3d 5388 3ebc aa91 98be
000000d0: bcb5 613d e2cf e33c e590 843d 67d8 ed3d
000000e0: 05bd bf3c a4b6 0d3b 3883 dbbc 3b22 83bd
000000f0: ac13 653d 41ca 0a3e b57c 9abe 38d2 033e
00000100: 3ad2 2cbd d341 f83d c83e 51bd 471e f5bd
00000110: 61a6 0a3e 6dd9 633e 198d 123e b7bc 593e
00000120: 3811 103d 47bb 353e 7fb8 21bb d5e5 643e
00000130: 63b6 f73d 89fb 653e 5e41 993d bb78 f93d
00000140: c8bb 043e a4e2 d3bd e89a 40bd 1a16 43bd
00000150: d60b 0cbe 5a31 593e f23b 213e 3198 113c
00000160: 242c 273e 04cd c4bd a84c 7dbd 9ef7 7c3e
00000170: 8a6e 6c3c 1dc4 25bd 70e7 bdbd 74f7 32bd
00000180: 3358 17be db6f 843e 050e b8bd 10eb 47bc
00000190: 521a 4e3d df24 41bb 3b95 d03d f9df 82be
000001a0: 4255 903d 3933 633d 1115 763d 0850 d63d
000001b0: ad2b 3fbf acae 7fbd c080 e4bd bb08 34be
000001c0: 1cda 4fbc 003b 3eba c79f d1bd af31 e2bd
000001d0: b1de 5bbe 6bf8 c63d ab64 bdbd 65d3 9f3c
000001e0: b983 32be f127 5d3d 7041 7c3c fb46 993e
000001f0: 5cc7 383d 5d1a 29bc fac7 393d 0be7 3c3d
00000200: a3ff b0bc c31b b73d f019 a33c 8e9e 1f3e
00000210: d8b3 463e 4890 273e e236 063e 5b0f 013e
00000220: 468b e4bd 20cd 053e 1ba6 0a3d fe5f f13d
00000230: 262d b4ba fb38 ca3e d522 9f3e dd3f 5f3e
00000240: 4b6f c7bc 76cd 113c 6f39 693d 4598 553c
00000250: e088 233e dcf6 7c3e 683e a33d 2dc6 053e
00000260: 2b4a 733e 1c9b c5bd e36d d2bb 5087 833e
00000270: d8ae 193e 99bf 333e 2aaa 693d 7645 c2bd
00000280: 161d cf3d e759 0a3e 64b2 8abd 12ea e83d
00000290: bb84 293e 5bd0 fc3d 9d96 6e3e 4d98 dabd
000002a0: 47e3 093e d81c d6bc 4c2c 853d f4f6 6e3e
000002b0: ff99 7dbe dcb0 bfbd 0b8a 923b af07 a73d
000002c0: 9204 cf3b 5e11 5f3d 30f1 a1ba a326 383e
000002d0: e758 8f3e 7ea9 033e d731 5f3e 426c b2bd
000002e0: 6677 be3d 74cb dc3d d48a e3bd d97e 423e
000002f0: ae2f fe3d f4d1 533e 54be 8b3e 63ab d23c
00000300: 8989 edbc 3afa 1e3e 2012 81bc 216f 583e
00000310: 39d3 c13c 189b 05bd cce8 203e 0727 553e
00000320: f629 e3bd 71f1 ecbd a7d9 263b e386 1b3e
00000330: c47f dd3d 3872 623e 8ca2 a03d c9d9 e93c
00000340: 4522 813c 6200 61bd b0cc 78bd a628 183d
00000350: 4013 153e f964 bd3e 634b 043e 3675 0f3d
00000360: 7469 b93d e117 033e fd2e 22bd da2d eb3e
00000370: 594b 8abd 5236 303d 60ee ca3c 981c d6bc
00000380: 9e0a 683d 4c5a 0d3e 740c 80bd d0ee 1d3e
00000390: 9e63 423e 97fc 95bd 5bf7 b23d 493f c43d
000003a0: 223b 8e3d 1323 e1bd 3e31 6a3d a0bd 723e
000003b0: c92e 06be 70dd 8bbd 4868 5ebd fcaf 42bc
000003c0: f4c4 883c 1780 983d 8a83 0a3e e6c6 693e
000003d0: a396 9a3e 2e7f 993d bca2 0a3e 8bf9 57be
000003e0: 57b9 d53d 34a0 acbd a2b8 cabd e472 ff3c
000003f0: 3369 9fbd a82d 3abe 3063 873e c349 de3d
0.10544952 0.011598954 -0.10870233 -0.42014754 -0.035023298 0.04286456 -0.17069936 0.22831322
-0.05810325 0.17940173 -0.0966426 0.046306092 0.007498807 -0.02376585 0.3044574 0.06766613
-0.073560975 0.11061521 0.023830876 -0.13175485 -0.13189733 0.03962629 0.04100589 -0.13786261
-0.16882792 -0.010583945 0.04076242 -0.020435035 0.039537564 -0.17700797 0.07195886 0.035285175
0.030826442 0.071626104 -0.0787285 -0.104128815 -0.115040824 -0.030898364 -0.031905036 -0.1067905
0.22373925 0.086385265 -0.080440685 -0.07082096 0.07532054 0.021912992 -0.0051150657 -0.18701823
-0.105425775 0.08342701 -0.011629182 -0.29798633 0.055104956 0.027809087 0.06472949 0.11613541
0.023405561 0.0021623755 -0.026795968 -0.06403013 0.055926964 0.13553716 -0.3017327 0.12873161
-0.042192675 0.1212193 -0.051085263 -0.119686656 0.13540031 0.2225091 0.14311637 0.21263395
0.03517267 0.17747222 -0.0024676619 0.22353299 0.120953344 0.22459234 0.07483171 0.12181231
0.12962258 -0.10345963 -0.04702273 -0.0476285 -0.1367639 0.21210232 0.15745524 0.008886383
0.16325432 -0.09609416 -0.061840683 0.24703833 0.014430651 -0.04047023 -0.09272659 -0.04369302
-0.14779739 0.2586659 -0.08987049 -0.012202039 0.05031807 -0.002947144 0.101847135 -0.25561503
0.07047512 0.05546877 0.060078684 0.104644835 -0.7467602 -0.06242244 -0.111573696 -0.17581455
-0.012686279 -0.00072567165 -0.10235553 -0.11044633 -0.21471669 0.09715351 -0.092477165 0.01950998
-0.1743306 0.05399317 0.015396461 0.29936966 0.045112 -0.010321227 0.045356728 0.046118777
-0.021606272 0.08940842 0.019909829 0.15587828 0.19404542 0.16363633 0.13106874 0.12603514
-0.11159377 0.1306653 0.033849817 0.11785887 -0.0013746365 0.39496598 0.31081262 0.21801706
-0.02434506 0.008899083 0.05693954 0.013036792 0.15970182 0.24703544 0.079708874 0.1306388
0.23758762 -0.096487254 -0.006421791 0.25689173 0.15008104 0.17553557 0.057047047 -0.09485905
0.101129696 0.13510858 -0.067723066 0.1137277 0.16554539 0.12344428 0.23299642 -0.1067358
0.13465606 -0.0261368 0.065025896 0.23336393 -0.24765776 -0.09359905 0.0044720224 0.081557624
0.0063176835 0.054459922 -0.0012355205 0.17983489 0.27997515 0.12857625 0.21796356 -0.08712055
0.09300117 0.10780993 -0.11110464 0.18993701 0.12411438 0.2068556 0.27293646 0.02571649
-0.028996246 0.15525141 -0.015755713 0.21136142 0.02366029 -0.032618612 0.15713805 0.20815669
-0.11091988 -0.11569489 0.002545932 0.15188174 0.10815385 0.22113883 0.07843503 0.02854623
0.015763411 -0.054932006 -0.06074208 0.03714814 0.14558125 0.369911 0.12919383 0.03502389
0.09053317 0.12802078 -0.039595593 0.4593342 -0.06752653 0.043020554 0.02477187 -0.026136681
0.05665075 0.13803977 -0.06252375 0.15423131 0.18983313 -0.07323568 0.087385856 0.09582383
0.069448724 -0.10993018 0.057175867 0.23705149 -0.13103785 -0.06829345 -0.05429867 -0.011882778
0.016695477 0.07446306 0.1352674 0.2282978 0.30193052 0.07494961 0.1353864 -0.21091287
0.104357414 -0.08428994 -0.09898497 0.031182714 -0.07783737 -0.18181479 0.26442862 0.10853913

fc2.bias f4 [64]
00000000: 508e 193e 34fd 54be 137d f4bd 83a9 723b
00000010: fd5b e4bc 4e68 f5bd 438c d2bd 2339 1b3e
00000020: cebe 463e 3f7f 07bd 59bd 9ebd 54dc 2dbd
00000030: 064f 12be 1b5b 703d b0da 05be 5fbb 5cbd
00000040: d8b0 e6bd 2a0a 293d 1d0b d2bd b66f 463e
00000050: f9c9 8fbd 70b7 75bd 18b5 a8bd da3c d23d
00000060: 76d5 59bd 7272 79be 1e4f 603c 265f 19be
00000070: c967 acbd 371b 97bd 2c46 e3bd 8d12 febd
00000080: dc9c f8bd 463b e3bd 8856 b7bd d8d4 01bd
00000090: 95e7 133d 699d a53d de87 2c3e 5082 acbc
000000a0: 3c46 883d 0ebd 82be 4144 22be db4e 1d3d
000000b0: 410f 35be f768 633d ef3c a3bd 91f9 ca3c
000000c0: d681 6e3d e98b 273c 2a94 00be 3a43 48bb
000000d0: 91d7 8a3d c756 bebd 89d8 83bd 6d62 853d
000000e0: c46d 863d 8f30 c1bd 0df2 84bd 9d65 223d
000000f0: c390 f8bd 4482 10be 40e7 6b3d d835 21bd
0.14995694 -0.20799714 -0.119379185 0.0037027306 -0.027875895 -0.11982785 -0.10280659 0.15158515
0.19408724 -0.033080336 -0.07750959 -0.04244645 -0.14287958 0.058680635 -0.13071704 -0.05388963
-0.11264199 0.04126946 -0.10256026 0.19378552 -0.07020945 -0.059989393 -0.08237666 0.10265513
-0.053182088 -0.24360064 0.013690738 -0.14977702 -0.08418233 -0.07378238 -0.110973686 -0.12405882
-0.121392936 -0.1109529 -0.089520514 -0.031697124 0.036109526 0.08086664 0.16848704 -0.021058232
0.06654021 -0.25534862 -0.1584635 0.03840528 -0.176816 0.055520024 -0.079706065 0.024777206
0.05822929 0.010226228 -0.1255652 -0.0030557648 0.06779397 -0.09293895 -0.06437785 0.06512914
0.06563905 -0.0943309 -0.0649148 0.039647687 -0.12136986 -0.14112192 0.057593584 -0.03935799

fc3.weight f4 [64, 64]
00000000: 2ef2 293d 4999 2b3e f2e4 003e 8db6 513e
00000010: 64dc 6d3d 41b2 4fbd 4940 9a3d 2ab1 493e
00000020: d83c e5be 7b72 a8bd e846 76bc 296b d1bd
00000030: 643d 5b3e 35df 6b3d ab71 a4bc 6cbf 163e
00000040: 6f35 353e 7e17 6c3e 41d7 a23d 83e8 c5be
00000050: 456f ec3d 786e d23d 1771 3d3e ac69 a53d
00000060: 6b93 fa3d 4877 ff3d 749d c63d 860c 5a3e
00000070: db34 bdbd eff1 073e 391b 8f3e ebc6 88bd
00000080: 5b76 8f3e d802 e13d eb9f 0c3e 5009 033d
00000090: 88bb 4a3e 5e4a c83d d8fe 373e 93d1 ddbd
000000a0: 0445 ecbd c859 0d3e 4ad1 3c3e 4a4b 4c3e
000000b0: 95e3 363e bae7 423e bda5 b33d c516 49bd
000000c0: 8e49 9b3e 6019 083d f0b9 ad3d 9c22 433d
000000d0: 3716 db3e e640 263e d3ea 703e 615b a1bd
000000e0: dc95 aebd cbfa b8bd 0297 e03c 54a5 d8bc
000000f0: 5b7c 123e 5525 943b 40fa 333b 5015 763d
00000100: 92a3 a53d 5222 a0bd a98f f1bd 84ef dbbd
00000110: 2806 c23c 7ca2 79bd 7919 7abd 0820 863c
00000120: d0cb 763d 10d4 4d3d 21a9 453b 0007 cfba
00000130: 4170 21bd 0047 f3ba 9d1e 183d 4860 8abc
00000140: 245b edbd 96f9 97bd f68e e8bd ad90 dabc
00000150: 1fe9 f3bc aa00 83bd 151e af3d 6024 f8bc
00000160: ec32 e4bd a002 e53c 9f71 863c 5feb a5bd
00000170: 6c2a 433d d39d 093b 9c06 a93d 300c 9cbc
00000180: bceb 513d 4036 9dbc dfa0 0ebc 8048 3d3c
00000190: 46ef 9dbd 1dbc ce3b d8d3 6ebd a0dc 863d
000001a0: 2c67 103d 5379 983d 575b d2bc b4c4 06bd
000001b0: 16e3 2ebd 9ae8 02be de1f bcbd a4ba 1b3d
000001c0: 80ff 503b 8c13 473d 4acd c93d e15b 01be
000001d0: c983 d0bd c63f b1bd 6c92 0cbd 5c9d 513d
000001e0: f237 8cbd 9862 0e3d 88fe b9bc 7c5b cfbd
000001f0: 5a97 bf3d d099 e93c 087e 4e3d 242c d43d
00000200: ffd8 40bd 3a26 9a3b 409a 28bd 9f84 55bd
00000210: 3410 9e3c 3e4c b2bd b62a dc3c a4ff 1fbd
00000220: ae36 a43d 911d a4bc 69e1 663c c430 c33d
00000230: a07e 563d f23c a2bd f3e5 a4bd 3837 3e3d
00000240: 6782 8b3c 0019 7bbc 80e3 853d 8227 8ebd
00000250: 2c12 223d 60df 523d 712c e2bd 3213 94bd
00000260: facb 4f3d 7fc0 1f3c f381 23be 7862 803d
00000270: 9c47 2b3d a0f4 87bd a4c6 c6bd cffb 073b
00000280: 1107 2ebd c27c c03d cfce 21bd d0d1 093d
00000290: 2e0d a23d 4a6e b6bb 1c40 34bd a242 b9bd
000002a0: fee8 b63d f768 e5bd 81e9 b7bd 1933 623c
000002b0: 245e 033d 333a 28bd 203d 7d3c cc8f 043d
000002c0: 7841 953d 14e5 f6bd 9225 a1bc 71de b13d
000002d0: 665b 86bd 8001 e6bd 5d63 023d 02e0 e6bc
000002e0: a661 92bd 9882 cebc fcd0 68bc 00b0 bcbb
000002f0: 1424 4c3d 0892 9e3c 563d f9bd f57b 7f3c
00000300: 29c9 783e 0485 403e 1a26 febd 2adb adbe
00000310: 84ce ba3d 4016 fa3c bcfe 033e 8ca8 383e
00000320: fab4 4e3e 757d 983d 9c60 87be 4f66 b63d
00000330: 7072 e7bc 91c3 cb3d 293e 16be 9049 863e
00000340: 9aba 563e 9bbd 703e 793f e63d 0f4a 833e
00000350: c6f3 41bd be54 0a3e 1fcb 18be 11a3 913e
00000360: b0ad 95bc 388e 1b3e 1305 29bd 39b1 623d
00000370: a054 343d 0577 a1bd 1ad0 9f3e 17db fa3d
00000380: 0388 743e ff35 4a3e 9ead bb3c 529b d6bd
00000390: a983 e33d c187 c63d 9780 7f3e a6a3 c4bd
000003a0: 20a4 bf3c 668f 7c3e af77 75bd 4bb6 ecbd
000003b0: 5951 2d3d 3b0f 55bd 2cd8 ff3d 2f18 823d
000003c0: 929e 973e fe11 dcbd f9a9 03bd c9cd b7be
000003d0: c49b a33e 95c8 33bb 4fbc 2ebe b8d0 e73d
000003e0: ea1e c73d 688f febc 6301 8abe bd44 24bd
000003f0: 3f67 abbe c827 ea3d c4ff 09bd 0c62 6bbd
0.041490726 0.16757692 0.12587336 0.20479794 0.05807151 -0.050707106 0.07531793 0.19696489
-0.44772983 -0.082249604 -0.015031554 -0.10225517 0.21410137 0.057585914 -0.020073732 0.14721459
0.17696165 0.23055837 0.07951213 -0.38653955 0.115446605 0.102749765 0.18500172 0.08076796
0.12235149 0.12473923 0.096980006 0.2129384 -0.09238597 0.13275884 0.27950457 -0.066785656
0.28019986 0.109868705 0.13732879 0.031991303 0.197981 0.097798094 0.17968309 -0.10830989
-0.11536601 0.1380378 0.18439212 0.19950595 0.17860253 0.19033709 0.087718464 -0.04909398
0.30329555 0.033227324 0.084827304 0.047640428 0.42790386 0.16235694 0.23527078 -0.07878757
-0.08524677 -0.0903221 0.027415756 -0.026446022 0.1430525 0.004521052 0.0027462393 0.06007892
0.08087839 -0.07819046 -0.11794979 -0.10739043 0.023684576 -0.060945973 -0.06105945 0.016372696
0.060252964 0.050251067 0.0030160623 -0.0015794933 -0.039413694 -0.0018560588 0.03713857 -0.016891614
-0.11589649 -0.074206516 -0.11355393 -0.026680315 -0.029774247 -0.06396611 0.085506596 -0.030290782
-0.11142525 0.027955353 0.0164116 -0.08101534 0.04764788 0.0020998612 0.08253214 -0.01904878
0.051250204 -0.019190907 -0.008705347 0.01155293 -0.077116534 0.006309046 -0.0583075 0.0658505
0.035254642 0.07445016 -0.02567832 -0.032902434 -0.042697035 -0.12784043 -0.09185766 0.03801979
0.003189057 0.048602626 0.09853609 -0.12632705 -0.10181386 -0.08654742 -0.034319326 0.05117546
-0.06846608 0.034761995 -0.022704378 -0.10124871 0.0935504 0.028515726 0.05041316 0.10359982
-0.047081944 0.004704264 -0.04116273 -0.05212843 0.019294836 -0.08705948 0.026875835 -0.039062157
0.08018242 -0.02003363 0.014091828 0.09530786 0.052366853 -0.07921781 -0.08051672 0.04643938
0.017029954 -0.015325785 0.06537533 -0.06941129 0.03956811 0.05148256 -0.11043633 -0.07230224
0.050731637 0.0097504845 -0.1596754 0.062687814 0.04181634 -0.066384554 -0.097058564 0.0020749455
-0.042487208 0.09398796 -0.03950387 0.03364736 0.0791267 -0.0055673467 -0.044006452 -0.09045912
0.089311585 -0.11201661 -0.08980084 0.013806128 0.0320722 -0.041071128 0.015456468 0.032363698
0.07287878 -0.12055412 -0.019671235 0.086850055 -0.065604016 -0.11230755 0.03183304 -0.028182987
-0.07147531 -0.025208756 -0.014209982 -0.0057582855 0.049839094 0.019356743 -0.12169902 0.0155935185
0.24295487 0.18800741 -0.12409611 -0.3395627 0.09121421 0.030528188 0.12890142 0.18033046
0.20186225 0.07445804 -0.26440895 0.089062326 -0.02825281 0.09949411 -0.1467215 0.26228
0.2096962 0.23509829 0.11242575 0.2564244 -0.04735162 0.13508889 -0.14921235 0.28444722
-0.018271297 0.15190971 -0.041264605 0.055344794 0.044026017 -0.07884029 0.31213456 0.12248819
0.2388001 0.1974716 0.022909936 -0.10478844 0.111090966 0.09693862 0.24951397 -0.09601526
0.02339369 0.24664077 -0.059928592 -0.11558207 0.042313907 -0.052016478 0.124924034 0.06352269
0.29613167 -0.10745619 -0.03214452 -0.3589919 0.31954777 -0.0027432789 -0.17064022 0.11319107
0.09722693 -0.03107424 -0.26954183 -0.040104616 -0.33477208 0.11433369 -0.033691183 -0.05746655

fc3.bias f4 [64]
00000000: 7a86 bf3d a1b6 3fbd 86c4 13be d083 ad3d
00000010: 844e b63d f37b 2cbe ce54 123d ce66 c6bd
00000020: 699f b2bc 9ef8 55bd 0049 c1bc b5d8 6a3e
00000030: 2156 213d 6d7f ae3b ed3f 13bc 277b a5bd
00000040: 71f1 dd3c 9a2a 96bd c31d 463d a741 aa3d
00000050: e7c8 b1bd dfb4 c13c d1bc 44bc 51c4 323d
00000060: 9465 c4bd 2098 9ebd 9a2e 9bbd ca62 77bd
00000070: 709b 34bc 5e26 db3d a4f9 f1bd faaf c7bc
00000080: 5616 d3bc c3ac 91bd 1dde 6e3e b63e 9b3d
00000090: 2fd1 c53d cddc b93c ac44 e8bd 7dbb 863d
000000a0: 6eef 0abe a06e 10be e169 863d ae70 a63d
000000b0: b37d ce3c 6194 b0bd 0fdf 37bc ab3b 2ebd
000000c0: 234c dcbd b335 eabd 8f54 a2bd 8858 283d
000000d0: 96c6 c5bd 8049 2e3e e0d2 cdbc 5a14 71bc
000000e0: 474f eabc 60fe d03b 7a7f 873d 25ba ccbd
000000f0: 930a 05be 9811 713c 0473 b83e 40de 06bd
0.09351821 -0.046805028 -0.14430436 0.08472407 0.089016944 -0.16844158 0.035725407 -0.09687577
-0.021804528 -0.052239053 -0.02359438 0.2293423 0.03938878 0.005325249 -0.008987409 -0.0808013
0.027092667 -0.07332344 0.048368227 0.083133034 -0.08680897 0.023645816 -0.012007908 0.043644253
-0.09589687 -0.07743859 -0.07577248 -0.060396947 -0.011023387 0.10700677 -0.11815193 -0.024375904
-0.025767487 -0.0711303 0.23326917 0.075803205 0.09659039 0.022688294 -0.11341223 0.06578729
-0.13567898 -0.141047 0.065631635 0.08126961 0.025206422 -0.08622051 -0.011222615 -0.042537373
-0.107567094 -0.114360236 -0.079262845 0.041100055 -0.09657018 0.17020226 -0.025124967 -0.014714325
-0.028602256 0.00637798 0.06616111 -0.09996442 -0.12992315 0.014713667 0.3602525 -0.032926798

q_out.weight f4 [1, 64]
00000000: d238 74be 9de1 5f3d 5da1 0f3d 3799 b4be
00000010: 9dd2 95bc 6694 65be d00b c33c 6aba 0c3d
00000020: aa52 013a 6bb5 3fbe 0043 853c f9fb b4be
00000030: 9969 29bb 07bc 973d 11d2 2bbe 1b40 513d
00000040: 12cd ce3d 3796 3abe 0e23 2ebe 58d6 813d
00000050: 4e15 333c 864e 73be 83d9 343c 295c 2bbe
00000060: 77f0 1abe eac8 95be f43b 173d 7e5d 24bd
00000070: a252 95bd 2e55 f23c 252b 763d 758c b43d
00000080: 73c4 27be a3a4 ab3d ba67 acbe bf77 343d
00000090: fbc1 8c3d 7f0c 86be 8913 c63d 6efb de3d
000000a0: 7989 a23c 07af 6cbe 464f 5bbe 8d96 053b
000000b0: 32c6 a03d 9a05 a73d 4e9c 74be 4a78 3bbe
000000c0: 46a3 4ebe 8550 24be ffd1 8e3d 44a7 933d
000000d0: d04a 483d 4c37 dd3e 705a dbbd 6d37 73bd
000000e0: d4fa 8b3c 5c15 cdbd 4297 a53d 43f4 28be
000000f0: 1798 4cbe 58fd 87be 0ecd c33e 4045 7bbe
-0.238498 0.05465852 0.035065997 -0.35273144 -0.018288905 -0.22419891 0.023809344 0.034357466
0.00049332774 -0.18721549 0.0162673 -0.3534849 -0.0025850295 0.0740891 -0.16779353 0.051086526
0.10097708 -0.18221365 -0.1700556 0.06339711 0.010930372 -0.23760423 0.011038187 -0.16734375
-0.15130793 -0.29254848 0.03692241 -0.040128224 -0.072911516 0.029581632 0.06009974 0.088158526
-0.16383533 0.08381011 -0.33672887 0.04405951 0.06872936 -0.2618141 0.09671695 0.108878
0.019840943 -0.23113643 -0.21416959 0.0020383925 0.07850303 0.08155365 -0.2388775 -0.18307605
-0.20179471 -0.16046341 0.06973647 0.07209638 0.04889947 0.4320625 -0.10710609 -0.05937903
0.017087378 -0.100138396 0.08085491 -0.16499428 -0.19979893 -0.26560473 0.38242382 -0.24538136
