model/simple_tag/agent_1/1_actor_params.pkl (torch_old, 40203 bytes, 8 tensors)

fc1.weight f4 [64, 16]
-0.19857864 -0.19472 -0.06796722 -0.09485793 0.6724829 -0.716786 -0.7961125 0.60676503
0.61342263 0.5968651 0.35963094 0.3276534 0.1603215 -1.9192647 -1.8451653 -0.98983914
-0.3894898 -0.56778467 -0.33712023 -0.32617944 0.06735618 -0.2674285 -0.40851834 -0.014508739
2.258596 -0.43382713 2.3292627 0.1609521 0.6605613 -0.9459138 -0.7289654 -0.3682095
0.5155566 -0.17687267 -0.09894892 -0.3007888 -0.14556105 -0.2799367 0.051539835 0.0060674334
-0.109024286 1.130816 1.3798647 -2.278883 -0.7071882 1.2904505 -0.2745988 1.4035046
0.117145434 -0.0788796 -0.18482919 -0.42251658 -0.26611525 -0.10282957 0.11085145 -0.35789034
-1.0969974 -0.8152948 -1.3452972 -0.6258155 1.9365054 -2.067165 -0.37799948 0.31822422
0.25043017 0.36550424 -0.2819084 0.32026556 -0.46432453 0.20599061 0.21351634 0.08324789
-2.8078606 -0.66389066 0.69652116 -0.19802241 2.1119382 -0.1165335 0.81711566 0.29983485
-0.12108112 -0.029011358 -0.11423696 0.22374679 -0.20908311 0.15422423 0.10631138 0.058948096
1.119085 -1.5674461 -0.008140794 0.3777183 -0.76070184 -4.1082726 -0.14561605 0.3474266
-0.11395719 -0.09021437 -0.57999593 -0.36428273 -0.199728 0.19879788 -0.34416535 -0.56783265
-0.40758428 0.104353845 0.15171756 0.3548763 3.017495 3.4616804 0.39005148 0.79977435
0.389704 0.54910374 -0.4063398 0.16685553 -0.5032783 0.60523915 0.13842827 -0.43878278
0.4804567 1.0112597 -0.14062606 -0.48217526 0.008479695 -1.2845157 0.28732723 -0.32193065
-0.08921974 0.060913928 0.4928558 -0.20525785 -0.11315451 0.1439039 0.52679545 -0.3238848
0.8456595 -1.8435887 0.27885598 0.75231963 0.7572059 1.7255404 0.9020877 0.27497637
0.21131071 0.9870389 0.4183553 -0.6255401 -0.038635857 -0.25131103 0.43251756 -0.33153582
-1.4032371 0.11050678 -1.2432725 2.454468 -1.4347268 0.15703118 0.9899485 0.59729075
-0.7629877 0.7963017 -0.16623588 0.49556765 -0.10284125 0.27229902 -0.09645723 0.1917765
-0.3959323 -0.18145642 1.0632676 -0.12985726 -2.7462316 2.0772336 -0.606763 0.7316685
-0.004195988 0.15869606 -0.500288 0.46154222 -0.5472684 0.39010295 0.030870711 0.033355225
1.64554 0.8952719 -0.81754875 -1.6501089 2.018975 -0.17922853 1.3267716 1.4492455
-0.05759052 -0.48636228 0.32390618 0.2779379 0.3025718 -0.14430901 0.07195661 0.4118148
0.36143553 -0.978046 -1.1789099 1.8476316 -0.53835106 -0.8510673 -0.105329975 -0.97751915
-0.1380705 -0.43514115 -0.01828474 -0.012061246 0.08427742 -0.09142838 -0.09717355 0.07604329
0.6867698 -1.6747388 -1.4469749 3.039913 2.5399036 2.2380638 0.20319831 1.0113633
-0.3759801 -0.18234968 0.083660915 -0.29434735 0.50777733 -0.6141737 -0.36412203 0.3873865
0.16421467 0.32617852 -0.42019135 -0.5462452 4.4534307 -0.16188651 0.30216342 0.059262127
0.12867697 0.09422831 -0.017028758 -0.17301571 0.13710974 0.0018185476 -0.14238125 -0.18263102
-0.7918316 0.42957082 0.06121759 -0.51772493 3.1708424 1.3283297 0.8527519 0.5513542
00000000: 3358 4bbe ae64 47be 6632 8bbd e044 c2bd
00000010: d727 2c3f 4a7f 37bf 07ce 4bbf f454 1b3f
00000020: 4409 1d3f 27cc 183f 8c21 b83e 30c2 a73e
00000030: 522b 243e 77aa f5bf 602e ecbf 1966 7dbf
00000040: 356b c7be 565a 11bf 069b acbe fe00 a7be
00000050: 09f2 893d 63ec 88be 5129 d1be 10b6 6dbc
00000060: d68c 1040 971e debe a412 1540 a1d0 243e
00000070: 8c1a 293f 6827 72bf 7a9d 3abf f585 bcbe
00000080: 84fb 033f 1c1e 35be bba5 cabd fd00 9abe
00000090: f50d 15be dd53 8fbe 6f1b 533d 52d1 c63b
000000a0: 2048 dfbd 94be 903f 689f b03f 38d9 11c0
000000b0: 490a 35bf 7b2d a53f 3798 8cbe 0aa6 b33f
000000c0: f2e9 ef3d a18b a1bd dd43 3dbe 1854 d8be
000000d0: 4240 88be 4f98 d2bd 1606 e33d 673d b7be
000000e0: 696a 8cbf 29b7 50bf b332 acbf 7235 20bf
000000f0: 69df f73f 6e4c 04c0 2689 c1be 49ee a23e
00000100: 6238 803e 5f23 bb3e 4c56 90be d9f9 a33e
00000110: f2bb edbe 34ef 523e 07a4 5a3e df7d aa3d
00000120: fdb3 33c0 bdf4 29bf 364f 323f 63c6 4abe
00000130: ff29 0740 1ea9 eebd 7e2e 513f f483 993e
00000140: 61f9 f7bd 3aa9 edbc 11f5 e9bd e11d 653e
00000150: e219 56be f5ec 1d3e c8b9 d93d 8f73 713d
00000160: 2d3e 8f3f 13a2 c8bf f760 05bc 4b64 c13e
00000170: 5bbd 42bf f876 83c0 601c 15be e6e1 b13e
00000180: 6362 e9bd 50c2 b8bd 9d7a 14bf 4483 babe
00000190: 7f85 4cbe ac91 4b3e 7136 b0be 7b5d 11bf
000001a0: e3ae d0be 78b7 d53d d95b 1b3e 59b2 b53e
000001b0: a31e 4140 2c8c 5d40 d4b4 c73e 03be 4c3f
000001c0: 4887 c73e 1092 0c3f c50b d0be 2ddc 2a3e
000001d0: d9d6 00bf f4f0 1a3f 24c0 0d3e 23a8 e0be
000001e0: 6cfe f53e f570 813f 4700 10be addf f6be
000001f0: 6bee 0a3c 036b a4bf 8e1c 933e 18d4 a4be
00000200: d7b8 b6bd e280 793d 9857 fc3e 1d2f 52be
00000210: 8dbd e7bd 8b5b 133e 11dc 063f 3ad4 a5be
00000220: 247d 583f b7fa ebbf 36c6 8e3e 0598 403f
00000230: 3fd8 413f 82de dc3f 38ef 663f b4c9 8c3e
00000240: d661 583e 95ae 7c3f aa32 d63e 6523 20bf
00000250: a240 1ebd d7ab 80be f172 dd3e 10bf a9be
00000260: 469d b3bf 6151 e23d 8e23 9fbf 0116 1d40
00000270: 21a5 b7bf c8cc 203e 446d 7d3f 0ce8 183f
00000280: 2953 43bf 6eda 4b3f bd39 2abe 0bbb fd3e
00000290: 6f9e d2bd c76a 8b3e 5e8b c5bd 0f61 443e
000002a0: a3b7 cabe b6cf 39be 2719 883f 4df9 04be
000002b0: 42c2 2fc0 65f1 0440 d254 1bbf a04e 3b3f
000002c0: 807e 89bb 3881 223e e012 00bf 434f ec3e
000002d0: c819 0cbf 93bb c73e 93e4 fc3c 7d9f 083d
000002e0: 0ea1 d23f 8a30 653f e04a 51bf c536 d3bf
000002f0: e336 0140 af87 37be a7d3 a93f e080 b93f
00000300: 09e4 6bbd 7a04 f9be 08d7 a53e e04d 8e3e
00000310: b1ea 9a3e bec5 13be fd5d 933d 64d9 d23e
00000320: 140e b93e 3961 7abf 85e6 96bf 317f ec3f
00000330: 60d1 09bf 8cdf 59bf 3eb7 d7bd b23e 7abf
00000340: 5a62 0dbe d2ca debe e1c9 95bc 889c 45bc
00000350: a499 ac3d cd3e bbbd ed02 c7bd 96bc 9b3d
00000360: 25d0 2f3f d75d d6bf 7936 b9bf ef8d 4240
00000370: c88d 2240 703c 0f40 3813 503e 5a74 813f
00000380: 7780 c0be e0b9 3abe 6a56 ab3d b2b4 96be
00000390: b2fd 013f 7d3a 1dbf 346e babe 8657 c63e
000003a0: e427 283e df00 a73e 5223 d7be bad6 0bbf
000003b0: 8182 8e40 94c5 25be 2ab5 9a3e d8bc 723d
000003c0: e5c3 033e c6fa c03d e57f 8bbc 082b 31be
000003d0: 7f66 0c3e 555c ee3a 64cc 11be a003 3bbe
000003e0: 7ab5 4abf b5f0 db3e 4cbf 7a3d 9f89 04bf
000003f0: 15ef 4a40 b506 aa3f f34d 5a3f 8d25 0d3f

fc1.bias f4 [64]
-1.1860495 -0.46109796 0.75804275 0.62583894 -0.3574865 -0.06117894 1.6370108 1.5180068
0.8362522 -0.5843202 -0.9244705 -0.6785061 -0.7176247 0.92392766 1.1694148 -0.5968671
0.7047386 0.14133762 0.42416635 1.3103653 0.78559095 -0.7604278 1.1445954 -1.2580076
0.4358012 0.24819303 0.90054786 0.1941986 -0.34922993 0.011856266 0.29768476 -0.0020075825
0.6684855 1.1481485 1.3709539 0.19602774 0.74095434 0.6335272 -0.91589 0.89250314
0.18341868 1.4880075 -0.7840809 -0.87069565 -0.8139046 -0.84703255 1.6527334 0.75651467
1.483578 -0.8806903 0.33136687 0.44157165 1.5215002 1.5465558 1.6403258 1.760633
-0.978515 0.49058956 0.91638684 0.98295355 0.24798915 0.88371736 1.0506215 -0.58152294
00000000: 78d0 97bf 0815 ecbe 170f 423f fb36 203f
00000010: 7808 b7be c596 7abd 9289 d13f 0c4e c23f
00000020: a014 563f 0296 15bf 19aa 6cbf 93b2 2dbf
00000030: 41b6 37bf 8686 6c3f 62af 953f 48cc 18bf
00000040: c069 343f cfba 103e 552c d93e 0dba a73f
00000050: 7d1c 493f 65ab 42bf 1a82 923f 6506 a1bf
00000060: 5621 df3e 5026 7e3e 4e8a 663f ffdb 463e
00000070: 44ce b2be c940 423c 236a 983e a591 03bb
00000080: de21 2b3f 88f6 923f 6b7b af3f 7fbb 483e
00000090: 2faf 3d3f d72e 223f c477 6abf 167b 643f
000000a0: 1bd2 3b3e 0877 be3f 87b9 48bf e9e5 5ebf
000000b0: 0d5c 50bf 20d7 58bf c58c d33f f2aa 413f
000000c0: e2e5 bd3f eb74 61bf eba8 a93e ae15 e23e
000000d0: 85c0 c23f 8af5 c53f 32f6 d13f 6c5c e13f
000000e0: f67f 7abf 8e2e fb3e 5498 6a3f d8a2 7b3f
000000f0: def0 7d3e 4d3b 623f c47a 863f b0de 14bf

fc2.weight f4 [64, 64]
-0.19714876 -0.3278986 -0.5225985 0.15241793 0.16050217 0.61189336 -0.7204819 0.23359428
-0.35494623 -0.40109015 -1.2838106 0.6857037 -1.1449001 -0.6827937 -0.58575404 -0.1794456
0.30775645 -0.21519604 0.60276616 -0.2636515 0.013788681 -1.3843628 0.37249303 0.09701737
-0.23361899 0.16395259 0.52228755 -0.3003735 1.4087131 0.034139097 -0.7093767 0.49046928
0.22646862 0.28796467 -0.93014574 0.40128052 0.057655837 -0.220162 -0.27116135 0.91687804
0.25884357 -0.8029509 -0.44738856 -0.44623873 -0.05286336 0.35693654 -0.07846862 -0.58899313
0.78211653 -0.22225684 0.7993156 0.025249835 0.6985236 2.477581 0.44062644 1.3672495
-0.916328 -0.21618651 -0.48523894 -0.8854655 -0.3688021 -0.27763775 -1.8934654 -0.077094086
-0.31281203 -0.7214978 -0.1741951 -0.33320847 -0.49491453 0.8201489 1.0163385 0.00498956
0.09728455 -0.09112426 0.30580023 0.022927871 -0.7322054 0.10826909 -0.49379167 -0.23828849
0.0811081 -0.11553612 0.36326328 0.66090393 -0.7829644 0.52407885 -0.22606122 0.24999344
-0.71372175 -0.8033547 0.3822783 -0.5405239 -0.37424013 0.20348509 0.7992939 -0.16388023
-0.902128 0.12149211 0.5272147 0.44515446 -0.604089 -0.23269667 0.6270762 0.068155736
-0.122817196 0.38336283 -0.104608856 -0.08566082 0.58331853 -0.50597584 -0.00635371 1.0909116
-0.97762966 -0.6350988 0.18743312 0.7815991 0.7433364 -0.5462914 0.18580393 -0.4192103
1.3382474 0.34073764 -0.3400042 0.089217745 1.233382 -0.53998077 1.9499557 0.48254627
0.10224175 0.81057936 0.5744598 0.89817077 -0.42545003 0.08064707 0.18173717 -0.41543743
-0.28159377 -0.17764305 0.37921253 -0.038454145 -0.13304035 -1.2775515 -0.28745803 -0.33544344
-0.4813496 0.0845725 0.6924095 -0.45838463 0.4306344 -0.13978039 -0.2503947 -0.19501598
0.3929131 -0.30214062 0.17903735 1.1884385 0.1338611 0.7102965 0.12743352 0.33861697
0.6194476 -0.15770501 -0.2801963 -0.25337476 0.39889127 -0.7817582 0.16023009 1.0878696
1.2417984 -1.580786 -0.25670663 0.8483213 -0.8700138 0.8476164 -0.036709826 -0.6172851
0.5992274 0.18089685 0.086945 -0.37602788 -0.5673349 0.7056734 0.44459078 0.81898
0.43100786 0.6351871 0.19021344 0.20027024 -0.42904747 -0.73790467 -0.86518335 -0.71005005
-0.30241743 0.15985803 0.0032086018 -0.09840337 -0.4899151 0.8051914 -0.3084015 0.73878944
-0.33687112 -0.45801213 0.50953054 0.4611138 0.8221852 1.4256289 0.9234523 0.19949146
1.4283987 0.15983202 -0.36061993 0.6659422 -1.3078228 0.5493955 1.0218742 0.054412633
0.3345528 0.3669585 -0.41190645 -0.027386123 1.773015 -1.6307517 -0.47532746 -0.42500642
-1.7911234 1.1024249 0.64022815 -0.31769186 0.21924417 -0.1339758 -0.59763753 0.24200355
-0.49161083 0.32765442 -0.8057848 0.22653091 0.20995443 -0.33452263 0.120867275 0.4623571
0.008980952 0.72701466 0.70073277 0.21247713 0.15318324 1.0065743 0.12590657 0.28524873
-0.29380256 -0.012067297 0.07556926 0.26474476 1.2239382 0.010591708 -0.2664422 0.18337262
00000000: 5de1 49be 53e2 a7be 04c9 05bf 7213 1c3e
00000010: ae5a 243e 0ba5 1c3f 8071 38bf 5733 6f3e
00000020: 83bb b5be b05b cdbe e853 a4bf 478a 2f3f
00000030: 168c 92bf 91cb 2ebf faf3 15bf 96c0 37be
00000040: 4192 9d3e 5a5c 5cbe e24e 1a3f 54fd 86be
00000050: ebe9 613c cd32 b1bf 68b7 be3e 0bb1 c63d
00000060: d139 6fbe 30e3 273e a3b4 053f 8eca 99be
00000070: b650 b43f 70d5 0b3d b699 35bf ca1e fb3e
00000080: 64e7 673e 1b70 933e 081e 6ebf a474 cd3e
00000090: 8728 6c3d 2672 61be a9d5 8abe 85b8 6a3f
000000a0: 2587 843e 318e 4dbf 1d10 e5be 6779 e4be
000000b0: 4087 58bd 63c0 b63e 28b4 a0bd 41c8 16bf
000000c0: ca38 483f 4c97 63be f29f 4c3f bed8 ce3c
000000d0: 71d2 323f b090 1e40 ca99 e13e 0802 af3f
000000e0: 7994 6abf ff5f 5dbe 3d71 f8be dead 62bf
000000f0: a1d3 bcbe 8926 8ebe 135d f2bf 81e3 9dbd
00000100: e628 a0be 14b4 38bf 3360 32be 4d9a aabe
00000110: 7065 fdbe 47f5 513f 6117 823f 777f a33b
00000120: 1f3d c73d 5b9f babd d991 9c3e 3bd3 bb3c
00000130: d071 3bbf 2fbc dd3d 43d2 fcbe e601 74be
00000140: 011c a63d 349e ecbd a5fd b93e 0031 293f
00000150: 5b70 48bf 082a 063f 987c 67be 48fe 7f3e
00000160: 78b6 36bf a7a8 4dbf fbb9 c33e c65f 0abf
00000170: 679c bfbe 655e 503e 869e 4c3f 38d0 27be
00000180: dcf1 66bf dbd0 f83d 8bf7 063f 49eb e33e
00000190: 94a5 1abf 0948 6ebe 1188 203f 3c95 8b3d
000001a0: 9587 fbbd 2248 c43e 2b3d d6bd f16e afbd
000001b0: 5d54 153f a287 01bf c832 d0bb fea2 8b3f
000001c0: f045 7abf d695 22bf 78ee 3f3e e116 483f
000001d0: 4b4b 3e3f c1d9 0bbf 6343 3e3e bca2 d6be
000001e0: b14b ab3f 2a75 ae3e 0815 aebe cbb7 b63d
000001f0: 76df 9d3f 2e3c 0abf 2698 f93f 4e10 f73e
00000200: 1f64 d13d 2182 4f3f cc0f 133f 85ee 653f
00000210: 96d4 d9be 4b2a a53d 4f19 3a3e 37b4 d4be
00000220: 0f2d 90be 0fe8 35be 2528 c23e 1882 1dbd
00000230: bb3b 08be cf86 a3bf b32d 93be 3ebf abbe
00000240: 7473 f6be 5934 ad3d c041 313f 64b1 eabe
00000250: 1d7c dc3e 9722 0fbe bc33 80be 45b2 47be
00000260: e82b c93e 2db2 9abe 9155 373e c11e 983f
00000270: e212 093e fed5 353f ef7d 023e 345f ad3e
00000280: 1e94 1e3f 6c7d 21be e475 8fbe 56ba 81be
00000290: 7a3b cc3e 4e21 48bf 5b13 243e 503f 8b3f
000002a0: 40f3 9e3f 3257 cabf 0d6f 83be 962b 593f
000002b0: 39b9 5ebf 63fd 583f 0b5d 16bd 6506 1ebf
000002c0: f866 193f 063d 393e 3810 b23d ba86 c0be
000002d0: dc3c 11bf 03a7 343f 67a1 e33e aca8 513f
000002e0: 10ad dc3e 9f9b 223f 50c7 423e a413 4d3e
000002f0: 1cac dbbe 52e7 3cbf a87c 5dbf d7c5 35bf
00000300: 75d6 9abe d3b1 233e 6847 523b b587 c9bd
00000310: 27d6 fabe 0621 4e3f cde6 9dbe 4e21 3d3f
00000320: 5f7a acbe 9180 eabe 9870 023f 1c17 ec3e
00000330: bb7a 523f 027b b63f 5f67 6c3f 7d47 4c3e
00000340: c5d5 b63f 01ab 233e 2da3 b8be 307b 2a3f
00000350: bd66 a7bf 2fa5 0c3f c6cc 823f c8df 5e3d
00000360: 814a ab3e fce1 bb3e 67e5 d2be dd58 e0bc
00000370: 28f2 e23f 79bc d0bf 1f5e f3be 719a d9be
00000380: 8843 e5bf 421c 8d3f fee5 233f 82a8 a2be
00000390: 8b81 603e f430 09be c6fe 18bf c7cf 773e
000003a0: 6ab4 fbbe 52c2 a73e ea47 4ebf b8f7 673e
000003b0: 4bfe 563e 8d46 abbe 4389 f73d 12ba ec3e
000003c0: d824 133c a21d 3a3f 3963 333f 9b93 593e
000003d0: 11dc 1c3e 6dd7 803f a7ed 003e 1f0c 923e
000003e0: 4a6d 96be e9b5 45bc 0ec4 9a3d a08c 873e
000003f0: 02aa 9c3f d888 2d3c 1d6b 88be 08c6 3b3e

fc2.bias f4 [64]
0.34711003 -0.05255601 0.66300213 0.12565494 -0.5784877 0.4740847 0.40384394 0.36405593
0.08776875 -0.32050762 0.84986013 0.008037281 -0.14638995 -0.27809757 0.03205135 0.51147926
-0.5776039 0.37876934 0.1708906 -0.029594677 1.1195567 0.17553452 -1.0278289 -0.22439629
0.4640355 0.28346476 0.28121698 -0.4882848 -0.17839329 0.06585416 1.3291627 -0.633212
-0.14347614 0.99484897 -0.38032442 -0.14498866 0.29955184 -0.47503462 -0.4018155 -0.57104564
-0.004123679 1.0290293 -0.21309184 -0.7995586 -0.38235733 -0.47316316 0.76544356 0.86774975
0.7441493 0.8375507 0.66685665 0.47816682 -0.22396658 -0.13483812 -0.33455846 0.9792905
-0.48303378 -0.40179062 -0.84499204 -0.19384147 -0.12329358 0.09833955 -0.3342425 -0.25948596
00000000: 68b8 b13e f944 57bd 82ba 293f b0ab 003e
00000010: c517 14bf 3bbb f23e a2c4 ce3e 8a65 ba3e
00000020: 1ac0 b33d 9319 a4be 6f90 593f cdae 033c
00000030: 3fe7 15be ce62 8ebe 4748 033d 4ef0 023f
00000040: d9dd 13bf 0eee c13e f2fd 2e3e 8970 f2bc
00000050: a24d 8f3f 52bf 333e e68f 83bf 24c8 65be
00000060: 1096 ed3e 4b22 913e acfb 8f3e 7700 fabe
00000070: bbac 36be 8cde 863d 0122 aa3f 2e1a 22bf
00000080: 69eb 12be 6cae 7e3f e2b9 c2be e877 14be
00000090: dc5e 993e bd37 f3be c3ba cdbe 0c30 12bf
000000a0: ed1f 87bb 3bb7 833f bf34 5abe dfaf 4cbf
000000b0: 57c4 c3be 7142 f2be 1cf4 433f d924 5e3f
000000c0: 9280 3e3f b969 563f 1eb7 2a3f 48d2 f43e
000000d0: 7f57 65be 0113 0abe 3f4b abbe c8b2 7a3f
000000e0: 3450 f7be 80b7 cdbe 6651 58bf 617e 46be
000000f0: 5881 fcbd 3f66 c93d d521 abbe 58db 84be

fc3.weight f4 [64, 64]
-0.023255516 0.011668625 0.15504307 0.7004624 0.7909629 0.3099329 1.1803107 0.16439989
0.4784795 -1.2437398 -1.1597792 0.10892321 0.56069005 0.23194997 0.5090164 -0.61170006
-2.0384834 -0.17725265 -0.35093814 0.36811644 -1.4056274 -0.87842274 0.7325767 -1.1687996
-0.49794817 0.16562769 0.31430236 0.19686835 0.14179257 1.1623335 -0.31802452 -0.7849063
0.73120546 -2.1104825 -1.3929995 -0.13916682 -0.3025241 -0.12440692 -0.66681916 -0.17545201
0.57918465 -0.28686816 0.060004 -0.21301101 -0.43841183 1.4614111 0.032140497 0.22437389
-0.085738346 0.005789629 0.5143876 0.56553876 0.11644762 -0.01081907 0.77735204 -1.4786198
0.34124553 -0.37090707 -1.4179314 -0.013151267 0.39536327 1.414613 0.7527381 -0.12318062
-0.017926672 0.062781535 -0.06013237 -0.15862787 -0.14138985 0.047408126 -0.019807529 -0.095814005
-0.11708482 -0.14463818 -0.10789887 -0.098136775 -0.15348215 -0.032210816 0.019833509 0.023274964
0.026424784 0.050076563 -0.032591842 -0.020363085 -0.04870923 -0.11959817 0.0017887084 -0.16630769
-0.10135475 -0.1537322 -0.10553813 -0.033858746 -0.097041145 -0.03020344 -0.09920472 0.045221318
-0.1502887 0.05273868 0.04959541 -0.065399565 -0.013149978 0.013657284 -0.06656343 0.016607994
0.029765109 -0.05076784 -0.17264009 -0.1839147 0.041773196 0.02869199 -0.003057135 -0.02680739
-0.10897825 0.021410244 -0.14966421 0.05066173 -0.1642539 -0.10368625 -0.10370577 0.07182719
-0.12789243 -0.14865899 -0.06563642 0.006511251 -0.13153249 -0.21596538 -0.07571293 -0.0026993623
0.78838277 -1.5961217 -0.032353047 -1.8427349 -0.3734137 -0.4823574 -0.8153413 -0.018033229
-1.0032277 0.4864043 1.5771769 0.5764998 0.3429991 0.1168601 -0.75561935 -0.8768139
-1.154121 -0.67604977 -1.0557345 0.8426106 -0.43601617 0.5158546 -2.5243752 0.29482043
-0.41006887 0.57328343 -0.2611886 -0.9424928 0.10317456 0.34671813 0.36817935 0.23853008
-0.5633279 0.38712114 -1.5348366 -0.044274475 0.18036547 -0.8037167 0.5293544 0.349426
0.14323556 -0.5206264 -0.06831249 -0.09065735 -1.6193751 0.019364962 -0.09671623 0.52489424
0.12051275 -1.0517683 -1.2026861 0.010947331 0.53284156 0.035602324 -0.25391582 0.8529679
-0.25295258 -1.0345186 0.62370723 -0.2613062 0.19446768 0.07658687 -0.07377856 -0.54805076
-0.37692055 -0.27584276 0.84494436 -0.4059903 0.32396933 -0.4375486 0.9006734 0.35323673
-0.45824704 -0.46671903 0.34427166 1.0492715 0.21317387 0.18842609 -0.16130987 0.6953379
-0.23848888 -0.32759637 -0.24782367 -0.11929197 -0.7986634 -0.101645574 0.25057897 -1.1520224
0.29185814 1.4701526 -0.19147652 -0.06268844 0.009753288 0.17663024 1.3455178 -0.13259426
0.57250935 1.3387538 -1.3958812 0.22297876 0.3723541 -0.50307363 -0.9320905 -0.43117207
0.942006 0.8081035 0.13084808 0.01590858 -1.0915462 -0.8994702 -0.61820483 1.0267353
0.82343256 0.8631754 0.33038968 1.3457677 -0.061800163 0.10965405 -0.8067123 0.6722456
0.23900354 0.004914357 -1.5545126 -0.9588322 0.39163202 1.3017033 0.62600285 -0.036419496
00000000: 5a82 bebc c32d 3f3c 9cc3 1e3e 8151 333f
00000010: 8b7c 4a3f 86af 9e3e 6c14 973f 7258 283e
00000020: 44fb f43e de32 9fbf a573 94bf 2213 df3d
00000030: 6289 0f3f 4b84 6d3e e64e 023f 6098 1cbf
00000040: 8376 02c0 b881 35be 2aae b3be c279 bc3e
00000050: 99eb b3bf 50e0 60bf 268a 3b3f 3a9b 95bf
00000060: 10f3 febe 4e9a 293e 3dec a03e db97 493e
00000070: 1232 113e 58c7 943f 1cd4 a2be 9fef 48bf
00000080: 4830 3b3f 2512 07c0 cf4d b2bf bf81 0ebe
00000090: 70e4 9abe 0ec9 febd a9b4 2abf b1a9 33be
000000a0: 7245 143f 62e0 92be c1c6 753d 8f1f 5abe
000000b0: 8477 e0be 850f bb3f c1a5 033d 45c2 653e
000000c0: 9697 afbd eeb6 bd3b e8ae 033f 26c7 103f
000000d0: 177c ee3d 7842 31bc 8b00 473f 6a43 bdbf
000000e0: bcb7 ae3e 88e7 bdbe c77e b5bf 6978 57bc
000000f0: 0e6d ca3e 0a12 b53f 72b3 403f 1f46 fcbd
00000100: f5da 92bc 9b93 803d 5c4d 76bd 586f 22be
00000110: 80c8 10be 062f 423d 6643 a2bc 223a c4bd
00000120: 2bca efbd 081c 14be 15fa dcbd effb c8bd
00000130: 6d2a 1dbe 7def 03bd e279 a23c 23ab be3c
00000140: ca78 d83c 151d 4d3d 067f 05bd 7cd0 a6bc
00000150: 5483 47bd e3ef f4bd 1873 ea3a 904c 2abe
00000160: 1493 cfbd f96b 1dbe 6024 d8bd 78af 0abd
00000170: 82bd c6bd 346d f7bc d82b cbbd fd39 393d
00000180: 48e5 19be 8404 583d 8e24 4b3d 35f0 85bd
00000190: 0173 57bc cdc2 5f3c 6852 88bd 7d0d 883c
000001a0: f5d5 f33c f0f1 4fbd 90c8 30be 2354 3cbe
000001b0: 5f1a 2b3d 770b eb3c 375a 48bb 2c9b dbbc
000001c0: fd2f dfbd 8964 af3c 9341 19be ad82 4f3d
000001d0: 2d32 28be 7559 d4bd b163 d4bd 221a 933d
000001e0: 3cf6 02be 103a 18be 636c 86bd 555c d53b
000001f0: 74b0 06be 0726 5dbe 610f 9bbd c9e7 30bb
00000200: 74d3 493f b74d ccbf a184 04bd bdde ebbf
00000210: 1530 bfbe 8df7 f6be 35ba 50bf 6cba 93bc
00000220: c469 80bf fc09 f93e efe0 c93f 7e95 133f
00000230: 949d af3e 5954 ef3d 4570 41bf e076 60bf
00000240: 3dba 93bf 9911 2dbf 4f22 87bf 54b5 573f
00000250: 833d dfbe 0c0f 043f 5d8f 21c0 b4f2 963e
00000260: 8cf4 d1be b4c2 123f 83ba 85be 3547 71bf
00000270: 2f4d d33d 0a85 b13e 0182 bc3e 3b41 743e
00000280: 4236 10bf be34 c63e 8775 c4bf 2759 35bd
00000290: bab1 383e 61c0 4dbf c583 073f f7e7 b23e
000002a0: 58ac 123e c647 05bf 6be7 8bbd 90aa b9bd
000002b0: af47 cfbf 45a3 9e3c 2913 c6bd 785f 063f
000002c0: 64cf f63d 58a0 86bf 9ef1 99bf 6f5c 333c
000002d0: 4e68 083f bed3 113d 4101 82be 1b5c 5a3f
000002e0: 0083 81be 1b6b 84bf 47ab 1f3f edc9 85be
000002f0: 8922 473e 94d9 9c3d 3719 97bd 0e4d 0cbf
00000300: bbfb c0be 433b 8dbe 464e 583f f6dd cfbe
00000310: 4fdf a53e 5f06 e0be 8892 663f 72db b43e
00000320: 5b9f eabe ccf5 eebe 6044 b03e 874e 863f
00000330: 404a 5a3e c5f2 403e 6a2e 25be aa01 323f
00000340: 6e36 74be b6ba a7be 7dc5 7dbe 594f f4bd
00000350: 3475 4cbf 8e2b d0bd e34b 803e 7875 93bf
00000360: 6e6e 953e f62d bc3f 6c12 44be cc62 80bd
00000370: 41cc 1f3c 8fde 343e ed39 ac3f cac6 07be
00000380: f98f 123f 495c ab3f 3cac b2bf 8b54 643e
00000390: 32a5 be3e 6fc9 00bf 7c9d 6ebf 96c2 dcbe
000003a0: 4e27 713f dfdf 4e3f 0afd 053e b652 823c
000003b0: c9b7 8bbf ae43 66bf ac42 1ebf 106c 833f
000003c0: 7acc 523f 10f9 5c3f d628 a93e 1e42 ac3f
000003d0: 2b22 7dbd 4d92 e03d b384 4ebf 4a18 2c3f
000003e0: 58bd 743e 9d08 a13b 45fa c6bf 0776 75bf
000003f0: fe83 c83e 379e a63f b941 203f 9c2c 15bd

fc3.bias f4 [64]
-0.24782263 -0.21496056 -0.1940802 1.1117281 -0.22362217 -0.23507348 0.7084373 0.976735
0.56677115 0.3299782 -0.09744359 -0.22286397 0.09106277 -1.0363765 -0.36610353 0.09783346
0.4954609 -0.36744046 1.1262999 -0.5259288 0.44102705 -1.2388828 -1.0012804 1.0884596
0.30710006 0.6208762 0.12674303 0.3484746 1.0474192 -0.1814399 0.3307524 -0.290113
-0.29880995 -0.38373467 0.1340858 0.6825598 0.30477864 -0.012257321 0.13901173 0.47115064
0.34751275 0.05556805 -0.68707347 0.0354845 -0.59695995 0.26428372 0.5286776 -0.629441
-1.3367027 0.591396 -0.0017801572 -0.03620109 0.15057449 0.5929763 0.39204836 0.41305333
-0.52512616 -0.10367719 -0.0516282 0.17901586 0.45846108 0.40126726 0.9340071 -1.0913402
00000000: 37c5 7dbe 9f1e 5cbe f6bc 46be 1b4d 8e3f
00000010: 36fd 64be 1ab7 70be 265c 353f 4e0b 7a3f
00000020: ea17 113f e7f2 a83e 8190 c7bd 7436 64be
00000030: 1e7f ba3d fca7 84bf ec71 bbbe e95c c83d
00000040: 0dad fd3e 2821 bcbe 982a 903f 45a3 06bf
00000050: 4cce e13e b693 9ebf f529 80bf a552 8b3f
00000060: 383c 9d3e bef1 1e3f edc8 013e 436b b23e
00000070: d511 863f 62cb 39be 6158 a93e b189 94be
00000080: 9efd 98be df78 c4be ca4d 093e 3dbc 2e3f
00000090: f20b 9c3e eed2 48bc 1759 0e3e a83a f13e
000000a0: 31ed b13e 539b 633d 0ce4 2fbf 3258 113d
000000b0: 5ed2 18bf 3250 873e 6a57 073f 0c23 21bf
000000c0: 1319 abbf ba65 173f 2a54 e9ba 9847 14bd
000000d0: 3330 1a3e 4bcd 173f 90ba c83e ba7b d33e
000000e0: ab6e 06bf b554 d4bd 1778 53bd ef4f 373e
000000f0: 69bb ea3e e772 cd3e 171b 6f3f 09b1 8bbf

action_out.weight f4 [5, 64]
0.21686609 -0.04073105 -0.6403468 -0.4476644 -1.0193155 -0.14286232 -0.8049364 0.2579213
0.57445467 -3.184191 0.94308597 1.3417904 0.17257418 0.37156248 -0.6824205 -0.27808478
0.28666642 -0.0683552 1.6409293 0.9920138 -0.6750114 -0.115682885 0.89697903 -0.45926407
-0.5548914 0.8692428 0.15836999 0.21209842 0.9016534 -0.02947805 -1.0902175 0.28793365
0.28466395 0.45089546 -0.11590181 -0.58886814 1.9468181 -0.079858266 1.2671031 -0.47199717
-0.5920193 -0.346847 -1.0948681 -0.10239316 1.8883278 -0.8480687 -0.23668431 0.5144502
1.6546495 -1.3624748 0.8405378 1.3246999 0.6521805 0.36694792 0.35364094 -0.6694785
-0.22070906 -0.42481616 0.9104369 -0.3116918 0.8319885 0.30821136 -1.0524235 0.09910975
-0.2789422 -0.0059127426 -0.36491725 -0.46335432 -0.44120818 -0.06742037 0.80444217 1.1955302
0.41404077 -1.1627431 0.65057194 -0.39105552 -0.047241163 0.11109985 -1.5449005 0.37991115
-0.5358588 0.24839726 0.25315154 -1.2123046 0.81967175 -1.304787 -0.037395243 0.88695425
-0.7759198 0.071521014 0.8527384 -0.14791366 0.2846884 -0.026246576 -1.0639111 -0.37009886
0.9841758 -0.13651414 -0.8125668 0.27905473 -0.30496454 0.10875509 1.0075414 0.36296847
-0.5071066 0.3719115 -1.0699848 1.4257786 0.55184835 1.6209089 -1.0404234 -0.15189041
-1.0941668 -0.1082902 -1.0486289 -0.3500897 -1.3761746 0.46887183 -0.7890254 -0.90211433
0.54791117 -0.26798505 -1.024508 1.5452517 0.41147897 1.4314388 -0.37404644 1.1836065
-0.7203018 -0.0041979663 0.6737416 -0.025488293 -0.19078015 0.016427444 -0.33091065 -0.5717162
-0.2535743 -0.2486031 -0.07253605 -0.49747118 0.0499197 0.19737127 0.99156 0.291994
1.3279625 -0.37143856 -0.5875229 0.8606269 -0.57516867 0.88333976 0.33413306 -0.925012
0.2844415 -0.32359856 -0.8039372 0.27793682 -0.7258694 -0.029807752 0.7419524 0.6762853
-0.35597926 -0.30963242 0.81525403 -0.629251 -0.10496151 -0.10856198 -0.34700742 -1.2532452
0.5724946 -0.9830849 -0.66460735 -0.30011132 0.31620914 -0.9434146 0.5088689 0.4878769
-0.07208714 0.099767104 0.25149226 0.08154384 0.69536513 -0.46533498 0.5061572 0.8801342
0.09535246 -0.33557686 0.96851647 -1.0067286 -0.28589994 -0.90344363 0.29247582 -0.07123197
-1.1633036 -0.009847782 0.105470195 0.20147522 -0.34167922 -0.088665284 -0.08995611 -0.21469875
1.0446926 -0.061633047 1.0959636 0.21738097 -0.19316952 0.90835506 1.465871 0.49584803
0.21557704 0.24064602 0.1175703 1.134042 0.0972389 0.4040022 0.7228516 0.08540073
0.4894083 -0.81468886 0.09445908 -0.24392475 -0.77637625 -0.04043989 -0.10819733 -1.305149
-0.30903718 0.50717336 -0.58891475 -0.29658365 -0.67041254 0.00088443456 1.9943911 0.4749434
-0.107277274 -0.89959794 0.50341654 0.26401216 0.52302396 -0.2169821 -0.4458284 0.13157861
-0.18354565 -0.7427509 0.66669255 0.90225554 -0.47975227 -0.23255084 0.11245507 0.5888993
0.8008517 -1.092442 -0.7818944 -0.19196315 0.32264727 0.340712 -0.6674512 0.30995047
00000000: 2512 5e3e 9ad5 26bd c5ed 23bf 4534 e5be
00000010: ee78 82bf 804a 12be 5010 4ebf 430e 843e
00000020: 760f 133f c9c9 4bc0 156e 713f cabf ab3f
00000030: 49b7 303e 703d be3e 1cb3 2ebf 2161 8ebe
00000040: f1c5 923e d0fd 8bbd f909 d23f 9ef4 7d3f
00000050: 8ccd 2cbf 26eb ecbd 6ba0 653f a924 ebbe
00000060: 5d0d 0ebf b286 5e3f be2b 223e 5430 593e
00000070: c2d2 663f f47b f1bc 3f8c 8bbf 0a6c 933e
00000080: 79bf 913e c5db e63e ee5d edbd 10c0 16bf
00000090: 5631 f93f bb8c a3bd 6f30 a23f 9da9 f1be
000000a0: 948e 17bf ee95 b1be a324 8cbf 81b3 d1bd
000000b0: bab4 f13f 081b 59bf 5f5d 72be 02b3 033f
000000c0: 8ecb d33f 9365 aebf 7c2d 573f c48f a93f
000000d0: 4df5 263f 99e0 bb3e 6d10 b53e f162 2bbf
000000e0: 8e01 62be 8181 d9be 6512 693f 1196 9fbe
000000f0: 33fd 543f e1cd 9d3e d0b5 86bf 0dfa ca3d
00000100: 83d1 8ebe aebf c1bb 6fd6 babe c73c edbe
00000110: 0ae6 e1be b113 8abd ecef 4d3f 2207 993f
00000120: 27fd d33e c4d4 94bf e28b 263f 6e38 c8be
00000130: f37f 41bd 5188 e33d 4dbf c5bf b783 c23e
00000140: 0b2e 09bf da5b 7e3e 149d 813e cc2c 9bbf
00000150: 02d6 513f 4303 a7bf c12b 19bd 6f0f 633f
00000160: aea2 46bf 9c79 923d 104d 5a3f ae76 17be
00000170: aec2 913e 0f03 d7bc 3d2e 88bf 997d bdbe
00000180: f2f2 7b3f 5dca 0bbe 6104 50bf 43e0 8e3e
00000190: 5024 9cbe fdba de3d 1ef7 803f 01d7 b93e
000001a0: bdd1 01bf 2f6b be3e 43f5 88bf ea7f b63f
000001b0: ef45 0d3f f179 cf3f 982c 85bf 2989 1bbe
000001c0: a80d 8cbf 41c7 ddbd 7939 86bf f53e b3be
000001d0: 7d26 b0bf f80f f03e 92fd 49bf f7f0 66bf
000001e0: e843 0c3f 5635 89be 1423 83bf cfca c53f
000001f0: 5fad d23e 6339 b73f 0483 bfbe 6b80 973f
00000200: b365 38bf 188f 89bb 547a 2c3f d3cc d0bc
00000210: df5b 43be d992 863c 1f6d a9be fe5b 12bf
00000220: 7ed4 81be d091 7ebe c88d 94bd 8bb4 febe
00000230: 9978 4c3d b21b 4a3e e0d6 7d3f 3d80 953e
00000240: adfa a93f 322d bebe e767 16bf 0b52 5c3f
00000250: 413e 13bf 8e22 623f 7d13 ab3e 96cd 6cbf
00000260: 51a2 913e b6ae a5be d4ce 4dbf bc4d 8e3e
00000270: 94d2 39bf 632f f4bc 98f0 3d3f 0921 2d3f
00000280: ea42 b6be 2488 9ebe 7db4 503f 9816 21bf
00000290: 0ff6 d6bd be55 debd f5aa b1be 576a a0bf
000002a0: 028f 123f 74ab 7bbf b523 2abf 31a8 99be
000002b0: 2ae6 a13e 9f83 71bf 3b45 023f 00cb f93e
000002c0: 6ca2 93bd b252 cc3d 98c3 803e 7500 a73d
000002d0: 7303 323f 6340 eebe 8593 013f 7a50 613f
000002e0: 2748 c33d bbd0 abbe b2f0 773f 7cdc 80bf
000002f0: 7a61 92be 1548 67bf 64bf 953e 11e2 91bd
00000300: 22e7 94bf 9758 21bc c200 d83d 854f 4e3e
00000310: 94f0 aebe 2596 b5bd e93a b8bd fdd9 5bbe
00000320: 7db8 853f ef72 7cbd 8948 8c3f 1e99 5e3e
00000330: 3bce 45be f589 683f a9a1 bb3f cbdf fd3e
00000340: 3ac0 5c3e e96b 763e b3c8 f03d 4a28 913f
00000350: 3025 c73d 60d9 ce3e cd0c 393f 94e6 ae3d
00000360: ba93 fa3e 738f 50bf c373 c13d 69c7 79be
00000370: 98c0 46bf 4ca4 25bd 9096 ddbd 1f0f a7bf
00000380: 1f3a 9ebe 1dd6 013f 1ec3 16bf d0d9 97be
00000390: 28a0 2bbf 66d9 673a 3548 ff3f c82b f33e
000003a0: 30b4 dbbd 0d4c 66bf e8df 003f 9a2c 873e
000003b0: e6e4 053f 8e30 5ebe 9f43 e4be 8bbc 063e
000003c0: 64f3 3bbe ec24 3ebf 5dac 2a3f 38fa 663f
000003d0: 17a2 f5be cf21 6ebe d84e e63d 1bc2 163f
000003e0: 9e04 4d3f 24d5 8bbf 3b2a 48bf fd91 44be
000003f0: 0632 a53e ce71 ae3e 15de 2abf d4b1 9e3e

action_out.bias f4 [5]
-0.31196147 0.2996089 -0.5766313 -0.31765828 0.7410054
00000000: 6ab9 9fbe 5666 993e 1c9e 13bf 1ba4 a2be
00000010: 88b2 3d3f
