model/simple_tag/agent_1/1_critic_params.pkl (torch_old, 51179 bytes, 7 tensors)

fc1.weight f4 [64, 63]
0	0xbeebb7ca	-0.46038657
1	0x3e54fcc0	0.20799541
2	0xbfdf3346	-1.7437522
3	0xbdc7d57b	-0.09757515
4	0xbf414202	-0.75491345
5	0x3ece565a	0.40300256
6	0xbcc21e81	-0.023696186
7	0x4007293c	2.1118917
8	0x400b69b7	2.1783273
9	0x3dda8765	0.10670356
10	0x3e06c609	0.13161482
11	0x3fbd6432	1.4796202
12	0x40516f79	3.2724288
13	0x3f854633	1.0412048
14	0x3d1f6617	0.03891572
15	0xbf2ee041	-0.68310934
16	0xbe40bb3e	-0.18821427
17	0x3ec0bbac	0.37643182
18	0xbfa93534	-1.3219361
19	0x401ee5b1	2.4827693
20	0xbec97526	-0.3934719
21	0xbfdd9445	-1.7310873
22	0xbf8e5317	-1.1119107
23	0xbfa8c976	-1.3186481
24	0xc006ab11	-2.104191
25	0xbd8918f8	-0.066942155
26	0xbf8ba6a4	-1.091023
27	0x3e2e2f6d	0.17010279
28	0x3f7ba384	0.9829638
29	0xbf9a8caf	-1.2074183
30	0x3dc69f36	0.09698336
31	0xbf1b66a5	-0.607035
32	0xbf49b54a	-0.7879225
33	0x3e079706	0.13241205
34	0xbf90dfd4	-1.1318307
35	0x3f14bcce	0.58100593
36	0xbf65ddbe	-0.89791477
37	0x3e1a272a	0.15054002
38	0xbf809b4e	-1.0047395
39	0x3fa8b22a	1.3179371
40	0xbe02b168	-0.12762988
41	0xbfa89440	-1.3170242
42	0x3f955ea8	1.1669512
43	0x3c98c6e9	0.018649535
44	0x405db8fa	3.464415
45	0xc0508ea4	-3.258706
46	0x3d142577	0.03616854
47	0xbf27c35f	-0.6553249
48	0x3d7ad636	0.061239444
49	0xbf088412	-0.53326523
50	0xbe862807	-0.26202413
51	0x3e7f5f09	0.24938597
52	0xbe8436f2	-0.2582317
53	0xbde853ad	-0.11344085
54	0xbf10aed4	-0.56516767
55	0xbce5fd75	-0.02807496
56	0x3e5ec68d	0.21755429
57	0xbcacc098	-0.02108793
58	0xbe28a9c7	-0.16471015
59	0xbf166ba3	-0.5875799
60	0x3f082910	0.53187656
61	0x3be0d404	0.0068612117
62	0xbd8751b5	-0.06607381
63	0x3f49e309	0.78862053
64	0x3f5da592	0.86580765
65	0x3e1b07dd	0.15139718
66	0x3d96f0e5	0.07370166
67	0xbebd7a89	-0.3700755
68	0xbeb2f488	-0.34952188
69	0xbd45f5f9	-0.04833028
70	0xbca0e504	-0.019640453
71	0xbf032b97	-0.5123839
72	0x40676154	3.6153154
73	0x3cb861f7	0.02250765
74	0x3f42ca36	0.760898
75	0x40a14034	5.0390873
76	0xbfd3ced9	-1.65475
77	0x3ff26e16	1.8939846
78	0x3ff2a693	1.8957084
79	0x3f89bf50	1.0761509
80	0x3eeb3721	0.45940498
81	0xbe445ee2	-0.1917682
82	0x3e665bd5	0.22495969
83	0x3cbb9feb	0.022903403
84	0xbe4d3286	-0.20038804
85	0xbe4e78d0	-0.20163274
86	0xbe4cda6b	-0.20005195
87	0x3ef2fed4	0.47460043
88	0xc063efe2	-3.5615163
89	0x3f003efd	0.5009611
90	0xbe575d46	-0.21031675
91	0x409acd24	4.8375416
92	0xbf0c9399	-0.54912716
93	0x3ff7a572	1.9347365
94	0x3fdc2219	1.7197906
95	0x3f066951	0.5250445
96	0x3eda264f	0.42607352
97	0xbee1a8da	-0.44074136
98	0xbf066f06	-0.5251316
99	0x3e4bdacc	0.19907683
100	0x3f05c424	0.5225241
101	0x3f0e4006	0.5556644
102	0x3ef79c66	0.4836151
103	0x3dc5f79c	0.09666368
104	0xbf70a29a	-0.9399811
105	0xbefa7bfd	-0.4892272
106	0x3da06c92	0.07833208
107	0x40060678	2.0941448
108	0x403821df	2.8770673
109	0x3fe9fdf8	1.828063
110	0x3fe9813d	1.8242565
111	0x3d0acc5c	0.0338863
112	0xbe2b668a	-0.16738334
113	0xbe90d7e2	-0.28289706
114	0x3f069878	0.525764
115	0xbe6a4cb3	-0.22880821
116	0x3c8e8047	0.017395152
117	0x3ecf1a08	0.40449548
118	0x3dd1e5e7	0.102489285
119	0x3c8201a9	0.015869932
120	0xbe07a531	-0.1324661
121	0x3d993152	0.0748011
122	0x3ed2ebe8	0.41195607
123	0xbe6f03ed	-0.23341341
124	0xbdbf8c02	-0.09352876
125	0xbe3f83dd	-0.18702646
126	0x3fae1d42	1.3602679
127	0x3fc741c9	1.5566951
128	0x3f2ba7d4	0.6705296
129	0x3f8f25b4	1.1183381
130	0xbe902bd0	-0.28158426
131	0x3e07242e	0.13197395
132	0xbda85d8a	-0.08220966
133	0xbf0875d6	-0.53304803
134	0x3f344910	0.70423985
135	0xc02d2fcd	-2.7060425
136	0xbfd94e53	-1.6977028
137	0x3dbf079e	0.09327625
138	0xbfcc6faa	-1.5971577
139	0x405e6c6e	3.475368
140	0x3cdf3560	0.02724713
141	0x3f63a2c8	0.8892026
142	0x3d5d5fe7	0.054046538
143	0x3d918784	0.07105926
144	0xbe4ec751	-0.2019322
145	0x3fbc778e	1.4723985
146	0xbf0259d9	-0.50918347
147	0xbe144821	-0.1448064
148	0x3ec5f4b7	0.38663265
149	0xbf2e02d6	-0.6797308
150	0xbf31d389	-0.694634
151	0x402736c3	2.6127174
152	0xbf7fa68d	-0.9986351
153	0x40074a42	2.1139073
154	0xc01a94cb	-2.4153316
155	0x404c0252	3.1876416
156	0x3d973e3b	0.073849164
157	0x3f5888bb	0.84583634
158	0x3ee48874	0.44635355
159	0x3f797767	0.9744782
160	0x3f0b342d	0.5437649
161	0x3fca6abb	1.5813822
162	0xbebc626c	-0.3679384
163	0xbead085a	-0.33795434
164	0xbe95bc08	-0.2924502
165	0xbf7ec48c	-0.99518657
166	0x3fce6e73	1.6127456
167	0x3d99a5b2	0.07502307
168	0x3f64bcec	0.8935077
169	0xc008713c	-2.1319113
170	0xbfa78ac5	-1.3089224
171	0xbef99235	-0.4874436
172	0x3d2f631d	0.04281913
173	0x3f792233	0.9731781
174	0xbdb20339	-0.08692021
175	0xbc1616e1	-0.009160728
176	0x3ed67909	0.41889217
177	0x3f0da5f1	0.5533133
178	0xbfad9d84	-1.3563695
179	0x3eea30c1	0.4574032
180	0x3ec52cf2	0.38510853
181	0x3f05a909	0.5221105
182	0xbf1ab1ea	-0.60427725
183	0xbe87a7a6	-0.26495093
184	0x3e877e14	0.26463377
185	0x3ee61cdb	0.4494389
186	0xbe0971e0	-0.13422346
187	0x3f08e821	0.534792
188	0xbee78633	-0.45219573
189	0xbee2874a	-0.44243842
190	0xbf4655f3	-0.774749
191	0xbea347df	-0.3189077
192	0xc0783c3b	-3.8786762
193	0x3fb5bf4a	1.4199002
194	0xbe71bfe1	-0.23608352
195	0xc00464f0	-2.0686607
196	0xbdc364ad	-0.09540687
197	0x3fa2a656	1.2707012
198	0x3f22c4b8	0.6358142
199	0x3f58f6e9	0.84751755
200	0xbf987734	-1.1911378
201	0xc02cd484	-2.700471
202	0xbef8e5bd	-0.48612776
203	0x3ff02a6f	1.876295
204	0x3ea963e3	0.3308402
205	0x3ed5a6ac	0.41728723
206	0x3f23c9a6	0.63979566
207	0xbe458d21	-0.19292118
208	0xbf0ed94b	-0.5580031
209	0x3f9579d0	1.1677799
210	0xc035a20f	-2.8380163
211	0xbeecc6fc	-0.46245563
212	0xc008450f	-2.129215
213	0xbf8d62cc	-1.1045775
214	0xbf2f3d98	-0.6845336
215	0xbe719645	-0.2359248
216	0x3fa520e8	1.2900667
217	0xbfd74ac1	-1.6819688
218	0x40516482	3.2717595
219	0x3fea2ef7	1.8295583
220	0x3eced917	0.404
221	0x3ec7b85e	0.39007849
222	0x3f3b3038	0.7312045
223	0xbe997372	-0.2997089
224	0xc012a969	-2.29159
225	0x3d2ddd25	0.042447228
226	0xbf7f0f87	-0.9963307
227	0xbfaef065	-1.3667113
228	0xbeb83888	-0.3598063
229	0xbf4b10d9	-0.7932258
230	0x3f87a9c6	1.0598686
231	0x3eab2635	0.33427587
232	0xbf9984ea	-1.1993687
233	0x3f19fda9	0.6015268
234	0x3ed6834a	0.4189704
235	0x3ff1f203	1.8901981
236	0x3ed4ebb9	0.41586092
237	0x3f19ad41	0.6002999
238	0xbf3e9ec9	-0.74461037
239	0xbe8772ab	-0.26454672
240	0xbec72e86	-0.38902682
241	0x3eac7bfd	0.33688346
242	0x3e68c019	0.2272953
243	0x3f345eb1	0.7045699
244	0x3f68004b	0.9062545
245	0xbe61fbb4	-0.22068673
246	0x3eaa8aa7	0.33308908
247	0xbf41d129	-0.7570978
248	0xbf15eb57	-0.58562225
249	0xbde7fde6	-0.11327724
250	0xbe6bf23c	-0.23041624
251	0x40268a94	2.6022081
252	0xbf60047e	-0.87506855
253	0x3d919969	0.07109339
254	0xbdda2923	-0.106523775
255	0xbeb0418b	-0.34425005

fc1.bias f4 [64]
0	0xc190b1e1	-18.086855
1	0xc0ec70ae	-7.388755
2	0xc148c27f	-12.547484
3	0xc1761bf9	-15.381829
4	0xc0e5526a	-7.1663103
5	0xc12cb19a	-10.79336
6	0xbe249f7b	-0.16076462
7	0xbf864bd1	-1.0491887
8	0xc0d7bfcf	-6.742164
9	0xc0d173ed	-6.545401
10	0xbf4bdb4f	-0.79631513
11	0xbef7b253	-0.48378238
12	0xc12dc605	-10.860845
13	0xc1696e8b	-14.589488
14	0xc151d4be	-13.114439
15	0xbef31957	-0.4748027
16	0xbf1287d9	-0.5723854
17	0x3e8d182f	0.27557513
18	0x3f4d6116	0.80226266
19	0xbfc6beaf	-1.5526942
20	0xc0ba0a83	-5.813783
21	0xc0c22c78	-6.0679283
22	0xc0163a85	-2.3473217
23	0xc0d7c45d	-6.74272
24	0x40905918	4.5108757
25	0xc12ec3d5	-10.922811
26	0xbf16e847	-0.5894818
27	0xbfb72240	-1.4307327
28	0xbe4e7746	-0.20162687
29	0xc15437d4	-13.26363
30	0xc1021882	-8.130983
31	0xc05a6740	-3.4125519
32	0xc081b0ad	-4.052817
33	0xc1859665	-16.698435
34	0x3e979504	0.29605877
35	0xc11bfbaa	-9.748941
36	0xc1442657	-12.25936
37	0xbf54f94d	-0.831929
38	0xc117c370	-9.485214
39	0x416be246	14.742743
40	0xc0a8dc63	-5.2769027
41	0xbf009aef	-0.5023641
42	0x40040aba	2.0631547
43	0xc11d7d3a	-9.843073
44	0x3e59cc23	0.21269278
45	0x3eb65dbc	0.3561839
46	0xc16f3a23	-14.951694
47	0xbf6a2b94	-0.91472745
48	0xc126b2dc	-10.418667
49	0xc0f89707	-7.768436
50	0x3f165a8a	0.587319
51	0xbe8aab05	-0.27083603
52	0xc09317a0	-4.596634
53	0xbf1bad33	-0.60811156
54	0xc1038280	-8.21936
55	0x3ee33b33	0.44381103
56	0xbfbdff8f	-1.4843615
57	0xc13c8585	-11.782598
58	0x3eba5bd7	0.36398193
59	0xbf845265	-1.0337645
60	0xbcf43898	-0.029812142
61	0x3e7175b1	0.23580052
62	0xbe642e83	-0.22283368
63	0xbd88f07c	-0.06686494

fc2.weight f4 [64, 64]
0	0x3e78cd4f	0.24297069
1	0xbd8534a7	-0.06504183
2	0xbf20521c	-0.6262529
3	0x3ee89e4e	0.45433277
4	0x3d8b84aa	0.06812413
5	0x3f49ae68	0.7878175
6	0xbddea73c	-0.10871741
7	0xc00b3839	-2.1753066
8	0x3e9dc1f7	0.30812046
9	0xbfbc6cde	-1.4720724
10	0xbf45b535	-0.77229625
11	0x3db8368b	0.08994778
12	0x3e0be8e1	0.13663055
13	0x3eeca494	0.46219313
14	0x3dbd1bb5	0.092338
15	0xbd851ad2	-0.06499256
16	0xbf581a4a	-0.84415114
17	0xbd73f03b	-0.059555274
18	0xbfaa66b1	-1.3312589
19	0xbdb5ab2a	-0.088705376
20	0xbf61bcc2	-0.88178647
21	0xbf5f2dfb	-0.87179536
22	0x3c9fdd56	0.01951472
23	0xbed2b7ad	-0.41155759
24	0xbf2e24a7	-0.6802468
25	0x3e2b8bad	0.16752501
26	0x3e3f3111	0.18671061
27	0xbf4cd4fa	-0.80012476
28	0x3eb0a76c	0.34502733
29	0xbfddb807	-1.7321786
30	0xbd88a997	-0.06672972
31	0xbefb027b	-0.4902533
32	0xbef47117	-0.4774253
33	0x3e166a4e	0.1468899
34	0xbf5f1fb3	-0.87157744
35	0x3c6c8067	0.01443491
36	0x3c9e9ba1	0.019361319
37	0xbe6ee08a	-0.23327842
38	0x3e42fdad	0.19042082
39	0xbf9b04bf	-1.2110823
40	0x3d0985a4	0.033574715
41	0xbfbeecda	-1.4916031
42	0xbf519be9	-0.81878525
43	0xbf437b67	-0.7636017
44	0x3ca11e3f	0.019667743
45	0x3f079240	0.52957535
46	0xbeac25ea	-0.33622676
47	0xbe173f85	-0.14770325
48	0xbe3c8974	-0.18411809
49	0xbf5237f9	-0.8211666
50	0xbe486926	-0.19571361
51	0xbfe67533	-1.8004516
52	0x3f1f6f07	0.6227879
53	0x3de383c6	0.11109118
54	0x3db09c2c	0.086235374
55	0xbf839b21	-1.0281717
56	0x3d574378	0.052554578
57	0xbf034718	-0.51280355
58	0xbf1349ea	-0.5753466
59	0xbdf96604	-0.12177661
60	0xbe118ff8	-0.14215076
61	0xbd76de4f	-0.060270604
62	0xbeab8d6b	-0.3350633
63	0xbf856383	-1.0420994
64	0xbec68e88	-0.38780618
65	0xbfab25a1	-1.3370858
66	0xbf2d7272	-0.67752755
67	0x3e9b6819	0.30352858
68	0x3e8a21bf	0.2697887
69	0xbf33e3d3	-0.7026951
70	0xbf44f543	-0.7693674
71	0xbdea37ee	-0.11436449
72	0x3dcf788f	0.101304166
73	0xbf0eb72a	-0.55748236
74	0xbdcbf17b	-0.09958168
75	0xbe9a681d	-0.30157557
76	0xbeb161d8	-0.3464496
77	0xbe97d17d	-0.29652014
78	0xbe6e9824	-0.23300225
79	0x3cd8ed71	0.026480408
80	0xbfb455e6	-1.4088714
81	0x3da1b5a5	0.07895974
82	0xc0049fc5	-2.0722516
83	0xbef5bad5	-0.47994104
84	0x3f247d29	0.6425348
85	0x3ec7f55e	0.39054388
86	0xbe478b1f	-0.19486664
87	0xbdbda5bf	-0.09260129
88	0xbeade558	-0.33964038
89	0x3e9aa805	0.30206314
90	0xbd9fec63	-0.07808759
91	0xbf9d6488	-1.2296305
92	0xbec338c8	-0.38129258
93	0x3d4e1358	0.050311416
94	0xbeaeec0b	-0.34164461
95	0xbf117219	-0.56814724
96	0xbfade4a1	-1.3585397
97	0x3edf90cd	0.43665162
98	0xbe145c17	-0.14488254
99	0xbf2c1465	-0.6721862
100	0x3e82ed21	0.2557154
101	0xbd892e27	-0.06698256
102	0xbf5672f5	-0.8376916
103	0xbf900403	-1.1251224
104	0x3ebe61fa	0.37184125
105	0xbe4b73d1	-0.19868399
106	0xbe99958a	-0.29996902
107	0xbe75c6f9	-0.24001683
108	0x3efaae91	0.4896131
109	0xbf9edd98	-1.2411375
110	0xbf754a01	-0.95816046
111	0x3ca1837c	0.019716017
112	0x3e43904d	0.19098015
113	0x3ed2b749	0.4115546
114	0xbf84ca99	-1.0374328
115	0x3de6af9b	0.11263963
116	0xbe02366d	-0.12716074
117	0xbeddd130	-0.4332366
118	0xbf171af0	-0.5902548
119	0xbde6faca	-0.11278303
120	0xbf392881	-0.7232743
121	0x3f557401	0.8338013
122	0xbfa9f09b	-1.3276552
123	0xbdcfcb78	-0.101462305
124	0xbeb21b66	-0.34786528
125	0x3c93ec7a	0.018057097
126	0xbecd8a4a	-0.4014457
127	0xbf97b13a	-1.185096
128	0xc03a43b8	-2.9103832
129	0xc03441e1	-2.816521
130	0xbf74134a	-0.9534193
131	0xbf3e9cfd	-0.74458295
132	0x3e209c59	0.15684642
133	0xc04ac5a8	-3.168314
134	0x3fa0687c	1.2531886
135	0x3fccdfc1	1.6005784
136	0xbfa0e248	-1.2569056
137	0xc07fe7b2	-3.9985166
138	0xbf75374f	-0.9578752
139	0x3dd52538	0.104074895
140	0x3ea9c1f7	0.33155796
141	0xbd3fb435	-0.04680272
142	0x3c0d5ddd	0.008628336
143	0xbf601ecc	-0.8754699
144	0xbf9a3f65	-1.2050596
145	0xbfb86f6a	-1.4409001
146	0xc0530c92	-3.2976422
147	0xbf779a9f	-0.9672031
148	0xc0116a4f	-2.2721136
149	0xbf9ac3fc	-1.209106
150	0xbfb69236	-1.426337
151	0xc0901e1b	-4.503675
152	0xc02e336d	-2.7218888
153	0xbfc37414	-1.5269799
154	0x3f50694d	0.81410676
155	0xbf607ccf	-0.8769044
156	0xbeba623e	-0.36403078
157	0x3e85a127	0.26099512
158	0xbf607308	-0.87675524
159	0xbfddcc25	-1.7327925
160	0x3f0ef9d7	0.55849975
161	0xbf74efe9	-0.95678574
162	0x3f314712	0.6924907
163	0x3d11a56a	0.03555814
164	0x3f5530ac	0.8327739
165	0xbf0ba499	-0.5454803
166	0xbc6042a7	-0.013687766
167	0xc02944e1	-2.644829
168	0xbfb7228b	-1.4307417
169	0x3ecaf13d	0.39637175
170	0x3db0bd98	0.08629912
171	0xc07dc638	-3.9652233
172	0x3f1cceb0	0.6125288
173	0xbd9bb089	-0.07602031
174	0xbee37326	-0.4442379
175	0xc03705cb	-2.8597286
176	0x3e47df88	0.19518864
177	0x3f3726eb	0.7154376
178	0xc02f8fa0	-2.7431412
179	0x3ea2345e	0.31680578
180	0xbfb11903	-1.3835758
181	0xbf6028cb	-0.87562245
182	0xbf19c7af	-0.6007032
183	0xbf0e0eac	-0.5549114
184	0xbf5fed63	-0.874716
185	0xc07d9131	-3.9619868
186	0xc07e7824	-3.9760828
187	0x3fc75759	1.5573531
188	0xbfdd9b4b	-1.7313017
189	0xbf5b980d	-0.85778886
190	0x3f453148	0.7702832
191	0xbf04ba0a	-0.51846373
192	0x3d318472	0.0433392
193	0xbe161c46	-0.14659223
194	0xbd131f16	-0.035918318
195	0xbe6da10e	-0.23205969
196	0xbe82b80a	-0.25531036
197	0xbf1ad9f5	-0.60488826
198	0x3e1ceb65	0.15324171
199	0xbf7114f9	-0.94172627
200	0xbed39c26	-0.4133007
201	0xbf2d1239	-0.6760593
202	0xbe11b68c	-0.14229792
203	0x3de2cc5e	0.11074136
204	0xbeeffe70	-0.46873808
205	0xbe3b5a39	-0.18296136
206	0xbe43b49b	-0.19111864
207	0xbe9816ff	-0.29705045
208	0xbdc154f7	-0.09440034
209	0xbc603621	-0.01368478
210	0x3c9a033a	0.018800367
211	0xbe3e02ff	-0.1855583
212	0xbe0c0d90	-0.13677049
213	0xbeb33c88	-0.3500712
214	0x3da90f93	0.08254924
215	0x3ea8b695	0.329518
216	0xbf562cc4	-0.83662057
217	0xbf1984ee	-0.5996846
218	0xbe019bf5	-0.12657149
219	0xbf5e4bb5	-0.8683427
220	0x3e35b616	0.17745242
221	0xbde0718f	-0.109591596
222	0xbe347d6f	-0.17625974
223	0xbe941cbd	-0.28928176
224	0xbf531e0d	-0.8246773
225	0xbe6a68ff	-0.22891615
226	0x3e149423	0.14509635
227	0xbebda513	-0.37040004
228	0x3b09727e	0.0020972784
229	0xbf1c7aab	-0.61124676
230	0xbe41f08c	-0.18939418
231	0xbf805429	-1.0025684
232	0x3dbc1144	0.09182981
233	0xbf4ecf02	-0.8078462
234	0x3cb3fe3d	0.021971816
235	0x3ea12576	0.31473893
236	0xbf8aa65e	-1.0832021
237	0xbf0a0e05	-0.5392764
238	0xbed4c01d	-0.4155282
239	0xbef9512e	-0.48694748
240	0xbda82c52	-0.082115784
241	0xbf205500	-0.626297
242	0xbf82daf1	-1.0223066
243	0x3e2d2b24	0.16910988
244	0xbf1179f9	-0.5682674
245	0xbf57b6ff	-0.84263605
246	0xbf5ed907	-0.8704991
247	0xbe832946	-0.25617427
248	0x3d193c0f	0.037410792
249	0xbea73d34	-0.32663882
250	0xbf35e2f9	-0.7104946
251	0xbf11b40d	-0.5691536
252	0xbf435f94	-0.76317716
253	0x3e4363a0	0.19080973
254	0x3dc2e6e3	0.095166944
255	0xbf3888c4	-0.7208369

fc2.bias f4 [64]
0	0x40739d38	3.8064709
1	0xbf4db4c4	-0.8035395
2	0xbf0e112c	-0.5549495
3	0x3f66f5b8	0.9021869
4	0xbd90cfe6	-0.070709035
5	0x3d3f3b24	0.04668726
6	0x3f3c88d6	0.73646295
7	0xc04da62d	-3.2132676
8	0x3f7623f5	0.96148616
9	0x3d498dad	0.04920738
10	0xbd921c5b	-0.071343146
11	0x40321a25	2.7828457
12	0xbfb0b292	-1.3804495
13	0xbc2871a1	-0.0102809975
14	0xbc211cf2	-0.009833561
15	0xbfae2698	-1.3605528
16	0xbf47e030	-0.7807646
17	0x3fd090c4	1.6294179
18	0xbffd77ad	-1.9802147
19	0xbf5e44f8	-0.8682399
20	0xbf9c58c5	-1.221459
21	0xbfd196b1	-1.6374112
22	0xbf26c147	-0.6513867
23	0x3e7899f7	0.24277483
24	0x3f531601	0.8245545
25	0xbf0e6c3d	-0.5563391
26	0xc0155ec0	-2.333908
27	0xbf175914	-0.591203
28	0xbf297627	-0.6619591
29	0x409acd8d	4.8375916
30	0xbee67aeb	-0.45015654
31	0x3e69b3b9	0.22822465
32	0x3f8e5625	1.1120039
33	0xbfc11eb7	-1.5087498
34	0x3e533518	0.20625722
35	0x404b0044	3.1718912
36	0x4030c324	2.7619104
37	0x4012ea72	2.2955594
38	0x3f1017ca	0.562863
39	0x41360b48	11.377754
40	0xbf555acb	-0.83341664
41	0xbf9b5091	-1.2133962
42	0xbedbca71	-0.42927888
43	0xbf8ba510	-1.0909748
44	0x3e69eabe	0.22843453
45	0xc081ee1a	-4.060315
46	0xbe1ab2b7	-0.15107237
47	0xc077f634	-3.874402
48	0xc051549c	-3.2707891
49	0xc0562b5c	-3.3463964
50	0x3f9b7213	1.2144188
51	0x3fad3c2b	1.3533987
52	0x3ee9ad2c	0.45639932
53	0xbfd5c921	-1.6702005
54	0x404beb5a	3.1862397
55	0x3fa029e9	1.251279
56	0x3cc225dc	0.023699693
57	0xbf8bfd0e	-1.0936601
58	0x40008d32	2.0086179
59	0x40751e1c	3.8299627
60	0xbf34bb97	-0.7059874
61	0x3fa3e52c	1.2804313
62	0xbf9dbce9	-1.2323276
63	0x3e062c84	0.13102919

fc3.weight f4 [64, 64]
0	0xbf925772	-1.1432936
1	0xbe7ee0d9	-0.2489046
2	0x3fa3de0a	1.2802136
3	0x3f82bd9c	1.0214114
4	0x3eeaa356	0.4582774
5	0x3ff913ff	1.9459227
6	0x3eda3e87	0.4262583
7	0xbf42e33b	-0.76127976
8	0xbe52abe6	-0.20573387
9	0xbede26fa	-0.43389112
10	0xbf869581	-1.0514375
11	0x4004c7f2	2.0747037
12	0x3f8d92c6	1.1060417
13	0xbec11d0e	-0.3771748
14	0xbeeda7b2	-0.46417004
15	0xbf676ef1	-0.9040366
16	0xbfdc4353	-1.7208046
17	0x3efdac04	0.495453
18	0xbf074751	-0.52843195
19	0x3e59a4ec	0.21254319
20	0xbf38b1e0	-0.72146416
21	0xbf182aba	-0.59440196
22	0xbe957df0	-0.29197645
23	0x3fe516d7	1.7897595
24	0x3eb62265	0.35573116
25	0x4004facd	2.0778077
26	0xbfd5e55d	-1.6710621
27	0xbfd758de	-1.6823995
28	0x3f13bc78	0.57709455
29	0x3eff1ae3	0.498252
30	0x3dc61d90	0.09673607
31	0x3f79f1d9	0.97634655
32	0x3fa24207	1.26764
33	0x3bbee629	0.005825777
34	0x3e3c23f3	0.18373089
35	0xbf80fb37	-1.0076665
36	0xbfb18327	-1.386815
37	0xbfbc6be4	-1.4720426
38	0xbf260a50	-0.64859486
39	0xbf852877	-1.0402974
40	0x3d3442e3	0.0440091
41	0x3d71f6a9	0.059073124
42	0xbef71128	-0.48255277
43	0xbfd0102d	-1.6254936
44	0xbfc621c0	-1.547905
45	0x3e0b6006	0.13610849
46	0xbefa2cb7	-0.4886224
47	0xbb2cf044	-0.0026388327
48	0x3f1d2dd4	0.61398053
49	0xc00fd107	-2.247133
50	0xbe8adc5f	-0.27121255
51	0x3f7e144e	0.9924973
52	0xbf70dd75	-0.94087917
53	0x3ea27230	0.31727743
54	0x3ead8eaf	0.3389792
55	0x3fc77336	1.5582035
56	0x400f678f	2.2406957
57	0xbed5f3b4	-0.41787493
58	0xbf59e63c	-0.85116935
59	0x3d7ffacc	0.062495038
60	0x3fa2b5e3	1.2711757
61	0xbf0dbb32	-0.5536376
62	0x3fa544d2	1.2911627
63	0xc00efebd	-2.234298
64	0x3dbb8fc9	0.09158284
65	0xbd92b567	-0.07163506
66	0xbf317589	-0.6931997
67	0x3fd0fa35	1.6326357
68	0x3fa55dd9	1.2919265
69	0x40504f32	3.2548337
70	0x3fa0966b	1.2545904
71	0x3f078b10	0.5294657
72	0xbf7b3ccd	-0.9813965
73	0x3f1d1eb5	0.6137498
74	0xbffe1d57	-1.9852704
75	0xbe6eba47	-0.23313247
76	0xbf7c5a84	-0.98575616
77	0x3fa70734	1.3049073
78	0xc0614169	-3.5196173
79	0xbfb1503e	-1.3852613
80	0x3ec42f3e	0.38317293
81	0xbfc867ba	-1.5656655
82	0xc0105481	-2.2551577
83	0xbed08c8a	-0.40732223
84	0xbf961de5	-1.1727873
85	0xbf18f14b	-0.59743184
86	0xc026596d	-2.599208
87	0x3f6d2c52	0.9264575
88	0xc035b269	-2.8390143
89	0x3ecc93c3	0.39956483
90	0xbf3cfd39	-0.7382389
91	0xbff0e7fa	-1.8820794
92	0x40366485	2.8498852
93	0xbfa605f7	-1.297057
94	0x3f5e3714	0.8680279
95	0xc0412555	-3.0179036
96	0x40179f3b	2.3690937
97	0xbdb5a63e	-0.08869599
98	0x3ffc9b6b	1.973493
99	0xbfefd838	-1.873786
100	0xc07920b8	-3.892622
101	0x3f4cc2e0	0.79984856
102	0xbfd8da97	-1.6941708
103	0xc005e8e2	-2.092339
104	0x3fdcf987	1.726365
105	0xbfa590f4	-1.2934861
106	0xbfcfa5e2	-1.6222498
107	0x3d3f3f25	0.04669108
108	0x3ff97aee	1.949064
109	0x3eb4bd19	0.3530052
110	0xbea84137	-0.32862255
111	0x3ea26ec9	0.31725147
112	0xbfaccce6	-1.350003
113	0xbf7b25c4	-0.981045
114	0x3e0cdd03	0.13756184
115	0x3ecd775a	0.4013012
116	0xbf686e70	-0.90793514
117	0x3f3f7202	0.7478334
118	0xbfd21b18	-1.6414518
119	0x3dd57111	0.10421956
120	0xbe084e61	-0.13311149
121	0xbf89ee53	-1.0775856
122	0xbeb00905	-0.3438188
123	0x3e52ae05	0.20574196
124	0x3fe1d19a	1.764209
125	0x3fe160b2	1.7607634
126	0xbf258657	-0.6465811
127	0xbfa13af3	-1.2596115
128	0xc0a1d58c	-5.0573177
129	0x3eff2565	0.49833217
130	0x3f89589d	1.0730168
131	0x404e8f7c	3.2275076
132	0x40090322	2.1408162
133	0xbfa0febb	-1.2577738
134	0xbff166b9	-1.8859473
135	0x3fe80be4	1.8128629
136	0xbfa563df	-1.2921103
137	0xbf35e519	-0.710527
138	0xbe285599	-0.16438903
139	0x3f96c191	1.1777822
140	0x3f07cc3c	0.5304601
141	0x3f92b6f1	1.1462079
142	0x3f5a2573	0.8521339
143	0x3cb628ac	0.02223619
144	0x3f21731b	0.6306626
145	0x3e287386	0.16450319
146	0x3f354f00	0.7082367
147	0x3f5f2a67	0.87174076
148	0xbeb7ce00	-0.35899353
149	0x3d3d75d3	0.046254944
150	0x3fa1ad53	1.2631019
151	0x3f3e8ff9	0.74438435
152	0xbb19e49e	-0.0023482214
153	0xbf29afa1	-0.66283613
154	0x3e1c5042	0.15264991
155	0x3f848a6d	1.0354744
156	0x3f881056	1.0629985
157	0x3f21e2ec	0.6323688
158	0x3ea7e84f	0.32794425
159	0xbf807121	-1.0034524
160	0x40363c4e	2.8474307
161	0xc003af23	-2.0575645
162	0x3f8dd0c8	1.107934
163	0x3fdb8c9b	1.7152284
164	0xbfd74677	-1.6818379
165	0xbdc4667c	-0.0958986
166	0xbdb07cf6	-0.086175844
167	0xbf19e530	-0.6011534
168	0x3fb7603e	1.4326246
169	0x3f7c86bc	0.9864309
170	0x3f74cc1f	0.95623964
171	0x3ec3f123	0.3826991
172	0x3fbd164d	1.4772431
173	0xbe818f93	-0.2530485
174	0xbf58ae1b	-0.84640664
175	0x3d82143b	0.06351515
176	0x3d6f5817	0.05843362
177	0x3db35db2	0.08758105
178	0x3d98f272	0.07468118
179	0xc01a276e	-2.4086566
180	0xbe9a5f43	-0.30150804
181	0x3f87e470	1.0616589
182	0x3fac42df	1.3457907
183	0x3fdd79fa	1.7302849
184	0xbe6032d3	-0.21894388
185	0x3ec30d4a	0.38096076
186	0x3e2b644f	0.16737483
187	0xbfb9c935	-1.4514529
188	0xbf96d251	-1.1782933
189	0x3f128c0d	0.5724495
190	0x3eafd131	0.34339288
191	0x40083d0d	2.1287262
192	0xbfad7276	-1.3550556
193	0xbe938f4f	-0.28820273
194	0xbea72278	-0.32643485
195	0x3f23393a	0.63759196
196	0x400536c9	2.0814688
197	0xbe721fb7	-0.23644911
198	0xbfc94078	-1.5722799
199	0x3ffc826e	1.9727304
200	0xbeef8512	-0.46781212
201	0xbe06bc9b	-0.13157885
202	0x3fa2d5c6	1.2721488
203	0x3f893b58	1.0721235
204	0x40107734	2.2572756
205	0x3ee1f991	0.44135717
206	0x3f2d4481	0.67682654
207	0xc0acdad4	-5.4017124
208	0xbfcf02ab	-1.6172689
209	0xbeb30f22	-0.34972483
210	0x3e5dd47d	0.21663089
211	0xbf96a7d8	-1.1769972
212	0x3e37fd1b	0.17967646
213	0x3f5d5578	0.8645854
214	0x3fddca6c	1.7327399
215	0x3f36384a	0.7117964
216	0xbfd5e497	-1.6710385
217	0x3e80253f	0.25028417
218	0x3f848f27	1.0356187
219	0x402b6aee	2.6784015
220	0xc00045d8	-2.004263
221	0xbfd0b454	-1.6305032
222	0x3f398bfa	0.7247921
223	0x402cddd5	2.7010396
224	0x3f79c401	0.97564703
225	0xc00d2cdd	-2.2058632
226	0xbe99701f	-0.29968354
227	0xbfb32336	-1.399512
228	0x3f75bba6	0.95989454
229	0xbe80534a	-0.25063545
230	0xbf40db6e	-0.75334823
231	0xbf770b10	-0.96501255
232	0xbe860b1c	-0.2618035
233	0x40493f5a	3.1444917
234	0x3c29a1b8	0.010353498
235	0xbedf05ed	-0.4355921
236	0xbfc9fddb	-1.5780596
237	0x3f5fce40	0.8742409
238	0xbf2d8fde	-0.6779765
239	0xbedcf7d6	-0.43157834
240	0x3fc62c86	1.5482337
241	0xbe6e9c12	-0.23301724
242	0x3f8fc174	1.1230912
243	0xc05e946e	-3.4778094
244	0x3d236cef	0.03989881
245	0xc044e288	-3.0763264
246	0x3ff83081	1.9389802
247	0xbee7b324	-0.4525386
248	0xc082a57e	-4.0827017
249	0xbe89d772	-0.26922184
250	0xbfbfda38	-1.498847
251	0xc061b96e	-3.5269427
252	0xbed3ec40	-0.41391182
253	0xbf950aad	-1.1643883
254	0xbf627a08	-0.88467455
255	0xbe18e6b9	-0.14931764

fc3.bias f4 [64]
0	0xc0ff0b06	-7.9700956
1	0x40e986eb	7.2977195
2	0xc123aaa5	-10.229161
3	0x3ff06ca4	1.8783154
4	0xbfe65e97	-1.7997617
5	0xbdb173db	-0.08664676
6	0x415d1c3d	13.819394
7	0x40eedc7a	7.4644136
8	0xc11b54a2	-9.708162
9	0x40f318fa	7.596799
10	0xc09431f7	-4.631099
11	0xc0cb07e6	-6.344714
12	0xc0fb4590	-7.8522415
13	0x40445ca9	3.0681555
14	0x3f9a36e8	1.2048006
15	0xc126274a	-10.384592
16	0xc1144d39	-9.268853
17	0x410f29b0	8.947678
18	0x3feb61d9	1.8389236
19	0x4165e65c	14.36874
20	0xc0f63e7f	-7.695129
21	0xc0eca9a3	-7.3957076
22	0xbf90c39e	-1.1309698
23	0xc122c931	-10.174119
24	0x40b4ecaf	5.653892
25	0xc08fab60	-4.48967
26	0x3fa5b385	1.294541
27	0xc051def7	-3.2792337
28	0xbf9c15af	-1.2194117
29	0xc08c0468	-4.375538
30	0xc115d8d4	-9.365437
31	0xc0a44824	-5.133806
32	0x40deb579	6.9596524
33	0x3f94c4c4	1.1622548
34	0xbef1309b	-0.47107396
35	0xc08f5eca	-4.480321
36	0xc12c0cfe	-10.753172
37	0xc11ccb4f	-9.799636
38	0x415d4ad0	13.830765
39	0x4027e852	2.6235547
40	0x4108e481	8.555787
41	0xc11a011f	-9.625274
42	0xc07f48d6	-3.9888206
43	0xc091c344	-4.555086
44	0xbf36485f	-0.7120418
45	0x413d4d30	11.831345
46	0xc12743e9	-10.45408
47	0x3f9fbd32	1.2479613
48	0x3f600d41	0.87520224
49	0xc1071830	-8.443405
50	0xc0c9b2c4	-6.303072
51	0xc03ad35c	-2.9191504
52	0xc0209a14	-2.5094042
53	0xc0050914	-2.078679
54	0x40567239	3.3507216
55	0xc11372c7	-9.215522
56	0x403418c2	2.814011
57	0xc08a06f0	-4.313347
58	0x3ff67d58	1.9257002
59	0xbfb2274d	-1.3918244
60	0x4022a3a2	2.5412374
61	0x3f1b02c6	0.60551107
62	0xc03ad7b4	-2.9194155
63	0xbe927e20	-0.2861185

q_out.weight f4 [1, 64]
0	0xbea4779b	-0.32122502
1	0x3f791141	0.9729195
2	0xbe5e0c64	-0.21684414
3	0x3eba47e8	0.36382985
4	0x3dac648d	0.08417616
5	0xbeaa5907	-0.33271047
6	0x40043c72	2.0661893
7	0x403b8ee7	2.930597
8	0xbe226b6c	-0.1586129
9	0x3e8f9c7d	0.2804908
10	0xbee88b62	-0.4541884
11	0x3e633c0e	0.22190878
12	0xbe94ec87	-0.29086706
13	0x3f2c54fb	0.6731717
14	0x3f211235	0.62918407
15	0xbe84ae69	-0.25914314
16	0xbf112b77	-0.5670695
17	0x3fd42dc4	1.6576467
18	0x3e9ee069	0.31030586
19	0x3efceac1	0.49397853
20	0xbeb0313f	-0.34412572
21	0xbe2ff047	-0.17181502
22	0xbe81eeb8	-0.2537744
23	0xbe812314	-0.25222075
24	0x3f05b67f	0.5223159
25	0x3e5c8ccc	0.21538085
26	0x3cae4998	0.021275327
27	0x3f36c7c5	0.71398574
28	0x3f8a0520	1.0782814
29	0x3f8a4a41	1.080391
30	0xbe4aa00d	-0.19787617
31	0xbe9c378f	-0.30511138
32	0x3ed829be	0.42219347
33	0x3e22f5f5	0.15914138
34	0x3e8377ef	0.2567744
35	0xbec4532c	-0.38344705
36	0xbe531ad5	-0.20615704
37	0xbf65e872	-0.8980781
38	0x40085743	2.130326
39	0x3e2f503d	0.17120452
40	0x4011ea0c	2.27991
41	0xbf815c3d	-1.0106274
42	0x3ee5945b	0.4483975
43	0xbf5d6497	-0.8648161
44	0x3d15da02	0.03658486
45	0x3e910459	0.2832363
46	0xbe82c952	-0.2554422
47	0x3e2ca16e	0.16858456
48	0x403ff680	2.9994202
49	0xbf1ee73a	-0.62071574
50	0xbefe9128	-0.4972012
51	0xbd83c47b	-0.0643396
52	0x3ed67e1b	0.41893086
53	0xbe82a910	-0.2551961
54	0xbfe96bda	-1.8236039
55	0xbf1f0d14	-0.6212933
56	0xbf4c58c9	-0.79822975
57	0x3eb85ac2	0.36006743
58	0x3f8c3553	1.0953773
59	0xbe9c9c8d	-0.3058819
60	0x3f56bef1	0.83885103
61	0x3eed0f47	0.46300718
62	0xbe84a231	-0.25904992
63	0x3c98d6ef	0.018657176
