model/my_spread/agent_0/1_actor_params.pkl (torch_old, 41227 bytes, 8 tensors)

fc1.weight f4 [64, 20]
000000 fc 3f 24 3e 95 d4 ed bd 7f ff 9a bd ef 4c 04 3e
       0.16040033 -0.116128124 -0.07568263 0.12919973
000010 0f 7d 29 3e 91 3e cb 3d ec 2d c7 3d cb 92 89 3d
       0.16551612 0.09924043 0.09725556 0.06717452
000020 e0 b0 44 3e 2e cf 6b bd 5a 28 fb 3d a6 e6 5d 3e
       0.19208097 -0.05757063 0.12263556 0.21670017
000030 a8 3c 0c 3d 83 d1 0d be 86 b3 62 3e 2a 90 f7 3d
       0.034237534 -0.13849454 0.22138795 0.12088044
000040 d5 1c d8 3d 11 ca 40 3e 9d 27 9c 3d 26 37 0a 3e
       0.10552374 0.18827082 0.07624743 0.134976
000050 88 c1 a1 3d 8d fa 8f bd 42 a3 2a be e7 e3 b0 bd
       0.07898241 -0.07030211 -0.1666384 -0.08637219
000060 97 17 cb 3c 7c 9c 03 bd c4 f2 18 be 9a a2 8c bd
       0.024791522 -0.032131657 -0.14936358 -0.06866951
000070 70 1f 65 be f1 02 13 bd 40 3d 09 be 7e 40 c9 3d
       -0.22375274 -0.035891477 -0.13402271 0.09826754
000080 68 1e fd bc 60 73 a1 3c 12 e9 4b 3e d9 84 7a 3e
       -0.030898288 0.019708335 0.19913128 0.2446474
000090 b2 a2 89 3e 8a 98 0c 3e 16 ca 21 be c0 c2 a4 3b
       0.2688194 0.13730064 -0.15799746 0.005028099
0000a0 64 d6 45 be 2a be 78 be 19 b1 16 3e 6f 89 2b 3d
       -0.19320065 -0.24291292 0.14715995 0.041879114
0000b0 0c 68 5b bc 12 c0 f5 3d 61 cf ec b9 87 6d 8b 3d
       -0.013391506 0.11999525 -0.00045167937 0.06808
0000c0 1c 99 12 3e 31 27 2f 3e 8c be 0e bd 77 21 49 3d
       0.14316219 0.17104794 -0.03484969 0.04910418
0000d0 28 19 9a bc 77 e3 40 be b8 3b c8 3d 3a cd 84 bd
       -0.018810824 -0.18836771 0.097770154 -0.06484456
0000e0 97 b5 74 bd 59 35 f4 bd 9c 00 35 3d b4 0b 52 3e
       -0.05974349 -0.11924238 0.044190034 0.20512277
0000f0 cc ff 13 be 92 95 d1 bd 07 cb 60 be 01 6f 5c be
       -0.14453048 -0.102336064 -0.21952449 -0.2152672
000100 a2 1e 16 3e d0 6c 24 bd 10 1e 23 3d 90 e6 24 3e
       0.14660123 -0.040142834 0.03982359 0.16103578
000110 3c 68 30 3e 9c 59 4b be e8 35 13 3d 3c 3d a9 3d
       0.17227262 -0.19858402 0.03594008 0.08263633
000120 36 90 1a 3e b0 fa 72 bc 60 a1 b1 bb f8 df b3 3c
       0.15094075 -0.014830276 -0.0054208487 0.021957383
000130 d4 fb f7 bd c2 94 20 be f0 5b 0f bc 90 42 ae 3c
       -0.12108579 -0.15681747 -0.008749947 0.021271974
000140 d9 6f 0d 3e ad 52 20 3d cf eb 1e 3d aa 0e 63 be
       0.13812198 0.039141346 0.038799103 -0.22173563
000150 8e c7 7c be 43 7d 92 3e 74 f5 98 be 02 2f 62 3b
       -0.24685499 0.28611192 -0.29874766 0.0034512882
000160 ac 27 5f bd 2f fb 86 3e 04 a2 7e 3d e0 f9 78 bd
       -0.054481193 0.26363513 0.06216623 -0.060785174
000170 40 69 3c 3e e8 ba 7c 3d 10 cd ce bd bb da ac be
       0.18399525 0.061701685 -0.10097706 -0.33760628
000180 d4 94 35 bc e1 ee 87 bd 87 9b b8 3d 12 56 19 be
       -0.011082847 -0.066373594 0.090140395 -0.1497424
000190 a5 1a 0a bd ea 95 9f 3d 85 3d 39 3d 93 85 79 be
       -0.033716816 0.07792266 0.045224685 -0.24367361
0001a0 d6 17 28 be 86 d8 a4 3b 40 87 2f be 78 95 57 be
       -0.16415343 0.0050306944 -0.17141438 -0.21053112
0001b0 d6 e4 8a 3c 15 be 4c 3e 85 9f 08 3d c2 b6 26 3e
       0.01695482 0.19994386 0.033355255 0.16280654
0001c0 e0 fd 16 bd c2 ee 12 3e ce 22 0d be 96 64 25 3d
       -0.036863208 0.14348891 -0.13782808 0.04037913
0001d0 8f 48 b3 3d cc cd 4f 3e 17 e0 9b bd 58 31 ec bc
       0.08754074 0.20293349 -0.07611101 -0.028832123
0001e0 cc 25 13 3e 9f 98 ad 3d e7 bc d8 3d 75 5a f9 bc
       0.14369887 0.08476376 0.10582905 -0.030438641
0001f0 c8 b4 af 3d f1 2a 30 bc 18 2b 77 3d 5e 05 b7 bd
       0.08579403 -0.0107524255 0.06034383 -0.089365706
000200 6b 1e 4b bd 96 68 84 3e 32 dd e2 bd 92 62 05 3e
       -0.049589556 0.25861043 -0.11077346 0.13025883
000210 6a 9a 5a 3e fe 17 15 3e 20 0e 5a bc 75 b2 23 3c
       0.21347967 0.14559934 -0.013309032 0.009991278
000220 17 53 a5 3c 3a 63 cd 3c f3 55 5d bc 14 06 d1 3d
       0.020181222 0.025071729 -0.013509261 0.102062374
000230 14 c2 32 bd 62 e8 56 be 28 a9 54 bd 50 7b 1c be
       -0.04364212 -0.20987085 -0.051919132 -0.15281415
000240 9f 7c 44 be 2e dc c4 bd e0 27 4d be b8 ac d5 3d
       -0.19188164 -0.096123084 -0.20034742 0.10433334
000250 64 18 3c 3e f0 26 07 3e d8 b8 5f 3e a0 7e 76 bd
       0.1836868 0.13198447 0.21847856 -0.060179353
000260 4e 79 51 3e 7c 7a 34 3e 92 8f 59 be 07 fc f1 bd
       0.2045643 0.17624849 -0.21246174 -0.118156485
000270 b4 fc a5 3d e5 cd 4b be 48 dd 57 be 8e 17 0e be
       0.0810484 -0.19902761 -0.21080506 -0.13876173
000280 68 e0 2f 3e f1 05 3a be b1 ab 24 be 59 eb 4d be
       0.17175448 -0.18166329 -0.1608112 -0.2010931
000290 8a 3d 28 3e b6 8e f5 3d 49 11 88 3b 97 a2 2b bd
       0.16429725 0.119901106 0.004152451 -0.041903105
0002a0 4e 5c 92 3d 26 34 13 3e 2f e1 26 3e 1c 40 bf bc
       0.07146512 0.14375362 0.16296838 -0.023346
0002b0 7c 05 bb 3d 5c a8 d6 3d 28 d2 d3 3d 58 06 af 3d
       0.091319054 0.10481331 0.103428185 0.08546132
0002c0 ec 08 3d 3e ba c7 10 bd f4 9b 09 be 58 e1 96 bc
       0.18460435 -0.035346724 -0.13438398 -0.018418
0002d0 bb df 87 ba a9 fd 22 be f7 fd 12 bc b0 89 25 3d
       -0.001036636 -0.15917076 -0.008971683 0.040414512
0002e0 48 a3 fd 3d 12 47 97 bd 1e 27 49 3e 0e 88 85 3e
       0.12384659 -0.073866025 0.19643828 0.26080364
0002f0 5e f5 5b 3d 5d c0 7a bd a9 dd f5 bd 96 96 6b 3e
       0.053700797 -0.06121861 -0.12005169 0.23006663
000300 9e 06 52 3e ad 6b 4c be c4 7d 4b 3e 7f 4e 96 3c
       0.20510337 -0.1996295 0.19872195 0.018347977
000310 ce 4d f6 3d f6 da 50 bb 95 d5 3b 3e 22 bb af bd
       0.12026559 -0.0031868792 0.18343194 -0.085806146
000320 0a 0a 3c 3e d2 2a a2 bd 40 99 10 bb e8 b5 93 bd
       0.18363205 -0.079183236 -0.0022064 -0.0721243
000330 98 a9 89 3c 40 68 3f bb 9c d3 04 bd cc bc 52 bd
       0.016804501 -0.0029206425 -0.03242837 -0.051449582
000340 8a 50 21 3e 47 a7 2f be a4 e7 89 3d 16 ef 3e 3e
       0.1575338 -0.17153655 0.06733635 0.18645892
000350 18 e6 53 3d d0 45 23 3c e8 1d a1 3c e0 13 03 bc
       0.051733106 0.009965375 0.01966758 -0.008000344
000360 58 33 50 3d 0c b5 43 be 58 d0 af bd 70 92 f9 3d
       0.050830215 -0.19112033 -0.0858466 0.12186134
000370 db 69 21 3d a9 70 16 be a7 60 bd bd 3d 98 d8 bd
       0.039407592 -0.14691414 -0.092469506 -0.10575912
000380 9a 5e 2f 3e 6c f3 b9 3d 1d 0d 9b bd 1b 40 f6 bc
       0.17125931 0.09079632 -0.075708605 -0.030059865
000390 1c 2b 58 be 53 16 a0 3d bc 86 15 3e 08 ef 3b 3d
       -0.21110195 0.07816758 0.14602178 0.045882255
0003a0 b8 15 b1 3d ea 38 24 3e e8 bd 38 3d 1b fe 28 be
       0.08646721 0.16037336 0.045102984 -0.16503184
0003b0 a7 2a 6b bd d0 de 3b be 73 bf 0c be 60 6f df 3c
       -0.057413723 -0.18346715 -0.13744907 0.027274787
0003c0 c0 05 49 3b fa d2 41 3e 60 ff 6c 3d e8 f1 26 3e
       0.0030673593 0.18928137 0.057860732 0.16303217
0003d0 ba a4 55 be dc 8f 5f bd 40 b0 47 be 66 1e 44 3e
       -0.2086362 -0.054580554 -0.19500828 0.19152221
0003e0 0e 34 43 3e 54 af 52 bd 26 a8 15 3e 9e 83 4e 3e
       0.19062826 -0.051436737 0.14614925 0.20167395
0003f0 b4 d1 15 be c4 07 ad bd 32 16 5d 3e f0 ae 3d 3d
       -0.14630777 -0.08448747 0.21590498 0.04630941

fc1.bias f4 [64]
000000 ae b0 31 3e 64 d5 31 bd c3 f0 0a 3e 14 80 57 3e
       0.17352554 -0.043416396 0.13568406 0.21044952
000010 42 ac 9c 3e 16 9b 79 3e 09 5e 35 3e 80 0c 6a bd
       0.30600172 0.24375567 0.17711653 -0.057140827
000020 e6 51 f3 3d 13 5e 29 3d 60 b5 0a bd 1d ec ce bc
       0.11880855 0.04134948 -0.03386438 -0.025259072
000030 80 f4 07 3e 44 14 37 be ba 40 f9 3c bc e0 5d bd
       0.13276863 -0.17878824 0.030426372 -0.0541694
000040 45 3c 06 be 14 66 5e be 16 ee b0 3d 5d 04 70 be
       -0.13108929 -0.21718627 0.08639161 -0.23439164
000050 8f 7e fd 3c 35 e6 7c be f9 be f1 bb a0 3c 78 3e
       0.030944137 -0.24697192 -0.007377502 0.24241877
000060 43 ef 37 3e 4f 6f 7e 3e df 13 b8 3e c6 7a 6b bd
       0.17962365 0.24847148 0.3595266 -0.057490133
000070 5f 7d 83 3d 69 17 3f 3e f1 02 28 bb eb 88 81 be
       0.06420397 0.18661274 -0.002563652 -0.25299773
000080 b0 2e 55 be cf ca 19 3d cf 55 30 bd 30 3f 3b be
       -0.20818591 0.03754693 -0.043050583 -0.18285823
000090 15 ae 04 be 74 21 0e be 71 c6 84 3d 76 d8 e3 bc
       -0.12957032 -0.13879949 0.06483162 -0.027813178
0000a0 f6 0c 4a 3e bc 24 79 3e 15 ce da 3d 1e a6 60 3e
       0.19731507 0.2433042 0.10683838 0.21938369
0000b0 ec 5d a9 bd 40 84 65 bc 74 26 3e 3e 14 43 04 bd
       -0.08269867 -0.014008582 0.18569356 -0.032290533
0000c0 91 12 02 bd 58 30 0d 3d b3 7e e5 bc d4 92 b8 3d
       -0.031755988 0.034469932 -0.028014516 0.0901238
0000d0 d3 b7 ed bd 62 d3 84 3d ab 24 18 be 12 0b 6e bc
       -0.11607327 0.064856306 -0.14857738 -0.014529007
0000e0 e0 70 4c bd 74 08 4d be cb e4 5b 3e 51 d0 23 bd
       -0.049912333 -0.20022756 0.21473996 -0.039993588
0000f0 85 fe 1d be 63 a5 77 bd bf 18 e1 bc f6 1b 06 be
       -0.15429123 -0.06046046 -0.02747762 -0.13096604

fc2.weight f4 [64, 64]
000000 24 b9 db bc 96 6c 2e 3e 5f d9 8a 3c 80 62 35 bd
       -0.02682168 0.1703361 0.016949354 -0.04428339
000010 34 c2 fb 3d 54 09 d1 bd c2 4b 9d 3d 54 54 08 3d
       0.12292901 -0.10206857 0.07680465 0.033283547
000020 5a 58 ad bd 1f bc 71 3d 1e ee cf bd 2a e4 c6 3d
       -0.08464117 0.059017297 -0.10152839 0.097114876
000030 10 a1 75 bd 9c 12 07 bd 3f a8 fb bd a0 e5 d3 3d
       -0.059968054 -0.03297673 -0.1228795 0.10346532
000040 c3 a3 e8 3c af e6 a1 bd 73 1d bc 3d ea ff eb bd
       0.0283984 -0.079053275 0.091853045 -0.11523421
000050 b0 18 c3 bd 35 8d 69 bd 94 ff da bc b3 f2 cc 3d
       -0.09526193 -0.05701943 -0.026733197 0.10007229
000060 44 01 0d bb 0c 30 fa bc c8 2b e6 3d af ee b6 bd
       -0.0021515647 -0.030540489 0.11238819 -0.08932244
000070 73 06 fa 3d bc cb 6a bd 27 a4 80 3d ed 23 35 3b
       0.12208261 -0.057323202 0.062813096 0.0027639822
000080 4a e9 94 3d 4f ee aa 3d 03 d8 8b bd f8 c4 ff 3d
       0.07271059 0.08346235 -0.0682831 0.12488741
000090 9a b1 ef bd 80 44 ab bd bf 0b a4 bd fb 56 2a 3c
       -0.11703797 -0.08362675 -0.08010053 0.010396714
0000a0 48 87 85 3c 4f 29 8f bd 51 b7 e1 3d 7d 75 9a 3d
       0.016299859 -0.06990301 0.11021293 0.0754194
0000b0 60 b9 93 bd 80 14 3d 3d 22 8a 93 bc 58 44 68 3d
       -0.07213092 0.04616213 -0.018010203 0.056705803
0000c0 3c 8a 65 bd bb fa b2 bd 1e 09 cc 3d ca 62 03 3e
       -0.056040034 -0.08739229 0.099626765 0.12830654
0000d0 aa 40 90 3d 51 16 af bc d5 d2 20 bd e9 8f 27 be
       0.07043584 -0.021372946 -0.039263565 -0.16363491
0000e0 58 2c 60 bd 06 aa 46 bd 2b 9a 20 3d 8c bb 45 3e
       -0.05472979 -0.04850199 0.039209526 0.19309825
0000f0 96 83 35 3d c8 70 47 3d 2b 9d 02 be 48 a7 ea 3d
       0.044314943 0.04869154 -0.12755267 0.114576876
000100 05 b2 f4 3c 86 bb f0 bd 3a 71 ce 3d 10 22 8e 3d
       0.029870043 -0.11754517 0.1008019 0.06940091
000110 20 54 44 3d bc e1 25 bc c4 38 55 bd c8 d8 6e bd
       0.04793179 -0.01012462 -0.05205609 -0.058312207
000120 6e 6e cb 3d 99 ba 20 bd 38 89 99 bc 58 c4 c7 bd
       0.09933172 -0.039240453 -0.018742189 -0.097542465
000130 40 e2 c4 3b 8a 39 c0 3d bc aa 75 bd 0c c0 49 bd
       0.0060084164 0.09385975 -0.059977278 -0.049255416
000140 99 b0 9e bc 41 5b 58 bd b2 22 05 3e 60 73 aa bb
       -0.019371318 -0.0528214 0.13001516 -0.005201742
000150 f6 5e 06 be 6a 3c 24 3d fd ea 9e 3b 05 2d 20 3e
       -0.13122162 0.040096678 0.00484979 0.15642174
000160 7d d2 97 3a 6a e2 3c 3e 6a 9d 40 3d d5 a7 77 bd
       0.0011583116 0.18445745 0.04702512 -0.06046279
000170 7e 63 8d 3d c0 26 b0 3d 49 c0 cc bd 74 29 e6 bc
       0.06903742 0.08601141 -0.09997613 -0.028095938
000180 ce ba 64 bb 45 0d 73 bd 71 02 1d bd c6 ae 97 3d
       -0.0034901383 -0.059338827 -0.038332406 0.07406382
000190 16 0f 8a bd 7b 19 e3 bc b1 54 c4 3d 38 ee 24 3e
       -0.06741159 -0.027722111 0.09586466 0.16106498
0001a0 78 e3 5b bd 47 30 4a be 6d ec 37 39 af 91 60 bd
       -0.053683728 -0.19744979 0.00017540315 -0.054826435
0001b0 e5 3c 89 bd 94 e8 b2 3d e1 fb fb 3d 12 4e 91 3d
       -0.06701068 0.08735767 0.123039015 0.07094969
0001c0 83 6b 84 bd 2b 75 a8 3d ee 3e 0f 3e 80 70 4e 3d
       -0.06465819 0.08225473 0.1398885 0.050400257
0001d0 2c 9d 99 bd 81 60 d1 3d 63 27 97 bd 98 0c de 3d
       -0.07500681 0.10223485 -0.07380559 0.10842246
0001e0 b4 20 b8 bd 91 b9 00 3e b2 88 bf bd eb d1 1b be
       -0.089906126 0.12570788 -0.093522444 -0.15216796
0001f0 f9 43 00 3d 55 35 76 bd c2 0b 46 3c fc 21 b4 3d
       0.031314824 -0.060109455 0.012087764 0.087955445
000200 34 c7 57 bd f0 e9 c5 bc 8a 27 13 be 50 9a f1 bd
       -0.05268021 -0.024159402 -0.14370552 -0.11797011
000210 86 84 92 bc ad 22 d9 3d 32 9d 1b bd 4c 8f f7 bd
       -0.017885458 0.10602317 -0.03799171 -0.120878786
000220 2e 42 da 3d 79 c8 57 3c 28 68 ac bd eb 2e 5f 3c
       0.10657154 0.013170355 -0.08418304 0.013622026
000230 16 f7 8a bd 37 ab 55 3d f3 29 87 3d 80 67 3f 3c
       -0.06785409 0.052165236 0.06599798 0.011682391
000240 f6 e2 f9 3a 62 12 a2 bc d8 a0 ae 3c f1 06 5c 3c
       0.0019064832 -0.019784156 0.02131693 0.013429389
000250 90 17 03 bd 15 d3 80 bd 7f 8c 67 bd 85 36 46 3d
       -0.032004893 -0.06290261 -0.056530472 0.048391838
000260 b6 a6 9c 3d c9 3b e4 3d 5c dd ef bb f5 7e 41 3d
       0.07648985 0.111442156 -0.0073200893 0.047240216
000270 ce 8e 21 3a 07 09 ae bd fb cd 17 3d 1a 8b 29 3d
       0.0006162942 -0.084978156 0.037061673 0.041392423
000280 f9 bd d6 3d 05 33 a1 3d e7 45 1a 3e b8 b4 89 bc
       0.10485453 0.07871059 0.15065728 -0.016809806
000290 c2 79 ff 3d 86 b4 42 bd 24 34 03 3d 4a 27 18 bd
       0.12474395 -0.04753544 0.032032147 -0.037146844
0002a0 d8 f3 a3 3d c4 3b 19 bd 83 8c 82 3d 10 dc c3 bb
       0.08005494 -0.037410513 0.06374457 -0.005977161
0002b0 ee af 9b bc 32 aa fc bd b4 0a e2 3d da cb ba 3d
       -0.019004788 -0.1233715 0.11037198 0.09120913
0002c0 a4 80 b7 bd ca 8a 96 3d 39 92 b7 3d 89 de 05 3e
       -0.08960083 0.07350691 0.08963437 0.13073172
0002d0 85 56 89 bd 0b 27 ba bc 92 b4 99 bd 4c 27 3a 3e
       -0.067059554 -0.022723695 -0.07505144 0.18179053
0002e0 a4 7f 4e bd 8f 95 5c bc 04 59 b5 3c 8b 69 9c bd
       -0.050414696 -0.013463392 0.022137173 -0.07637318
0002f0 e1 66 b2 3a 38 e2 11 3e f6 03 b8 bd 8d 4c c7 bd
       0.0013610983 0.14246452 -0.089851305 -0.09731398
000300 c4 ac e7 bd d3 57 10 bd 35 ab af bd d0 50 c9 bd
       -0.11312249 -0.035240006 -0.08577577 -0.09829867
000310 f7 72 98 bc 23 f8 31 bd cb 62 da 3d 28 8b f0 3c
       -0.018609507 -0.043449532 0.106633745 0.02936323
000320 86 7c 85 3d a1 3e d6 bd a0 25 b9 bc ac 64 b6 3d
       0.065178916 -0.10461164 -0.022600949 0.089059204
000330 cc 04 42 bd 52 f4 a9 3d d8 a1 bc bd 08 16 cd 3c
       -0.047367856 0.082985535 -0.09210557 0.02503492
000340 47 05 69 3c f6 4e 89 bc 16 c9 e0 bd 67 56 b5 3d
       0.01422245 -0.016761284 -0.10975854 0.088543706
000350 0a 78 43 3d 94 c7 1e 3d eb 91 c8 bd 46 1c d2 bd
       0.0477219 0.03876455 -0.09793457 -0.10259299
000360 c9 10 a4 bd 7f 73 03 be 3a f8 97 3d e2 bd ec bc
       -0.08011014 -0.12837027 0.07420392 -0.028899137
000370 ec 22 9d 3d c6 96 ea bd 85 15 a1 3d 89 e7 ad 3d
       0.076726764 -0.11454539 0.07865433 0.084914275
000380 2a e1 a5 bc 30 fe 4d bd 9c 54 ca ba 98 30 a4 3d
       -0.020248968 -0.05029124 -0.0015436593 0.08017081
000390 70 af 79 bd aa 73 8e bd cf a2 12 3d 1b 90 5f 3d
       -0.060958326 -0.06955655 0.035799798 0.05458079
0003a0 60 12 03 3c b2 59 5b 3d 1a 0e e3 3d da 65 98 3d
       0.007999986 0.053552337 0.11086674 0.07441302
0003b0 4a 40 00 be b8 35 43 3d 0c cd 8d 3d 58 cb ac bc
       -0.12524524 0.047658652 0.06923875 -0.021093056
0003c0 98 3d b4 bc 52 e2 35 bd 4a b1 f0 bd 2e 7b 99 3d
       -0.022002026 -0.04440529 -0.11752565 0.07494198
0003d0 fa 7e ee 3d 06 a7 51 3d 50 1b c4 3d 0e 06 f9 3d
       0.116453126 0.051184677 0.09575522 0.12159358
0003e0 88 96 1f bd 18 93 48 bd 8d 63 e4 bd 81 12 1f bd
       -0.038961917 -0.048968405 -0.111518 -0.038836006
0003f0 49 69 1a 3d 4c aa 9e 3d 00 0e a7 bd 35 01 c4 bc
       0.037698064 0.07747325 -0.08156967 -0.023926357

fc2.bias f4 [64]
000000 4d eb 7e 3d 74 af bf 3c 61 94 a4 3d 69 fe 9e bd
       0.06223612 0.023399092 0.080361135 -0.07763369
000010 87 c5 f8 3d 5b 71 fa 3d 50 5a b9 3d 30 60 a1 bd
       0.1214705 0.12228652 0.09050429 -0.078796744
000020 55 04 8e bc 51 5d d2 bd 41 b7 9a bd 56 e0 d6 3d
       -0.01733605 -0.10271705 -0.07554484 0.104920074
000030 42 f2 fb 3b 96 5b e0 3d 6c 20 fd 3d 9e 7f b0 3d
       0.0076887915 0.10954969 0.123596996 0.08618091
000040 50 44 1d 3e 9c d5 9f 3c 0a 70 d5 bc 90 4f 25 bb
       0.1535809 0.019511037 -0.026054401 -0.0025224425
000050 a6 e2 e4 3d 4e ec a6 bd f7 65 8c bd 53 68 e3 bc
       0.11176042 -0.0815054 -0.06855386 -0.027759707
000060 61 27 3d bd df b4 92 bb ba da 7d 3b 22 77 47 3e
       -0.046180133 -0.004477128 0.0038735108 0.1947904
000070 da ed 34 be 31 9c ff bc 82 d5 5f 3e 31 1d 49 bd
       -0.17668858 -0.031202408 0.2185879 -0.049100105
000080 6d 03 ce bc 80 86 8e 3d 02 32 6b 3d d1 d8 d4 bb
       -0.025148118 0.069592476 0.057420738 -0.006495573
000090 25 23 a9 3d a5 09 9a 3c 76 ad 84 3d 10 e5 46 3d
       0.082586564 0.018803427 0.064783975 0.048558295
0000a0 b7 ae ce bd 12 7a 36 3d 01 98 1d bd 1e 6a cb bd
       -0.10091918 0.04455001 -0.03847504 -0.099323496
0000b0 f4 9c be 3d cc 73 63 bd fc 3d 78 bd ae 00 db bd
       0.0930728 -0.055530354 -0.060605988 -0.10693489
0000c0 30 1e 62 3b 07 b0 d0 3d 1a 33 15 3d a0 92 b3 3b
       0.0034502856 0.101898246 0.036425687 0.0054801255
0000d0 62 54 c2 3c d8 e9 90 bc d5 c6 ea 3d c7 f8 61 3e
       0.023721877 -0.01768963 0.114637055 0.22067557
0000e0 be 6a 4b 3b 9b a1 21 bd 35 c0 14 bc 9b 45 d1 bb
       0.0031038965 -0.03946076 -0.009079029 -0.0063864714
0000f0 97 a6 3b 3a 28 d5 67 bd 99 35 7a bd 70 81 07 be
       0.00071583077 -0.056599766 -0.06108627 -0.1323297

fc3.weight f4 [64, 64]
000000 87 6a b7 3d 8c 3b e5 bd f1 ac b9 bd 4e 4f b9 3d
       0.08955865 -0.11192998 -0.09066189 0.09048329
000010 26 cc 68 3d fd 5f ea bd d6 52 d2 3c 50 8d 82 bc
       0.056835316 -0.114440896 0.025674265 -0.015936524
000020 fd 1c 01 3e 25 dd 8e bb b3 8c 4d bd 77 71 a1 bd
       0.12608714 -0.0043598586 -0.05018301 -0.0788297
000030 26 cb e4 3c 97 31 51 bd 70 03 20 3c de ea 74 3d
       0.0279289 -0.051072683 0.009766445 0.0597943
000040 d1 37 31 bd af 02 b2 3d a5 d4 8e 3d 76 53 8e bd
       -0.04326612 0.08691918 0.069741525 -0.06949513
000050 38 fa 5a bd b0 08 5d bc 8b c5 ce 3d 41 55 f9 3d
       -0.053461283 -0.013490841 0.10096272 0.12174464
000060 80 bd 84 bd 57 aa b0 bd ad fe c9 bd 05 53 bf bd
       -0.06481457 -0.0862624 -0.09863029 -0.093420066
000070 f1 01 c3 3d 44 79 80 bc 86 a1 4b bc d0 dc 7d bd
       0.09521855 -0.015682824 -0.012428647 -0.06197816
000080 be 39 53 bd 30 02 a6 3c 00 05 b3 bd 58 41 7d 3d
       -0.05156874 0.020264715 -0.08741188 0.061829895
000090 0e 3b c3 3d 71 cd 47 bd 6a b3 c2 3d 01 c5 b2 bc
       0.09532748 -0.04877991 0.09506877 -0.021822454
0000a0 8b af 7c bd da 48 b3 bd cd 8d 3e bd 84 ab 46 bd
       -0.06169085 -0.0875413 -0.04652195 -0.048503414
0000b0 20 6c f4 3d 80 b5 d0 bb d6 4c 24 3e dc 30 d1 bd
       0.11934686 -0.0063692927 0.16044936 -0.10214397
0000c0 b3 41 2c bd 2d e8 bf bd 45 25 32 ba f0 f9 27 bd
       -0.042054843 -0.09370456 -0.0006795715 -0.041009843
0000d0 88 dc 52 bd 00 e3 a1 3d de cd 20 3d de d1 48 bd
       -0.051479846 0.07904625 0.03925883 -0.04902827
0000e0 78 fc 0f bd f8 5f c0 3b a1 b3 e1 3d 47 b7 d7 3d
       -0.035152882 0.0058708154 0.110205896 0.10533004
0000f0 fd 89 a1 bc 6e bc 3f 3c 7b a1 f9 bb b4 a8 b5 bc
       -0.019719118 0.01170264 -0.007618127 -0.02217517
000100 90 1f 98 3d 11 80 ca 3d d3 29 b6 bc 7a 2c a0 3c
       0.07427895 0.09887708 -0.02223674 0.019552458
000110 d3 16 37 3d f7 2a 97 3c 28 77 b5 3d aa 10 82 3d
       0.0446995 0.018453104 0.08860618 0.06350835
000120 d4 71 e1 bd 3f 77 d7 bb 97 bd ee 3d 7a c3 e1 bd
       -0.11008039 -0.0065754945 0.11657255 -0.11023612
000130 3d 69 88 3c b1 3b 9c bc 3f 8a 12 bd f4 83 d6 bd
       0.016651744 -0.019071432 -0.035776373 -0.10474387
000140 15 11 f8 bd ae d4 b3 3d 1b 10 94 3d 9c 21 4b bd
       -0.12112633 0.087808 0.072296344 -0.0495926
000150 6e 6f 80 3d d0 96 dd 3d d1 02 c2 bd e0 ec 9a 3b
       0.062712535 0.10819781 -0.094731934 0.0047279447
000160 6f 35 cf 3d dd b1 92 bd 40 01 49 3d 43 81 cf 3d
       0.101176135 -0.07162831 0.049073458 0.101320766
000170 f5 68 23 3d ff 38 7e 3d a2 b6 d5 3d b8 32 e1 3d
       0.039895017 0.062066074 0.10435225 0.10996002
000180 82 cb 32 3d 70 40 37 3c 9f 74 e9 bd 67 24 88 3d
       0.04365111 0.011184797 -0.11399197 0.06647568
000190 2b b9 be 3d ab c6 77 bd 53 c8 fb 3c 26 18 39 bd
       0.09312662 -0.0604922 0.03073517 -0.045189045
0001a0 49 c5 02 be 95 70 b4 bd c1 5d 4b 3d 1c f0 da 3d
       -0.12770571 -0.08810536 0.049649958 0.106903285
0001b0 3d b0 02 bd 40 c8 7d bb e2 d1 a0 bd 18 19 f4 3d
       -0.031906355 -0.0038724095 -0.07852532 0.11918849
0001c0 ec 15 34 bd e0 f0 fd 3b 39 92 cd bd 82 ef 99 bd
       -0.04396622 0.007749662 -0.100376554 -0.075163856
0001d0 ce 7a 2e 3d 2e 1f e1 3d 5f 35 3f 3d d6 dc 02 bd
       0.042597584 0.10992275 0.046681758 -0.031948887
0001e0 10 e0 80 3c ec 73 88 3d d9 cd fe 3c 86 e4 a3 bd
       0.015731841 0.06662735 0.031104015 -0.08002572
0001f0 1d cb b1 3d cc 24 2b bd 73 0e 2e 3b 29 18 8e bc
       0.08681319 -0.04178314 0.0026558905 -0.017345505
000200 fb 88 b7 bd 82 56 ee 3d e4 ff 76 3d b5 02 a4 bd
       -0.08961674 0.11637594 0.06030263 -0.08008329
000210 9d 6b 8e 3d c4 f0 1a bd 1a 8f 50 3d b4 d8 b0 bd
       0.06954119 -0.03782727 0.050917722 -0.08635083
000220 bf cc c7 3a 6c 81 23 bc 8c 8f 01 be f3 3e d1 3d
       0.0015243514 -0.009979587 -0.12652415 0.10217085
000230 a1 20 88 bd f3 c2 05 3e 33 83 ac 3d 80 78 77 3d
       -0.066468485 0.13062648 0.08423462 0.060417652
000240 5d b1 08 3d 75 69 7f bd 89 86 2a bd 8d d1 df bd
       0.03337227 -0.06235643 -0.04163221 -0.109286405
000250 b8 b3 35 3d e0 44 0d 3c 87 93 44 bd 16 69 cf 3d
       0.044360846 0.008622378 -0.047992256 0.101274654
000260 24 53 d1 3d b2 59 a7 bd a5 0d b3 3d d4 6b 20 3e
       0.10220936 -0.08171405 0.08742837 0.15666133
000270 1c 73 cc bd 1b 69 3a bd d4 17 23 3e 8c 93 9f bd
       -0.09982893 -0.045510393 0.15927058 -0.07791814
000280 e9 66 8b bd 00 4e ce 3a b0 9e 3b 3e 79 fc 72 3d
       -0.06806738 0.0015739799 0.18322253 0.059322808
000290 e3 5e 06 3d 6a 12 13 3d 79 32 22 3d 94 75 f1 bd
       0.032805335 0.035906233 0.039598916 -0.117900044
0002a0 2e c2 e9 3d d2 b6 1e 3e b9 34 ac 3d 8a 92 ef bd
       0.1141399 0.15499428 0.084084935 -0.11697872
0002b0 ff 35 49 bd 60 ac 9c 3b d5 25 9e bd 80 fc 2e bd
       -0.04912376 0.004781291 -0.0772206 -0.04272127
0002c0 ac 48 47 3c 6f 94 92 bc a4 a8 77 3d 20 75 cf bd
       0.012163322 -0.017893044 0.060463563 -0.10129762
0002d0 b0 bc bb ba 1c a1 de bd e9 5a dd 3d 2e 82 f6 3c
       -0.0014323201 -0.10870573 0.10808355 0.030091371
0002e0 58 25 b0 3c 06 a9 13 3d dd 49 73 3d f0 39 07 be
       0.021502182 0.036049865 0.059396613 -0.13205695
0002f0 09 60 b7 bd 18 cb eb 3d 40 06 9d 3c 26 06 18 bd
       -0.08953864 0.115133464 0.01916802 -0.03711524
000300 c5 ce cf 3d 25 87 99 bd 01 4d a7 bd 99 92 fe 3d
       0.1014686 -0.0749648 -0.08168984 0.12430305
000310 d1 cd 4e bd 8c 0d cd bd 36 d3 81 bd 5a b3 c0 bd
       -0.05048925 -0.100123495 -0.063391134 -0.094092086
000320 43 82 12 be e2 ac 08 3e 83 43 fa 3d 55 96 05 bd
       -0.14307503 0.133472 0.12219908 -0.03261407
000330 53 b0 cb 3d 5d f5 de 3d 62 3e b4 3b 2c 0d 07 3e
       0.099457406 0.10886643 0.0055006007 0.13188618
000340 61 92 87 3d f8 88 41 3d 10 16 3d 3d 26 c2 ec bc
       0.066197164 0.047249764 0.04616362 -0.028901171
000350 ee f2 86 3d e8 ee ac 3c ca 91 82 bd 0a d8 d0 3d
       0.06589304 0.021110013 -0.06375463 0.10197456
000360 e2 16 00 be 4d 46 08 3d 39 d8 0a bd 44 59 a6 3c
       -0.12508729 0.03327017 -0.033897612 0.020306237
000370 ce 4a 10 bd 34 f8 a9 bd 66 4d 14 3d a4 93 69 3d
       -0.03522759 -0.08299294 0.036206625 0.057025567
000380 88 7b ff bc 30 1b ca 3c 99 0c 0a be 14 b7 54 3d
       -0.031186834 0.024671167 -0.13481368 0.05193241
000390 77 87 4c 3d 00 02 89 bd cc 8e 86 bd a0 20 cd bc
       0.049933877 -0.066898346 -0.06570205 -0.02503997
0003a0 9b 91 08 3e 1e dc 22 be 11 2b 8f bd d6 1b c4 3d
       0.13336794 -0.1590428 -0.06990636 0.09575622
0003b0 b8 93 67 3a 78 4c 91 bc 4e a4 a0 3b cc 94 83 bd
       0.00088339625 -0.017736658 0.004902399 -0.06424865
0003c0 0b 72 8d 3d 6f ff f4 bd 77 68 c1 3d 84 02 c4 bd
       0.069065176 -0.119627826 0.09443753 -0.09570792
0003d0 3e 5f b6 3c 60 32 71 3d 1b 16 b1 bd ef 53 2b bd
       0.022262212 0.058885932 -0.086467944 -0.041828092
0003e0 1f f7 36 3d 16 1a 5a 3d 0a fb a4 bc 50 83 2a 3d
       0.044669267 0.053247534 -0.020139236 0.041629136
0003f0 03 e2 2e 3e 95 66 76 3d ab fe 0d bd 43 1b e6 3d
       0.17078404 0.060156424 -0.0346667 0.112356685

fc3.bias f4 [64]
000000 b0 89 e5 3a 65 91 ff 3c 93 67 ef 3d a8 d7 1c 3d
       0.0017512348 0.03119726 0.11689677 0.038291603
000010 f5 1c 69 3a e0 0e f5 3d b4 ae e0 3d 74 23 13 3e
       0.00088925596 0.11965728 0.10970822 0.14368993
000020 8f 22 de 3c 56 a5 9a bd 59 90 39 3d 71 ec 18 3d
       0.027116088 -0.075510666 0.045303676 0.037334863
000030 0b 8a 23 3e 94 92 bd bb 7d 83 39 bc 23 27 eb bc
       0.15970628 -0.0057852957 -0.011322853 -0.028705185
000040 51 bb 96 3d 20 d2 93 3d 6e 9a d4 3d 49 f7 ea bd
       0.073599465 0.072178125 0.103810176 -0.11472947
000050 11 1a b9 3d 04 bc 81 bd fb e3 e5 3d 25 08 4c bc
       0.09038175 -0.06334689 0.112251244 -0.012453114
000060 8c ac 99 bd c8 a8 cb bd ff 6d 41 3e 95 d5 b0 3d
       -0.07503614 -0.09944302 0.18889616 0.086344875
000070 27 6c e7 bd 65 9f a6 bd af c2 c3 bd 8e 38 58 bd
       -0.11299925 -0.08135871 -0.09558617 -0.05278831
000080 50 8e 85 3d 64 59 79 3c 2e 0e f6 3c 32 6b 58 bd
       0.065212846 0.015219066 0.030036058 -0.052836604
000090 23 64 99 3d cb d2 6a 3d 5c 2b 86 3c 14 1a 20 3b
       0.07489803 0.057329934 0.016378097 0.0024429606
0000a0 5a 44 45 bd c0 71 6f 3d 32 8c a4 bd 2e b2 b7 3c
       -0.04816089 0.05845809 -0.08034553 0.02242383
0000b0 2c e1 b5 3c 82 a5 2a 3d df 6e 65 bc de 41 e5 bd
       0.022202097 0.041661747 -0.0140034845 -0.11194204
0000c0 f6 3b dd 3c 1c 61 86 3d 57 3c 30 bd f4 c6 99 bd
       0.02700613 0.06561491 -0.043026295 -0.075086504
0000d0 54 33 fb 3d 37 5d b7 bc 26 82 3a bd 25 d7 77 ba
       0.122656494 -0.022383315 -0.045534275 -0.0009454361
0000e0 fc a0 0b 3d 2f 45 af bd 3e 21 df 3d 72 93 1c 3e
       0.034089074 -0.085581176 0.10895012 0.15290621
0000f0 4d 9f d0 bd 59 a7 0f bc ab 55 26 be 91 51 5b bd
       -0.10186634 -0.008767926 -0.16243617 -0.053544585

action_out.weight f4 [5, 64]
000000 db a2 23 3d 3d a0 c8 bd 98 1f 9f 3d 94 2c c3 bd
       0.039950233 -0.09796188 0.07769698 -0.09529987
000010 29 4e 38 3d 17 55 83 3d ea 39 cb bd e2 84 1f 3c
       0.044996414 0.06412714 -0.099231556 0.009736272
000020 19 4f c4 bc fe c2 d4 bd a0 96 8d 3d c1 02 02 3d
       -0.023963498 -0.10388754 0.06913495 0.031740908
000030 e9 b8 de bd 56 e0 15 3e c4 ac 40 bd 6f eb 17 3e
       -0.108751126 0.14636359 -0.047039762 0.14835905
000040 b0 20 d9 3a 4b c4 10 3e cd b9 0c 3e a5 e2 11 bd
       0.0016565528 0.1413738 0.13742752 -0.035616536
000050 f5 b8 94 bc fc 3a c3 bd 61 e6 fd 3d 8f 39 86 3c
       -0.0181546 -0.09532735 0.12397457 0.016384868
000060 b0 e7 7b bc 2a a7 02 3e d2 ab d7 ba 47 3b 99 3c
       -0.015375063 0.1275908 -0.0016454405 0.018705023
000070 f3 52 f5 bd e6 4b d0 3d a3 ff e6 bd c8 0f 9f 3d
       -0.11978712 0.101707265 -0.112792276 0.07766682
000080 28 f8 30 3c 0b 7a 2b ba 64 12 91 bd 49 17 d9 bc
       0.010801353 -0.0006541318 -0.07083586 -0.026500361
000090 6e 29 15 be 85 50 f1 bd e6 e6 c4 3c ef e7 e8 bd
       -0.14566585 -0.11782936 0.024035882 -0.11372363
0000a0 72 91 67 bd e2 31 8c bd c0 48 fc bc 4f ff 06 3d
       -0.05653519 -0.06845452 -0.030796409 0.032958325
0000b0 eb 05 c2 3d 94 bc 63 3d a6 6a b9 3d 54 81 35 3d
       0.09473785 0.055599764 0.09053545 0.04431279
0000c0 93 6a d3 3d 50 6e 3a bd 4f 30 e6 bc 92 c1 86 3c
       0.10323062 -0.04551536 -0.028099207 0.016449723
0000d0 34 70 25 3d 3c 4e 72 3d 3d e7 e1 ba 72 3d 04 3d
       0.04039021 0.05915664 -0.0017235052 0.03228516
0000e0 98 70 13 bd 00 7a b5 3d 86 37 ee bd 88 97 9a bb
       -0.03599605 0.0886116 -0.11631684 -0.004717771
0000f0 88 86 14 bd be b4 b5 bd b0 da 17 3d 26 16 6f bd
       -0.03626111 -0.088723645 0.03707379 -0.05837073
000100 2b 23 b6 3b cd ed 2a bd 3e 29 50 be 25 d2 23 3e
       0.0055583916 -0.04173069 -0.20328233 0.15998133
000110 4a a6 5b bd b7 7d ca ba 5c 39 bd 3d 1f 65 45 bd
       -0.053625382 -0.0015448843 0.09239456 -0.04819214
000120 e2 05 9c 3d 05 ad f2 bd 37 93 23 be 85 f5 dd bd
       0.076183096 -0.11849407 -0.15974127 -0.10837845
000130 18 27 0b be 46 92 1e 3d 1f 7a c7 bd d5 2f f8 3d
       -0.13589132 0.038713716 -0.097400896 0.12118498
000140 11 a2 c1 3c df b5 12 3e fa 0b 01 be 8b 62 c4 bd
       0.02363685 0.14327191 -0.12602225 -0.09589108
000150 14 16 c8 3d 63 af c4 3d c2 46 b6 3b 71 51 bb bc
       0.09769836 0.09603765 0.005562634 -0.022865983
000160 2c 54 8a bd 31 90 53 bc d4 e0 0c be cc b2 b0 3d
       -0.06754336 -0.012912796 -0.1375764 0.08627853
000170 58 1f a5 3d 19 00 97 3d 6f 19 f3 bd d7 29 af 3c
       0.08062619 0.073730655 -0.118700854 0.021382255
000180 64 b0 2b be fa 6e da bd 80 f5 cb 3b 0a ea 3f 3d
       -0.16766506 -0.10665698 0.0062243342 0.046854056
000190 36 64 21 be 34 91 c2 3d 7e dd 25 3d 5d 07 e3 bd
       -0.15760884 0.095003515 0.040494435 -0.11085389
0001a0 42 14 3f 3c 11 d8 e2 3d 4e bd ea bd 70 e2 16 3d
       0.011662545 0.11076368 -0.11461888 0.03683704
0001b0 ed b7 40 bd 7e 2f eb 3c 32 3c 8c bd e0 e8 95 3b
       -0.047050405 0.02870917 -0.06847419 0.00457488
0001c0 8e d1 2c 3e b5 ec d4 bd 35 35 eb 3d 49 89 cc bd
       0.16876814 -0.10396711 0.11484758 -0.099871226
0001d0 ea 42 ff bd cf 59 9c b9 29 cd e6 3d 09 b3 8f 3d
       -0.12463935 -0.0002982155 0.112696 0.0701657
0001e0 25 2d 52 bd 7e 01 ad 3d 9a cb 73 3d f5 ef e8 bc
       -0.051312584 0.0844755 0.05952034 -0.028434733
0001f0 1b 5f c3 3d 93 ed 94 bd 8c dd 1f 3e a7 56 e2 bc
       0.09539624 -0.07271876 0.15611857 -0.02762921
000200 50 4c 24 3c 3f 83 0a 3d 84 1a 02 be 9f 86 ad 3d
       0.01002796 0.033816572 -0.12705427 0.084729426
000210 41 f9 1a be ae 2f fa bd 59 98 33 bd 6a a9 9d 3d
       -0.15134145 -0.122161254 -0.043846462 0.07698329
000220 bb 54 f7 3d bd 2c bf bc 55 dc 39 be a3 7b bc bd
       0.12076708 -0.023336763 -0.18150456 -0.09203269
000230 30 93 ec bd f6 66 c2 bd 41 26 1f 3d d6 4a 47 3e
       -0.11551511 -0.094922945 0.03885484 0.19462141
000240 ff 10 89 bd 27 69 cf bd 31 c5 63 bd fd 9a d8 bc
       -0.06692695 -0.10127478 -0.05560798 -0.026441092
000250 6b e9 0f 3d cc 26 b1 3c ef b2 a9 3d 16 24 1a 3d
       0.035134714 0.021624945 0.08286082 0.03763207
000260 6e 8f f5 bd a3 64 a9 3d 87 d4 29 be 3d 05 93 bc
       -0.11990248 0.08271148 -0.16584979 -0.017946834
000270 d7 1f b9 3d 45 4c 27 3d ee d2 cb bd 89 6a e5 3d
       0.09039276 0.04084422 -0.09952341 0.112019606
000280 be 7d 21 be dd 95 12 3d f9 4c ef 3d 25 6d 3e bd
       -0.15770623 0.035787452 0.11684603 -0.046490807
000290 76 ca b0 bd a6 52 85 bc ab 64 22 3e 7d 81 d8 bd
       -0.08632366 -0.016274761 0.15858714 -0.10571573
0002a0 44 43 81 bc 05 66 06 bb 38 d4 0f 3d aa ec 00 bd
       -0.015779145 -0.0020507586 0.035114497 -0.0314757
0002b0 68 a1 95 3d b1 c9 c9 bd c9 94 0e 3e e2 ee cb 3d
       0.073061764 -0.09852923 0.13923945 0.09957673
0002c0 03 6f 33 3e 91 bd c5 bd 3e 38 9e 3d 5b 92 e2 bd
       0.17522816 -0.096552975 0.07725571 -0.11063071
0002d0 44 8d 4c bd 2c 5e 16 bd 9a 40 9c bd 06 1d 43 3d
       -0.04993941 -0.036710903 -0.07629509 0.0476351
0002e0 59 1f 22 3e ae 7f ae bb e6 90 10 bd e2 43 f5 bd
       0.1583227 -0.005325279 -0.035294436 -0.11975838
0002f0 9a 02 07 3e b8 67 ab bd 4d 61 ad 3d 8a 50 90 bd
       0.13184586 -0.08369392 0.08465824 -0.070466116
000300 2e 93 08 be fb dd 22 3d d4 49 c5 bc fb 88 e3 3d
       -0.13337395 0.03976248 -0.024083056 0.11110111
000310 af b4 47 bd 94 c1 e4 3d fd ca d1 3d f8 ab 56 be
       -0.048756298 0.111697346 0.10243795 -0.20964038
000320 5e cf 40 3e 56 57 82 3d e3 e6 d6 bd 6e d2 94 bd
       0.18829104 0.06364314 -0.10493257 -0.07266699
000330 50 8a 82 bc 25 f8 64 3d 6a d0 13 3c 84 6b 04 3e
       -0.015935093 0.05590071 0.009021858 0.12931639
000340 c1 ea b2 3d 39 49 eb bd 4e e3 72 3d d0 0c a4 3d
       0.08736182 -0.114885755 0.059298806 0.08010256
000350 1c 3b 33 3c 92 2b b5 bc 51 34 bb 3c 91 8b fa 3d
       0.010939386 -0.022115503 0.022852095 0.122336514
000360 9e 92 ff 3d ea 0c 17 bc 09 c8 4d 3d 7b 29 25 3d
       0.12479137 -0.009219388 0.050239597 0.040322762
000370 17 47 b6 3d ff 64 8a 3c 3a 76 14 be 19 44 c1 bd
       0.08900278 0.016893862 -0.14498225 -0.09436817
000380 d9 c8 1e 3d 0d cc d9 3a c4 66 9c 3c 8c b4 52 bd
       0.038765762 0.0016616598 0.019091971 -0.051441714
000390 e5 8b 88 3a 00 a1 65 3d d1 23 e5 bd 2a 80 a2 bc
       0.0010417668 0.056061745 -0.11188472 -0.019836504
0003a0 6c 72 c3 3c 7c 00 0a bd a4 d1 70 bd a6 38 ac bc
       0.023858272 -0.03369187 -0.05879368 -0.021023106
0003b0 10 f4 6c bd 9e 6b 0b be 66 c2 1f bd a6 8e b9 bd
       -0.057849944 -0.13615271 -0.039003752 -0.09060411
0003c0 4b 39 b2 3c 4c d0 97 3d fd 6e 05 bd 1a a0 80 bd
       0.021755835 0.07412776 -0.03257655 -0.06280537
0003d0 e0 39 69 3d a0 5f 85 bc 8e 0c 05 bd 51 f6 0e 3d
       0.05693996 -0.01628095 -0.032482676 0.034902874
0003e0 37 26 ef 3d 85 5c 18 bd 25 b2 ab 3d 4c b5 e2 bd
       0.11677211 -0.03719761 0.08383588 -0.11069736
0003f0 e7 74 82 bd bb 26 08 3e 9a 7c 8b 3d 08 82 88 3d
       -0.063699536 0.13296025 0.06810875 0.066654265

action_out.bias f4 [5]
000000 bc c1 87 bd a6 07 62 3c 76 6c a0 3d 7e 08 f4 bc
       -0.06628749 0.013795769 0.07833187 -0.029789206
000010 97 f3 f4 bc
       -0.029901309
