model/my_spread/agent_0/1_critic_params.pkl (torch_old, 47851 bytes, 7 tensors)

fc1.weight f4 [64, 50]
0.07817757 0.08004463 -0.06380428 0.1322986 -0.00078709424 -0.027666405 -0.021347985 0.09222229
-0.011490077 0.11211462 0.0504335 0.01952359 -0.030550681 -0.046023622 -0.11432841 -0.033977203
-0.10485393 0.028983936 -0.12467989 -0.03935484 0.12059848 -0.085619435 0.024331346 0.06855671
-0.11121885 -0.03910958 0.10980056 -0.00832814 0.08572632 0.06614545 -0.12233761 0.030430615
0.03603132 0.13680391 -0.095598415 -0.1141172 -0.08738446 -0.01171428 -0.0882833 0.06767665
-0.115327284 0.13621177 0.061221078 -0.13469416 -0.041657664 -0.10431738 0.10308844 -0.13094279
0.015033007 -0.060255006 0.0009591407 -0.04078948 -0.08250417 0.0076767895 -0.0514253 -0.032062326
0.12758523 -0.019372448 -0.06475857 0.09812888 -0.0562646 -0.033848073 -0.074199885 0.08594467
0.0019096434 -0.15148148 -0.08465169 -0.16464363 0.053092867 -0.07623625 -0.050057027 -0.1387099
-0.032723937 0.11667464 0.06828053 -0.107122846 -0.12889317 -0.015569608 -0.095193535 0.12785074
0.0830572 0.035790708 0.04260288 -0.07214076 0.0666517 0.030418998 -0.068844974 -0.07114306
-0.15572765 -0.09885366 -0.025930783 0.094930924 0.09812519 -0.07791017 -0.005907944 -0.1222043
-0.06710971 -0.1617618 0.03356 0.0028465774 -0.1520057 -0.043509487 0.09346925 -0.1244627
0.045608547 -0.15181935 0.13824531 -0.09247444 -0.09849186 -0.024587035 0.10534768 0.19875644
0.084344834 -0.031169012 0.13881896 -0.058103595 0.020424029 0.1032349 0.1461198 -0.010141388
0.06495567 -0.020702595 0.04832908 0.10963429 0.07008177 0.074153855 0.21659964 0.11503475
0.06835687 0.16904682 0.17593877 0.07060165 0.027127445 -0.13381283 0.10085718 0.14675985
-0.3674097 0.027786933 0.046693847 -0.033346854 -0.097189344 0.20695522 -0.2825285 -0.13014285
0.008749932 -0.04217714 -0.027972909 -0.18871544 0.08733354 -0.1759375 0.0006060375 0.046439346
-0.014892548 -0.07481055 -0.015333972 -0.13276424 0.008255075 -0.04335624 0.011398967 -0.0072740116
-0.096833125 0.052083265 0.14100178 -0.033198856 -0.04487861 0.022180567 -0.002433382 -0.103897184
-0.12319606 0.023012295 0.05926452 -0.04263547 0.03442306 -0.1231861 0.08126822 0.084749535
0.02853277 -0.0098896995 0.037767928 0.01742688 -0.15391757 -0.023267228 -0.0025143623 0.13053475
0.10444027 0.06791883 0.037296064 -0.036015593 -0.03294961 0.12734811 0.032582738 -0.061363235
0.058590725 -0.07410388 0.11770305 -0.09198933 -0.04844906 -0.097564965 -0.039554134 0.023142306
-0.11204398 0.083441615 0.20880632 -0.21489197 0.048635837 -0.10721766 0.21559292 -0.061094295
0.09832494 -0.16327456 0.18849467 0.09019542 -0.08291749 -0.012113422 -0.096294075 -0.064449474
-0.06748089 0.09184031 0.10529303 0.1378753 -0.03092579 -0.09864631 0.11521629 0.026420692
-0.07143213 0.18108025 0.16711417 -0.03867983 0.105312675 0.124487616 0.20867775 0.26308677
-0.03672897 0.08724347 -0.081919014 -0.049324192 -0.64118165 -0.08691686 0.08387117 0.019111842
-0.30719212 -0.19042216 -0.20910661 -0.19044459 0.1687874 0.21289499 0.42993495 -0.23683134
0.020368623 -0.06303627 -0.045632645 -0.012156732 0.10480233 0.30499202 -0.026844772 0.18246609
00000000: 901b a03d 70ee a33d d1ab 82bd 4979 073e
00000010: 0055 4eba a8a4 e2bc f8e1 aebc 0adf bc3d
00000020: e040 3cbc 5a9c e53d 5c93 4e3d f0ef 9f3c
00000030: 6c45 fabc 4483 3cbd 0325 eabd ae2b 0bbd
00000040: a8bd d6bd b86f ed3c 2c58 ffbd 8a32 21bd
00000050: 56fc f63d 3e59 afbd 8852 c73c 7667 8c3d
00000060: b5c6 e3bd 5e31 20bd 1edf e03d c072 08bc
00000070: 4891 af3d 4477 873d 248c fabd a049 f93c
00000080: 9495 133d 5316 0c3e 1ac9 c3bd 47b6 e9bd
00000090: a0f6 b2bd 40ed 3fbc e0cd b4bd 0e9a 8a3d
000000a0: b630 ecbd 197b 0b3e f4c2 7a3d 44ed 09be
000000b0: 3aa1 2abd 5aa4 d5bd 0820 d33d de15 06be
000000c0: 004d 763c f4cd 76bd d86e 7b3a df12 27bd
000000d0: f2f7 a8bd 948d fb3b 56a3 52bd c953 03bd
000000e0: b4a5 023e f8b2 9ebc 24a0 84bd cbf7 c83d
000000f0: b675 66bd 47a4 0abd 1cf6 97bd c203 b03d
00000100: 004d fa3a f61d 1bbe de5d adbd 5798 28be
00000110: e877 593d c021 9cbd 9908 4dbd f809 0ebe
00000120: 8909 06bd 1df3 ee3d aad6 8b3d 3963 dbbd
00000130: 92fc 03be ab17 7fbc d4f4 c2bd 4eeb 023e
00000140: e519 aa3d 4799 123d 5c80 2e3d 89be 93bd
00000150: b080 883d 4331 f93c 98fe 8cbd 74b3 91bd
00000160: 1277 1fbe ca73 cabd cb6c d4bc 256b c23d
00000170: dcf5 c83d 5e8f 9fbd 6d97 c1bb 3f46 fabd
00000180: d170 89bd e3a4 25be 3676 093d a58d 3a3b
00000190: 62a7 1bbe 0137 32bd ce6c bf3d 4de6 febd
000001a0: 07d0 3a3d 8876 1bbe 2e90 0d3e 3d63 bdbd
000001b0: 1ab6 c9bd c06a c9bc 86c0 d73d cf86 4b3e
000001c0: fcbc ac3d 2856 ffbc 8f26 0e3e 09fe 6dbd
000001d0: 4b50 a73c d26c d33d 6ea0 153e 1028 26bc
000001e0: 7a07 853d 7d98 a9bc b7f4 453d f187 e03d
000001f0: 0887 8f3d fadd 973d 4ccc 5d3e 5797 eb3d
00000200: b0fe 8b3d 9c1a 2d3e 4b29 343e 9997 903d
00000210: 603a de3c 3b06 09be 368e ce3d 3748 163e
00000220: 201d bcbe 6ca1 e33c 0c42 3f3d b696 08bd
00000230: 350b c7bd 12ec 533e 93a7 90be 2b44 05be
00000240: e05b 0f3c f0c1 2cbd 7127 e5bc 9f3e 41be
00000250: eddb b23d f628 34be 7dde 1e3a 2f37 3e3d
00000260: e0ff 73bc 4636 99bd 573b 7bbc 59f3 07be
00000270: 4b40 073c 5096 31bd bcc2 3a3c d55a eebb
00000280: 7250 c6bd 4355 553d c562 103e 86fb 07bd
00000290: a2d2 37bd 05b4 b53c 6079 1fbb 0cc8 d4bd
000002a0: 374e fcbd 4884 bc3c 5abf 723d 88a2 2ebd
000002b0: 32ff 0c3d fe48 fcbd f46f a63d 2a91 ad3d
000002c0: 8ebd e93c 6808 22bc 8bb2 1a3d d1c2 8e3c
000002d0: 919c 1dbe ea9a bebc 00c8 24bb e7aa 053e
000002e0: c8e4 d53d 0719 8b3d c2c3 183d 1685 13bd
000002f0: 2cf6 06bd 8b67 023e 7a75 053d 0458 7bbd
00000300: d4fc 6f3d c6c3 97bd 4c0e f13d e764 bcbd
00000310: 8672 46bd 24d0 c7bd 8403 22bd ef94 bd3c
00000320: 5077 e5bd 70e3 aa3d 53d1 553e a40c 5cbe
00000330: 5f36 473d ef94 dbbd 64c4 5c3e 033e 7abd
00000340: 965e c93d 7231 27be bf04 413e 60b8 b83d
00000350: a5d0 a9bd 6077 46bc d435 c5bd 16fe 83bd
00000360: 6c33 8abd c616 bc3d dfa3 d73d 2f2f 0d3e
00000370: 1558 fdbc 1407 cabd 85f6 eb3d 3570 d83c
00000380: 024b 92bd 1a6d 393e fa1f 2b3e be6e 1ebd
00000390: 2cae d73d 5df3 fe3d 9faf 553e 4fb3 863e
000003a0: 1e71 16bd b4ac b23d 28c5 a7bd 2a08 4abd
000003b0: 7b24 24bf 7701 b2bd a6c4 ab3d 7090 9c3c
000003c0: 4948 9dbe 07fe 42be 0b20 56be e803 43be
000003d0: 9bd6 2c3e 2501 5a3e 6f20 dc3e ea83 72be
000003e0: 19dc a63c 2919 81bd 4ce9 3abd 082d 47bc
000003f0: 9ba2 d63d ea27 9c3e 91e9 dbbc 64d8 3a3e

fc1.bias f4 [64]
-0.03010799 0.062060725 0.04294423 0.022736443 -0.079202645 -0.08299968 -0.05694197 0.091139436
-0.2134069 -0.15043432 -0.17858778 -0.34916177 -0.18910538 -0.20591961 0.058159105 -0.106487
-0.0074769272 0.09545422 0.12293379 0.1026626 -0.089395545 -0.18109272 0.2544075 -0.19856267
-0.27544042 0.15025157 0.19442385 0.0928891 -0.08360786 -0.114631765 -0.013673058 0.25351062
0.024267502 -0.19084087 0.11581799 0.006189593 -0.09891004 -0.02156225 -0.0036077946 0.024905592
0.13305275 0.16598222 -0.0032085604 -0.098121695 0.08221944 -0.05239756 -0.17446615 -0.112123325
-0.031219907 -0.08091261 0.05510981 0.03509607 0.12860805 0.028510155 -0.18901974 -0.096080944
-0.0524951 -0.06796518 -0.040864125 0.009733424 -0.04321703 0.05793183 -0.13362962 0.0059843916
00000000: 08a5 f6bc 6333 7e3d 4ae6 2f3d c741 ba3c
00000010: ff34 a2bd bcfb a9bd fc3b 69bd 50a7 ba3d
00000020: 5787 5abe 740b 1abe b7df 36be 55c5 b2be
00000030: d7a4 41be 97dc 52be 3e38 6e3d db15 dabd
00000040: 0301 f5bb 817d c33d b6c4 fb3d c540 d23d
00000050: 0315 b7bd 5f70 39be b341 823e 0354 4bbe
00000060: 8706 8dbe 8cdb 193e 0c17 473e a43c be3d
00000070: 993a abbd 0fc4 eabd f604 60bc 25cc 813e
00000080: a4cc c63c ca6b 43be fb31 ed3d 12d2 ca3b
00000090: 5991 cabd 51a3 b0bc c070 6cbb d006 cc3c
000000a0: fb3e 083e 3ef7 293e b646 52bb 07f4 c8bd
000000b0: aa62 a83d d39e 56bd 41a7 32be eaa0 e5bd
000000c0: e4c0 ffbc 83b5 a5bd d3ba 613d e6c0 0f3d
000000d0: d4b1 033e 218e e93c 648e 41be 16c6 c4bd
000000e0: 1a05 57bd 5431 8bbd 2461 27bd f078 1f3c
000000f0: 5704 31bd ed49 6d3d 34d6 08be b718 c43b

fc2.weight f4 [64, 64]
0.09419303 -0.08367342 0.07626876 -0.08459522 -0.13820948 -0.14596386 -0.06864529 0.07494818
-0.02901331 -0.024341892 -0.0835219 -0.06855331 0.112347186 0.09434414 -0.021014616 -0.08619748
-0.14723672 0.048508614 0.11299521 -0.11163248 -0.08567613 -0.09223289 0.0408441 0.08709879
-0.07915078 -0.08688654 0.027699465 0.07132023 0.033146188 -0.09301956 -0.015508041 -0.05861122
-0.016717032 0.063865855 -0.108273625 0.07823621 -0.071024045 -0.030801207 -0.0623945 -0.032678083
0.08177619 0.0642721 -0.1033392 0.0072612693 -0.002299741 -0.045309827 0.061326385 0.035986975
-0.0036277568 -0.016678855 -0.11573379 -0.14073506 0.030247211 -0.09333341 0.0050714314 0.10751179
-0.067491755 -0.002515542 -0.086808994 0.036951557 -0.078389406 0.038736075 0.021968726 -0.08842401
0.071347594 0.09472436 -0.054441877 -0.032588884 0.07321176 0.33798456 0.035373986 0.14187518
0.036214784 0.056819886 0.15287748 0.11815685 0.36919516 0.14579532 0.016533492 -0.03942098
0.0876832 0.034010187 0.07149196 0.1330337 0.057792757 0.1010812 -0.021162 0.15237275
0.25611788 0.18675575 -0.07283704 0.14902987 0.016806683 0.2807247 0.11709088 0.06165865
-0.12268878 0.1530695 0.04622393 -0.0033983407 0.17143041 -0.043352302 -0.012144983 -0.023802832
-0.049895197 -0.03497252 -0.03964457 0.14306436 0.18864173 0.23740222 0.07878253 0.0713082
-0.07293852 0.08598192 0.012079235 0.21502997 0.23563105 0.045291875 0.34718004 0.009240434
0.10444598 0.21523838 -0.039081417 0.08575333 -0.05880275 0.023672516 0.09780716 0.06541724
-0.12231538 -0.005143374 0.089540996 -0.037288427 -0.13195013 -0.017386744 -0.09369636 -0.0053557525
0.07619432 0.047598425 -0.09795946 -0.0013668465 0.112418294 -0.116048746 -0.023252249 -0.13683395
-0.03698575 -0.028340489 -0.0018333151 -0.11138161 0.068783574 0.09126541 0.08379144 0.044772454
-0.0097896345 -0.01375898 0.095679194 0.13808516 -0.005651772 -0.09188071 -0.085107826 -0.07524495
-0.096400544 0.012661027 -0.110597074 0.025723666 0.04735435 -0.037063226 -0.10547198 0.009931445
0.06938827 -0.07244769 0.040174782 0.012782885 -0.062309995 -0.07073687 0.03805897 0.09797375
0.08023621 -0.0135201365 -0.10745992 -0.020134714 -0.032655824 -0.05101452 -0.06639842 0.043646693
-0.058609664 0.10110072 -0.018727005 0.04380264 0.02694654 0.104309484 -0.00849026 -0.092142135
0.1153152 0.036322057 -0.016804889 -0.068754226 -0.10732849 -0.08874063 -0.061997786 -0.059229285
-0.037162423 0.089016765 -0.06458783 0.025667638 0.042032257 0.115351096 -0.06534566 -0.11645317
-0.031656682 0.024267852 0.018348172 -0.0725531 0.04780294 -0.0395218 0.03295143 0.021525785
0.033790976 -0.05299987 -0.124992535 -0.042260244 0.09072527 0.093909144 -0.07919495 -0.07307567
0.026786372 -0.10761374 -0.050788015 0.07310355 0.046186 -0.12235011 0.06621824 0.05225581
0.036271214 -0.11885528 0.032214567 0.09940958 -0.101401076 0.046367556 -0.010132447 -0.08542332
0.057161957 0.08363217 0.010313153 -0.083381996 -0.11016153 0.06689325 0.028232798 -0.015953407
-0.017454863 0.0043965876 0.11825538 0.025461406 -0.076364025 0.0030614287 0.110321626 -0.033728585
00000000: 46e8 c03d f85c abbd cc32 9c3d 4240 adbd
00000010: c986 0dbe 8d77 15be e795 8cbd 6e7e 993d
00000020: 52ad edbc a668 c7bc 880d abbd ae65 8cbd
00000030: 4816 e63d 8037 c13d d826 acbc 4e88 b0bd
00000040: 39c5 16be f8b0 463d 086a e73d 929f e4bd
00000050: f876 afbd 99e4 bcbd 254c 273d da60 b23d
00000060: ce19 a2bd 92f1 b1bd fde9 e23c 5710 923d
00000070: 4cc4 073d 0a81 bebd 7015 7ebc 5212 70bd
00000080: 28f2 88bc 1acc 823d 90be ddbd 4e3a a03d
00000090: 0e75 91bd d052 fcbc 6091 7fbd 74d9 05bd
000000a0: 467a a73d 17a1 833d 81a3 d3bd f1ef ed3b
000000b0: 40b7 16bb cc96 39bd 6031 7b3d 1467 133d
000000c0: a9bf 6dbb 18a2 88bc d605 edbd da1c 10be
000000d0: 00c9 f73c 9625 bfbd 402e a63b 242f dc3d
000000e0: 1e39 8abd cbdb 24bb eac8 b1bd 845a 173d
000000f0: a08a a0bd b8a9 1e3d c2f7 b33c a617 b5bd
00000100: b01e 923d d8fe c13d 72fe 5ebd ec7b 05bd
00000110: 0cf0 953d 500c ad3e 50e4 103d ba47 113e
00000120: f455 143d f8bb 683d ea8b 1c3e 38fc f13d
00000130: 2607 bd3e 5e4b 153e 3f71 873c e577 21bd
00000140: 4093 b33d 444e 0b3d 606a 923d fc39 083e
00000150: 19b8 6c3d a903 cf3d ee5b adbc 9a07 1c3e
00000160: e221 833e e63c 3f3e 962b 95bd 499b 183e
00000170: 2bae 893c 26bb 8f3e 58cd ef3d c88d 7c3d
00000180: 4144 fbbd 40be 1c3e 4e55 3d3d b2b6 5ebb
00000190: 748b 2f3e 2f92 31bd c0fb 46bc 28fe c2bc
000001a0: e85e 4cbd 583f 0fbd 5862 22bd 777f 123e
000001b0: 4c2b 413e 9119 733e bc58 a13d 090a 923d
000001c0: ca60 95bd 4a17 b03d fce7 453c d130 5c3e
000001d0: 4449 713e f983 393d 95c1 b13e 3065 173c
000001e0: c6e7 d53d 7367 5c3e d613 20bd 719f af3d
000001f0: 27db 70bd ddec c13c 1f4f c83d 79f9 853d
00000200: 7c80 fabd c089 a8bb 4561 b73d c0bb 18bd
00000210: ef1d 07be a56e 8ebc e1e3 bfbd 4f7f afbb
00000220: c50b 9c3d 91f6 423d f89e c8bd c227 b3ba
00000230: 903b e63d f7aa edbd 807b bebc 331e 0cbe
00000240: 5f7e 17bd 502a e8bc d94b f0ba 0b1c e4bd
00000250: 67de 8c3d 5ce9 ba3d d99a ab3d 5263 373d
00000260: b464 20bc 586d 61bc 74f3 c33d 3266 0d3e
00000270: 8032 b9bb f42b bcbd 034d aebd 061a 9abd
00000280: a66d c5bd 3270 4f3c b880 e2bd 70ba d23c
00000290: a3f6 413d 9ccf 17bd b201 d8bd 80b7 223c
000002a0: 701b 8e3d 745f 94bd 508e 243d 4e6f 513c
000002b0: c438 7fbd 7ede 90bd b9e3 1b3d 76a6 c83d
000002c0: e252 a43d 9083 5dbc f213 dcbd 8ef1 a4bc
000002d0: 1dc2 05bd 9af4 50bd e5fb 87bd e0c6 323d
000002e0: b010 70bd e50d cf3d 6069 99bc 666a 333d
000002f0: febe dc3c 36a0 d53d bb1a 0bbc 04b5 bcbd
00000300: 602a ec3d 70c6 143d 68aa 89bc 04cf 8cbd
00000310: 0acf dbbd a6bd b5bd 64f1 7dbd 689a 72bd
00000320: a037 18bd 6c4e b63d a046 84bd f044 d23c
00000330: 042a 2c3d 323d ec3d f2d3 85bd 007f eebd
00000340: 70aa 01bd 60cd c63c e84e 963c b896 94bd
00000350: 04cd 433d 9ce1 21bd 14f8 063d d856 b03c
00000360: 6868 0a3d 6416 59bd 16fc ffbd 1419 2dbd
00000370: 2cce b93d 7053 c03d f630 a2bd b2a8 95bd
00000380: 186f db3c 9864 dcbd 1807 50bd 50b7 953d
00000390: 882d 3d3d b292 fabd 6e9d 873d 300a 563d
000003a0: 2091 143d 666a f3bd 6cf3 033d 4097 cb3d
000003b0: 5eab cfbd e8eb 3d3d 9002 26bc 6cf2 aebd
000003c0: a822 6a3d 5847 ab3d 80f8 283c 2ec4 aabd
000003d0: 5e9c e1bd 54ff 883d 7848 e73c b8b0 82bc
000003e0: 80fd 8ebc 4011 903b e02f f23d 7094 d03c
000003f0: be64 9cbd 40a2 483b 4ef0 e13d fc26 0abd

fc2.bias f4 [64]
0.027485702 -0.14740843 -0.13372555 -0.032605097 -0.1989832 0.029427646 -0.1724797 -0.09325454
0.006186861 -0.029555915 0.36806417 -0.14500536 -0.060124733 0.049405664 0.06867773 0.08334095
-0.16665292 0.08280566 -0.07821598 0.16540134 0.032458838 0.040062197 0.22911693 -0.07440903
-0.11574233 -0.1305392 -0.09731259 -0.019191066 0.03033348 -0.11690779 -0.17551646 -0.10521266
0.07675597 0.017132027 0.028575271 0.05374802 0.20008612 0.030853072 -0.17904249 -0.11578214
0.010069333 -0.09570823 -0.019586405 -0.10451814 -0.04100572 -0.065857105 0.124765724 0.04091312
0.08957424 -0.07098444 -0.04527674 -0.013666876 0.040279686 0.08596448 -0.12320956 0.0130725
-0.120877326 -0.008879278 0.0023137955 -0.12494035 -0.017809473 -0.17153996 -0.016856007 0.035104915
00000000: b229 e13c 3cf2 16be 5aef 08be ec8c 05bd
00000010: 41c2 4bbe 3f12 f13c 859e 30be 3cfc bebd
00000020: 27bb ca3b 3f1f f2bc e872 bc3e 497c 14be
00000030: 5a45 76bd 985d 4a3d e9a6 8c3d a9ae aa3d
00000040: 10a7 2abe 0496 a93d b32f a0bd f85e 293e
00000050: 8ff3 043d 4218 243d a19d 6a3e c363 98bd
00000060: 510a edbd 11ac 05be d34b c7bd 9536 9dbc
00000070: eb7d f83c 5a6d efbd 96ba 33be bc79 d7bd
00000080: 3c32 9d3d 7758 8c3c b016 ea3c e226 5c3d
00000090: 60e3 4c3e 95bf fc3c ea56 37be 301f edbd
000000a0: d8f9 243c ad02 c4bd ab73 a0bc 9b0d d6bd
000000b0: 9df5 27bd 17e0 86bd 2c85 ff3d 8494 273d
000000c0: b372 b73d 4a60 91bd 1a74 39bd 08eb 5fbc
000000d0: 50fc 243d 250e b03d 4b55 fcbd 0a2e 563c
000000e0: 888e f7bd 647a 11bc 0ca3 173b bae0 ffbd
000000f0: 2ce5 91bc 2ca8 2fbe 9c15 8abc 2cca 0f3d

fc3.weight f4 [64, 64]
0.1065292 -0.018182753 -0.07194002 -0.09374416 0.07119857 -0.06396088 0.1336967 0.0059043285
0.13103664 0.2872056 0.23680645 0.17339775 -0.0024752528 0.12335357 0.25009143 0.16241653
0.17944136 -0.11950797 0.13606887 0.22914831 0.14731736 0.025692329 -0.66003305 0.15268087
-0.041297335 0.06176876 0.111408606 0.10054134 0.08613149 0.14723384 0.07445412 0.124067955
-0.025020078 0.10761924 -0.01800383 0.043530732 0.19990659 0.29036307 0.12025846 0.077426404
0.14746973 0.17505978 0.4148934 0.069651894 0.11813928 0.17806008 0.094616815 0.045398816
0.1611134 -0.021228056 0.12614633 -0.045269817 0.26749915 0.14280213 0.1381206 -0.07536496
-0.0038390718 0.12400332 0.04104997 -0.05568619 -0.0010218248 0.1656396 0.021723846 0.08457261
0.11133163 0.14428113 -0.08440008 0.031379387 0.17333917 -0.027564839 0.2071493 -0.037174392
-0.03531854 0.21367228 0.14048497 0.11427564 0.20611474 0.05438709 0.107709296 0.044556126
0.22049461 0.1218825 0.22591156 0.25247502 0.08477773 0.061682656 -0.67537993 0.14025216
0.008007933 0.19264981 0.17535427 0.190993 0.0514073 0.09171776 0.058306344 0.23498856
0.16152473 0.10771545 0.06599655 -0.03203414 0.14632386 0.2880789 0.054300644 -0.029595053
0.1749101 0.10993924 0.4036238 0.17571138 0.0022748255 -0.019454423 0.105075255 0.030366734
-0.034171417 0.024872672 0.13868888 0.07594977 0.27775955 0.111799516 0.1813649 -0.12037657
-0.037385866 0.062197935 0.20874262 -0.10059072 0.036490444 -0.02353914 0.1676038 0.04353625
-0.06662166 -0.11455779 0.111242995 0.108002305 0.03370873 0.1065916 -0.0735446 0.07464877
0.052144866 -0.007578373 -0.11099215 -0.042521697 0.02774787 0.099550575 -0.049661756 -0.00968042
-0.0949169 -0.04376413 0.08718355 -0.120515764 0.096411064 0.025575353 -0.001692906 -0.11978233
-0.07954377 -0.12718078 0.051694233 -0.09879765 -0.059457507 0.037249573 0.021998635 -0.097880624
0.05524672 -0.0451716 -0.021139808 0.002902165 -0.079592064 -0.07635255 0.06986923 -0.085972436
0.013706746 0.046227142 0.09582326 0.08867367 -0.07539073 -0.041128878 -0.057984784 -0.04716
-0.060478307 -0.0140932435 -0.055487126 -2.1142981e-05 -0.11566532 -0.092542976 0.06943858 -0.06588268
-0.09894812 0.05057943 0.01937713 -0.08161229 -0.079955414 0.09809891 -0.06547011 0.019970313
0.0010677129 -0.12170955 -0.11083461 -0.024033964 0.045134213 0.019860283 0.037539776 -0.050330922
0.11376483 -0.082276404 -0.11797734 0.008020477 -0.0676725 -0.09478226 -0.04637924 -0.050166726
-0.009261974 0.0897941 -0.08792998 -0.0054332614 0.054309174 -0.058400605 0.063561626 -0.06185837
0.05368407 -0.11614232 -0.056846637 0.0794397 -0.13531461 0.0879511 -0.12034174 -0.003911921
0.10684005 -0.018875038 0.09382461 -0.0715574 -0.021909764 0.0050750524 0.07027804 -0.06690108
0.041707724 -0.03324755 0.078343764 0.047146928 0.044082105 0.019711882 -0.009824932 0.018157765
0.088325135 0.09238948 0.11854166 0.023027537 -0.08714597 0.021636978 0.0596416 -0.109249845
-0.032807976 0.07195248 -0.038688183 -0.10778229 -0.06923759 0.09364777 -0.026038779 0.09972967
00000000: fb2b da3d fff3 94bc 4a55 93bd f0fc bfbd
00000010: 8ed0 913d ecfd 82bd cae7 083e 1979 c13b
00000020: 782e 063e 9d0c 933e 647d 723e 2e8f 313e
00000030: da37 22bb cca0 fc3d fc0b 803e 8550 263e
00000040: 7abf 373e 98c0 f4bd a355 0b3e dba5 6a3e
00000050: 5dda 163e b878 d23c edf7 28bf 6058 1c3e
00000060: 6527 29bd 3d01 7d3d 322a e43d 9ee8 cd3d
00000070: b565 b03d 78c4 163e 677b 983d 5717 fe3d
00000080: e8f6 ccbc 7a67 dc3d c57c 93bc 484d 323d
00000090: 50b4 4c3e 78aa 943e 114a f63d bc91 9e3d
000000a0: 4e02 173e df42 333e e86c d43e a7a5 8e3d
000000b0: 02f3 f13d 6255 363e 76c6 c13d 1cf4 393d
000000c0: e9fa 243e 76e6 adbc 812c 013e d86c 39bd
000000d0: a6f5 883e b93a 123e 7d6f 0d3e f258 9abd
000000e0: f098 7bbb 74f5 fd3d 0324 283d 3417 64bd
000000f0: c0ee 85ba 6d9d 293e 35f6 b13c 6834 ad3d
00000100: d601 e43d 6fbe 133e f3d9 acbd ac87 003d
00000110: d37f 313e a8cf e1bc f21e 543e 2d44 18bd
00000120: 2caa 10bd e8cc 5a3e 4bdb 0f3e 5909 ea3d
00000130: be0f 533e ffc4 5e3d b196 dc3d 7c80 363d
00000140: 57c9 613e 889d f93d 5c55 673e 6844 813e
00000150: f29f ad3d f4a6 7c3d b3e5 2cbf 439e 0f3e
00000160: b533 033c fe45 453e 1290 333e ab93 433e
00000170: 7690 523d 85d6 bb3d a2d2 6e3d d7a0 703e
00000180: bd66 253e eb99 dc3d 3329 873d 3b36 03bd
00000190: ecd5 153e 147f 933e 5a6a 5e3d 5371 f2bc
000001a0: a21b 333e d327 e13d c7a7 ce3e afed 333e
000001b0: 3d15 153b e25e 9fbc b231 d73d a8c3 f83c
000001c0: 54f7 0bbd c6c1 cb3c 7504 0e3e 8e8b 9b3d
000001d0: 8036 8e3e 25f7 e43d b8b7 393e fe87 f6bd
000001e0: ec21 19bd 43c3 7e3d a0c0 553e 8202 cebd
000001f0: 0177 153d 28d5 c0bc 55a0 2b3e 1153 323d
00000200: f070 88bd 469d eabd 5ed3 e33d 5030 dd3d
00000210: 2a12 0a3d b24c da3d 8d9e 96bd 74e1 983d
00000220: db95 553d 0054 f8bb da4f e3bd 3b2b 2ebd
00000230: 804f e33c 2ce1 cb3d 206a 4bbd a09a 1ebc
00000240: cb63 c2bd 0442 33bd 4a8d b23d f8d0 f6bd
00000250: 2a73 c53d 6783 d13c 80e4 ddba 7050 f5bd
00000260: d8e7 a2bd ae3b 02be 55bd 533d 6c56 cabd
00000270: b789 73bd 0293 183d 7b36 b43c a375 c8bd
00000280: 624a 623d db05 39bd 642d adbc 4032 3e3b
00000290: 2a01 a3bd ba5e 9cbd 9917 8f3d 5112 b0bd
000002a0: 4292 603c ac58 3d3d fc3e c43d 8b9a b53d
000002b0: 7466 9abd c176 28bd 7481 6dbd d82a 41bd
000002c0: 1ab8 77bd 59e7 66bc 7846 63bd 355c b1b7
000002d0: f0e1 ecbd 2c87 bdbd d035 8e3d 80ed 86bd
000002e0: 50a5 cabd 602c 4f3d c9bc 9e3c 5824 a7bd
000002f0: aabf a3bd 15e8 c83d 3115 86bd c898 a33c
00000300: 80f2 8b3a db42 f9bd 42fd e2bd e0e2 c4bc
00000310: a7de 383d 08b2 a23c 4fc3 193d cc27 4ebd
00000320: 89fd e83d 8880 a8bd 1b9e f1bd 5268 033c
00000330: e197 8abd 341d c2bd 28f8 3dbd a07b 4dbd
00000340: 89bf 17bc f8e5 b73d a214 b4bd 8009 b2bb
00000350: 4c73 5e3d 7935 6fbd 992c 823d 345f 7dbd
00000360: d4e3 5b3d 06dc edbd 05d8 68bd 48b1 a23d
00000370: ea8f 0abe b51f b43d bb75 f6bd 922f 80bb
00000380: f5ce da3d d39f 9abc 1e27 c03d b08c 92bd
00000390: 1b7c b3bc a04c a63b efed 8f3d 6f03 89bd
000003a0: b8d5 2a3d 952e 08bd b272 a03d 231d 413d
000003b0: 708f 343d d07a a13c c0f8 20bc 98bf 943c
000003c0: cfe3 b43d b236 bd3d f8c5 f23d 3fa4 bc3c
000003d0: 9679 b2bd 0840 b13c c04a 743d 62be dfbd
000003e0: a861 06bd d25b 933d 8077 1ebd f6bc dcbd
000003f0: 70cc 8dbd 67ca bf3d 474f d5bc 123f cc3d

fc3.bias f4 [64]
0.088817455 -0.020377375 0.034772407 0.0711089 0.034020707 -0.047606792 0.0122078955 0.066968605
-0.01271051 -0.12781228 0.028462961 0.08077203 0.017963083 -0.024778455 0.057527672 -0.051667094
0.016535593 -0.13694437 -0.078488424 -0.054231867 -0.029423565 -0.09029469 0.12829909 0.11863585
0.008326076 -0.1168846 -0.054272473 -0.028061686 -0.11766736 -0.0026222658 0.008339168 0.11983462
0.03943746 -0.089837156 0.23227839 -0.08439561 0.035728432 -0.030592153 -0.05954034 0.00047501494
0.067815155 -0.05243054 -0.14754869 -0.021698913 0.014689914 -0.005291794 -0.08417997 -0.022204403
0.043508556 -0.11554089 -0.04219795 0.040755484 -0.10628155 0.018474428 -0.012671092 -0.04481008
0.08607167 -0.13013926 0.08262926 0.07798617 -0.01017577 -0.05867725 0.034313112 -0.08527011
00000000: ede5 b53d 74ee a6bc 836d 0e3d 8ba1 913d
00000010: 4c59 0b3d 57ff 42bd a003 483c d626 893d
00000020: be3f 50bc 39e1 02be 282b e93c ce6b a53d
00000030: 5127 933c 30fc cabc 23a2 6b3d e0a0 53bd
00000040: a775 873c 253b 0cbe 8abe a0bd 3c22 5ebd
00000050: b009 f1bc 6cec b8bd d660 033e 5af7 f23d
00000060: 186a 083c 3161 efbd d04c 5ebd 9fe1 e5bc
00000070: 96fb f0bd 52da 2bbb 01a1 083c da6b f53d
00000080: 2d89 213d 8bfc b7bd 63da 6d3e 9bd7 acbd
00000090: fa57 123d 659c fabc 92e0 73bd 6d0b f939
000000a0: ace2 8a3d 68c1 56bd 0117 17be ebc1 b1bc
000000b0: f7ad 703c c966 adbb 8c66 acbd 02e6 b5bc
000000c0: 0736 323d b4a0 ecbd c2d7 2cbd 39ef 263d
000000d0: 24aa d9bd af57 973c 699a 4fbc c68a 37bd
000000e0: 5846 b03d 3a43 05be 8839 a93d 37b7 9f3d
000000f0: 46b8 26bc 8e57 70bd e88b 0c3d 18a2 aebd

q_out.weight f4 [1, 64]
-0.24302644 -0.16963543 0.07653996 0.02268581 -0.21867529 0.04720879 0.007404119 -0.16435684
-0.16081537 -0.15391824 -0.085048616 -0.22970966 -0.19115283 -0.112520486 -0.18881659 -0.19926055
0.09882422 -0.15933478 0.10255645 -0.22435851 -0.19964163 0.09495343 -0.18856846 -0.32034576
0.07670272 0.041763816 0.0736332 -0.23967847 0.037283096 0.077845156 0.05173402 -0.098614186
0.052026562 0.11071421 -0.2496786 0.10098817 0.0023291616 -0.22254197 -0.21526426 -0.16752885
-0.035847887 -0.11741419 -0.007928403 -0.13760918 0.0649819 -0.0017370704 0.11433266 -0.17082673
-0.18498828 -0.039895453 0.091736495 0.10430092 0.051879197 -0.21663292 -0.15396473 -0.1758022
-0.09858924 -0.24448436 -0.19777969 0.03904823 -0.24897169 0.07672958 -0.26177165 -0.2213988
00000000: ecdb 78be e9b4 2dbe fcc0 9c3d 98d7 b93c
00000010: 6aec 5fbe 015e 413d 409e f23b 294d 28be
00000020: c9ac 24be be9c 1dbe f82d aebd 0239 6bbe
00000030: 91bd 43be 2471 e6bd 2359 41be f50a 4cbe
00000040: 5a64 ca3d a828 23be 1e09 d23d 3dbe 65be
00000050: db6e 4cbe f276 c23d 1718 41be 5c04 a4be
00000060: 5116 9d3d 8910 2b3d 01cd 963d 466e 75be
00000070: 29b6 183d 486d 9f3d 0de7 533d 3cf6 c9bd
00000080: ce19 553d 22be e23d bfab 7fbe e3d2 ce3d
00000090: d9a4 183b 0be2 63be 3c6e 5cbe af8c 2bbe
000000a0: 3cd5 12bd da76 f0bd 22e6 01bc 6ce9 0cbe
000000b0: 3b15 853d 69ae e3ba 3e27 ea3d 34ed 2ebe
000000c0: 916d 3dbe 6a69 23bd 58e0 bb3d b99b d53d
000000d0: 487f 543d 05d5 5dbe eea8 1dbe 7e05 34be
000000e0: 28e9 c9bd 1c5a 7abe c286 4abe 09f1 1f3d
000000f0: 6ff2 7ebe 6624 9d3d ef06 86be 5eb6 62be
