model/simple_tag/agent_2/1_actor_params.pkl (torch_old, 40203 bytes, 8 tensors)

fc1.weight f4 [64, 16]
000000 d7 93 af be 2c a1 1a bf 6b 08 50 3e 47 1c 30 3f
       -0.3429248 -0.6040218 0.20315711 0.6879315
000010 99 1f 21 be f9 98 8b 3f 9d 96 d0 3e cd d6 f4 be
       -0.1573471 1.0906059 0.4073991 -0.4782013
000020 de 5f e8 3f b9 af 01 40 f7 c3 6e 3f 18 d2 c7 3d
       1.8154256 2.0263503 0.9326777 0.09756869
000030 47 c8 af 3f 61 51 00 40 b0 6b da 3d 9c 18 b5 3d
       1.3732995 2.004967 0.10665071 0.088425845
000040 78 10 85 3e 59 6c bf be 99 dc b6 be 14 19 e7 3d
       0.25989127 -0.3738735 -0.35715178 0.1128408
000050 9a a5 19 3f b1 2a 1e 3f 82 92 b2 bf a9 40 6b be
       0.6001831 0.6178389 -1.3950961 -0.22973885
000060 b5 cd a6 3e bf e2 11 40 79 4c 3c 3e e6 9a 3b 3f
       0.32578817 2.2794645 0.18388547 0.7328323
000070 63 59 2e 3e d4 2e aa 3f 35 a8 04 3f 82 e5 12 be
       0.17026286 1.3295541 0.51819164 -0.14345363
000080 0f 86 2b 3e 6e d1 79 3e 1b 9b 23 bf 98 29 12 3e
       0.16750358 0.24396297 -0.6390855 0.1427368
000090 02 c4 df be de a1 8e 3d b0 f2 68 be 81 c7 91 3d
       -0.4370423 0.069644675 -0.22748828 0.071181305
0000a0 fe 4b 67 3f 0f 60 db 3e 50 c2 c6 bc fc 21 23 3e
       0.9035033 0.42846724 -0.024262577 0.15930933
0000b0 a9 03 2f c0 4c 03 20 c0 cf d3 b0 3b 79 e3 f8 bd
       -2.7345984 -2.5002012 0.0053963433 -0.12152762
0000c0 f0 de 90 3e d6 3e e2 be d1 f6 04 be fd a2 c6 3e
       0.28295088 -0.44188565 -0.12984778 0.38796225
0000d0 f1 5e c1 3e 24 94 8e 3e 10 08 d7 be da 53 b8 3c
       0.37767747 0.27847397 -0.4199834 0.022500921
0000e0 44 02 15 40 a7 8f c6 be 5a 5e a2 3f f0 9a 73 be
       2.3282633 -0.38781473 1.2685044 -0.23789573
0000f0 80 d3 1b bf b8 ae b4 3f 11 da 14 bf d1 a3 27 3e
       -0.608696 1.411582 -0.5814524 0.16371085
000100 f0 5e 14 3e 04 26 23 bc f0 97 fb bd 6a df b3 3c
       0.14489341 -0.009957794 -0.12284839 0.021957118
000110 86 17 49 bd 75 9b 07 bc 05 6c 80 bd 47 87 39 3c
       -0.0490947 -0.00827681 -0.06270603 0.011323757
000120 18 ea 78 3f 20 0c a4 3e b3 c0 17 c0 b4 48 49 c0
       0.972322 0.320405 -2.3711364 -3.1450624
000130 4c 8b ae 3f 69 83 9c 3f 0a 3e 2b be ba 9f f1 3b
       1.363626 1.2227603 -0.16722885 0.007373777
000140 1a 59 74 3e 15 9e 8d 3d 55 29 c2 3e 29 80 5f 3e
       0.23862115 0.069149174 0.3792216 0.21826233
000150 d5 61 2c 3e 69 8a 01 3e 78 ca 41 3e 9c 3e d8 3d
       0.16834195 0.12650456 0.18924892 0.10558817
000160 5d af 95 c0 77 53 3c 40 6e 20 0b 3e a1 24 31 3f
       -4.6776567 2.9425943 0.1358659 0.69196516
000170 e9 1b 96 bf 2a 23 bb 3e f5 48 bd 3e 59 d5 81 bf
       -1.1727268 0.36550266 0.36969724 -1.0143234
000180 f0 64 77 3e 64 c0 ba 3d 39 7e 77 3f a3 b0 3f 3f
       0.24159598 0.09118727 0.96676975 0.748789
000190 25 66 22 3f cf 3b 52 3e 52 88 85 3e b9 b0 e6 3e
       0.6343711 0.20530628 0.26080567 0.45056704
0001a0 9c 4e 35 be bf fa 5f 3f a6 fe dc 3d 83 fe 45 3e
       -0.17705768 0.87491983 0.10790758 0.1933537
0001b0 8e 07 62 be ec 5f 46 c0 ce dc 36 be 8b fb 02 3f
       -0.22073194 -3.0996046 -0.17857668 0.51165074
0001c0 e1 57 a9 3d 47 15 78 3e c1 41 ba 3d 9f 64 2b bf
       0.08268715 0.24226867 0.09094573 -0.6695041
0001d0 45 e1 a2 3e df d0 11 bf 6f 40 85 be 82 7b b8 bc
       0.31812492 -0.56959337 -0.2602572 -0.02251983
0001e0 58 57 8c 3e a8 1d 6d bb b4 3f 60 bd da d7 36 bf
       0.27410388 -0.0036181007 -0.054748252 -0.71423113
0001f0 96 0b d7 3f 0b ef 66 c0 37 3c ff bd 82 c9 bb be
       1.6800411 -3.60834 -0.12462657 -0.36677176
000200 21 00 43 bf ea 7b a4 3e d5 8f 0e be 09 70 0e 3f
       -0.7617207 0.3212579 -0.13922055 0.556397
000210 a0 2a 48 bd 9d 16 bd be 5d 4c b7 3a 17 a1 53 3f
       -0.048868775 -0.36931315 0.001398455 0.8266768
000220 7d cc 8a 3e d2 c3 93 bf 80 de a3 3e 32 e4 db bf
       0.27109137 -1.1544135 0.32005692 -1.7179015
000230 50 ec 30 3f 53 5d 21 c0 8b 32 ae 3f 49 7f be bd
       0.69110584 -2.521321 1.3609174 -0.093016215
000240 ac 30 1b bd 69 72 8d bd 5e e1 8c be 29 27 16 3f
       -0.037888214 -0.06906588 -0.27515692 0.58653504
000250 b0 28 65 bf 44 18 1d be 0f c2 20 3f a9 60 32 3f
       -0.8951521 -0.15341288 0.6279611 0.6967874
000260 39 98 e0 3d dc e4 92 bf 15 2f 45 bf a7 12 53 3f
       0.10966534 -1.1476092 -0.77024966 0.82450336
000270 9f 67 c9 bf 2d a6 07 40 f8 6f 2e 3e 8b da e5 be
       -1.5734748 2.1195176 0.170349 -0.44893298
000280 2d 45 60 3d 40 cb 84 3e 80 38 28 3f 30 e3 9e 3d
       0.05475347 0.25936317 0.6571121 0.07758176
000290 75 7d 46 3f 69 63 20 bf 41 97 be bd 7d 97 24 3f
       0.7753518 -0.6265169 -0.09306193 0.6429365
0002a0 fc 3c 8b be 8e 2c f3 3f 06 99 1e bf e9 ee 1d 3f
       -0.27194965 1.8997972 -0.61952245 0.6169267
0002b0 e3 db 0b 40 5a 47 5a 40 f1 ad 13 bf 90 9a d8 3e
       2.1852958 3.410605 -0.5768729 0.42305422
0002c0 a0 70 a7 3e 6b 27 4e 3d f9 9f cb 3e 6b ae 7f 3e
       0.32703114 0.05033056 0.39770487 0.24968879
0002d0 69 e3 a0 3d 69 28 fe 3d 40 1b ab 3e fd 47 ea 3d
       0.07855875 0.124100514 0.33419228 0.11439512
0002e0 51 18 f6 bf 78 ae 72 bf ba 16 c7 bf 28 1a 91 bf
       -1.9226171 -0.9479747 -1.5553811 -1.1336107
0002f0 fb 1b 03 40 57 8f 38 40 be 19 4a 3e 6b c1 3c 3e
       2.0485828 2.8837488 0.19736382 0.18433158
000300 57 93 e2 bd 7c c3 2f bb bb 49 a6 3e c6 bb 15 bf
       -0.11063259 -0.0026819399 0.32478127 -0.58489645
000310 66 3c 18 bd c2 4e 3f 3c b0 22 bd 3e d5 61 08 bf
       -0.037166975 0.011676492 0.36940527 -0.5327428
000320 53 6c 84 be b1 85 d7 3e 94 6d 8f 3f 06 16 b4 bf
       -0.25863895 0.42094186 1.1205316 -1.4069221
000330 97 fd 99 bf 5b cc e1 bf fe 27 46 bf c3 3e 09 bd
       -1.2030514 -1.7640489 -0.77404773 -0.03350712
000340 af a8 0a 3e a5 ce ad 3c f4 42 bf 3c b4 60 2d bd
       0.1354091 0.0212167 0.023347355 -0.04232855
000350 74 67 a9 3e cf c6 50 bf 13 01 95 be 9d 98 35 3f
       0.3308674 -0.8155336 -0.29102382 0.70935994
000360 29 b2 cc bf 9c eb 89 bf d5 c2 93 bf 0f 3b 66 bf
       -1.599187 -1.0775027 -1.1543833 -0.89933866
000370 28 77 d5 bf 8c d8 c8 3f ef 90 67 3e c6 4b d6 3d
       -1.6676989 1.5691085 0.22613882 0.104636714
000380 bc d4 a0 3e 3f a3 2f 3f ef 2a 4c 3f 88 f4 2e 3e
       0.31412303 0.6860847 0.7975301 0.17085469
000390 bf 5b 4f be 0e f3 d7 bd a4 00 6b 3f 54 40 60 3e
       -0.20249842 -0.10544406 0.9179785 0.21899539
0003a0 7c 31 81 bf d9 04 43 3e 49 94 9b bf d1 f6 2d 3f
       -1.0093226 0.19044818 -1.2154628 0.67954737
0003b0 42 93 d4 bf f0 7a cd be 41 c7 8c 3d 65 9e f6 be
       -1.660744 -0.40132856 0.06873942 -0.4816772
0003c0 f4 02 50 bf 4f f2 03 3c 17 e0 1b bd 8c 32 e0 be
       -0.81254506 0.008053376 -0.038055506 -0.43788564
0003d0 03 60 35 bf 6f 47 de 3d 1d 3f 29 3f 09 80 13 bf
       -0.7084963 0.108534686 0.6611193 -0.5761724
0003e0 be 44 c4 3b ce ee 51 3e 3b ee db 3e b8 77 c5 3f
       0.00598964 0.20501253 0.42955193 1.542716
0003f0 84 fb 0d c0 be e3 e7 3f d3 f4 2e bf d7 50 40 3e
       -2.2184763 1.8116376 -0.6834232 0.18780838

fc1.bias f4 [64]
000000 b9 bc 6b bf 88 fc 2d bf e7 0c 85 3f 77 df 4b 3f
       -0.9208484 -0.6796346 1.0394562 0.79637855
000010 f5 52 47 3e e8 11 cc 3d a2 e3 69 3f 0b 0e 9e 3f
       0.1946524 0.09964353 0.91362965 1.2348036
000020 9c 80 92 bd 95 fd 83 3f a4 6e 5f 3f 04 0e 17 3f
       -0.071534365 1.0311762 0.872782 0.5900576
000030 d0 fa a3 be 0e 97 0a 3f 44 6a d7 bf 7f b0 cc 3e
       -0.32027292 0.5413674 -1.6829305 0.39978406
000040 a3 e4 af 3f 02 3e f6 bb 32 9c 58 bf 52 76 a5 3f
       1.3741649 -0.007514716 -0.84613335 1.2926733
000050 1d cd 09 3f 8b 25 fe 3d 3b 1f e6 be 44 f7 9e 3e
       0.53828603 0.124095045 -0.44945702 0.31048024
000060 75 94 18 3e a8 7c 24 bd a9 4c 04 3f 5e 43 b1 3f
       0.14900382 -0.040157944 0.51679474 1.3848684
000070 14 93 c9 3f e2 44 92 bd ac d8 bf 3f d4 57 c0 3f
       1.574801 -0.071420446 1.4987998 1.5026803
000080 f4 6a e2 bd ff e7 4f bf 27 ee 02 3e e1 ef 7d be
       -0.11055556 -0.8121337 0.1278616 -0.24798538
000090 d9 5f 84 3f 7f 1e e3 bf 2e 97 b3 3e 48 59 c3 3f
       1.034175 -1.7743682 0.35076278 1.5261621
0000a0 6d 64 59 3f 9e ee 57 bc 87 0f 5a 3f da 3d ca be
       0.8491886 -0.013179449 0.8517994 -0.39500314
0000b0 7e 71 e7 be 0d fd 06 bf 68 43 f2 be be df 81 3f
       -0.45203775 -0.52729875 -0.47317052 1.0146406
0000c0 d2 fd 6b 3f ce 08 2e be 92 66 af 3f dc f2 c0 3f
       0.92184174 -0.16995546 1.3703177 1.5074115
0000d0 2a 8f b3 3f 0b a9 9d 3d c3 7c 22 bf 60 91 82 3f
       1.4028065 0.07698258 -0.6347162 1.0200615
0000e0 fc 7a 5b 3f 70 f2 c6 3d 45 09 c4 3f 65 d5 8e 3f
       0.85734534 0.0971421 1.5315329 1.1158873
0000f0 95 5a b5 3f 48 d7 f3 bd 3d 58 10 bf 79 af 32 bf
       1.4168268 -0.11906296 -0.5638464 -0.69799

fc2.weight f4 [64, 64]
000000 a0 ff 02 3f 6f 2b 87 be ef cb 32 3f 88 45 56 bf
       0.511713 -0.26400325 0.6984243 -0.83699846
000010 a2 35 1e 3e 22 fc 42 bf 73 b3 a6 bb fb e8 b3 bf
       0.15450147 -0.76165974 -0.00508731 -1.4055475
000020 cc 30 57 3d b3 9f 02 3f 85 16 0d c0 7b b0 65 be
       0.05253677 0.5102493 -2.2044995 -0.22430603
000030 a5 df 12 3f a2 57 cc 3d e9 c3 e9 3e d0 77 9e be
       0.57372504 0.09977652 0.4565728 -0.30950785
000040 1d 95 b2 bf b3 52 5f bf 65 3c 68 be af 8f e7 bf
       -1.3951756 -0.87235564 -0.22679289 -1.8090724
000050 31 33 83 bf 1d e2 20 bf 16 c6 24 bf 1f 42 59 bf
       -1.0249997 -0.6284502 -0.64364755 -0.8486652
000060 1a 7c 8a bf 1c 0c 03 3e 0a 35 06 3e da e0 c4 be
       -1.0819123 0.12797588 0.1310617 -0.38452798
000070 3d 8d 14 3f 41 f8 c1 3e 38 c4 67 bf f9 42 81 bf
       0.5802801 0.37884715 -0.9053378 -1.0098563
000080 0b f3 a0 be 0a fd 2b 3f 14 46 df be bd d5 1c 3d
       -0.31435427 0.6718298 -0.43608153 0.038289774
000090 e7 39 44 be 69 31 05 be 44 a5 ae be 8f c1 21 bf
       -0.19162713 -0.1300713 -0.34110463 -0.6318597
0000a0 e1 85 8e 3f e8 9e 6e 3e 77 85 59 bf 33 74 db 3e
       1.1134607 0.23302805 -0.84969276 0.4286209
0000b0 9e e3 96 3c 56 1f 30 bc f7 53 b1 3d 78 e6 8d bf
       0.018419083 -0.010749659 0.08658593 -1.1085958
0000c0 06 fc 64 3e 89 a8 d3 3d 2e d6 0e bf 30 1b 0e bf
       0.22361764 0.1033488 -0.5579556 -0.55510235
0000d0 c6 dc f5 be 93 96 b7 3c 24 53 48 3e 0e 41 fd 3d
       -0.4802 0.022410667 0.19562966 0.12365924
0000e0 90 35 1b 3f 0d be 13 3f fd b9 5f bd 85 56 b4 be
       0.60628605 0.5771187 -0.05462073 -0.3522226
0000f0 c7 13 93 bf 0c bb 50 3f 36 87 cf be 90 20 4f 3d
       -1.149041 0.8153541 -0.40532845 0.050568163
000100 61 9b f9 be 2e 5d 9f bf 3c 74 4a be 72 c6 b6 3e
       -0.48751357 -1.2450311 -0.19770902 0.35698277
000110 86 22 b2 be 0c f0 5d 3f 0e a9 94 3d 2d da 7d bf
       -0.34791964 0.8669441 0.07258807 -0.99161035
000120 0c f5 3b 3e 66 75 a8 3c 89 37 8c 3e c8 87 03 3f
       0.18355197 0.020563792 0.2738612 0.5137906
000130 0e d3 67 3e f4 49 2f be 0c 92 1e 3e 90 af 57 3f
       0.22639105 -0.17118055 0.154854 0.8425226
000140 4d 60 1b bf 61 36 ec 3e 0f d8 3d be 12 d7 84 be
       -0.6069382 0.46135238 -0.18539451 -0.25945336
000150 ea 63 3a bd b6 4b 20 bf 1c 54 0b 3f 69 a7 52 3e
       -0.04550544 -0.62615526 0.54425216 0.20571674
000160 88 15 f4 3e 50 af 90 bd a5 d0 a1 3f d7 26 9f 3e
       0.47672677 -0.07064688 1.2641798 0.3108432
000170 05 22 9f 3e 74 af 00 bf d0 dc 40 3f 37 5b 1a be
       0.31080642 -0.5026772 0.75336933 -0.15073858
000180 8e 22 cb bf a8 8c 3c bf 12 88 56 3f 02 83 b1 3e
       -1.586992 -0.73652124 0.83801377 0.34670264
000190 89 00 ea be b4 ab 3f 3f 7f b9 b4 be 68 00 44 3f
       -0.45703533 0.74871373 -0.35297772 0.7656312
0001a0 f9 c8 95 3f 8c aa f3 3c c6 7d 25 bf 7d 8c 02 3f
       1.1701957 0.029744409 -0.6464504 0.5099562
0001b0 55 d1 ef 3d fe 62 bd 3d e1 ed c6 3e d5 f5 f0 be
       0.11709849 0.09247397 0.38853362 -0.47062555
0001c0 8b 74 2c bf ba 77 8e bf 98 39 9b 3f a6 15 53 3e
       -0.6736533 -1.1130288 1.2126951 0.20613727
0001d0 c2 0b 51 3f 30 d5 09 bf 4b ae 1f be 32 58 0d 3f
       0.81658566 -0.53840923 -0.15593831 0.552127
0001e0 2b 5b dd 3e a4 fe b9 3e 22 69 b8 bf 1a 62 51 be
       0.43233618 0.36327088 -1.4407084 -0.20447579
0001f0 32 6e bc bc d8 06 89 bf 45 c5 a3 3d 56 6a 27 bf
       -0.023001764 -1.0705214 0.079966106 -0.6539663
000200 88 61 f1 bc 2b 19 82 3d 85 8b 58 be 67 7a 84 3e
       -0.029465452 0.06352457 -0.21146972 0.25874636
000210 36 4a c7 3e 52 1e e1 be 70 35 a9 3e 24 e3 84 bf
       0.38923806 -0.43968445 0.33048582 -1.0381818
000220 b7 eb bc bc 4e 63 58 3f 3a 70 15 3f 0c 4c 45 3f
       -0.023061616 0.84526527 0.5837437 0.77069163
000230 81 06 bb be fe 82 9d 3f 0f d7 22 3f f0 e6 88 3f
       -0.365284 1.2305601 0.63609403 1.0695477
000240 db ef 77 3f 5a 69 94 3d 79 72 ac 3d 80 3e 30 3e
       0.96850365 0.07246657 0.084202714 0.17211342
000250 33 f3 53 3e 80 bc 59 bf dc 04 c7 3d 1f 3c 5d bf
       0.20698242 -0.85053253 0.09717724 -0.8641986
000260 8a 87 c1 be 7c cf a2 be 63 04 ba 3f 12 5c 74 3f
       -0.3779872 -0.31798923 1.4532589 0.9545299
000270 7c 64 e6 3d 0f f6 8c 3e e2 92 b3 3e b1 c3 5c bf
       0.112496346 0.27531478 0.35073 -0.862361
000280 49 42 9c 3e 06 da 25 3e 2e 54 f3 be fd 3a 62 bf
       0.30519322 0.1619645 -0.47525162 -0.8837126
000290 f2 57 68 bf 2c 4f 84 3f 59 67 d9 bd 2b 78 9a 3f
       -0.90759194 1.0336661 -0.10615415 1.2067922
0002a0 ed 28 9f be 3c e9 3e 3e d7 1b 85 bf 50 8f 5a 3f
       -0.3108591 0.1864366 -1.0399121 0.8537493
0002b0 bb c4 d0 3e 1d 76 34 be 58 49 32 be 6c f8 c5 3e
       0.40775093 -0.17623182 -0.17410791 0.38666093
0002c0 3c 94 ed be c9 b0 f7 be 8e 86 84 bc a5 51 dc 3f
       -0.46402156 -0.48377064 -0.016177442 1.7212416
0002d0 63 9c cd be ab b8 72 ba b9 f3 98 3d 74 3c 8f 3f
       -0.40158376 -0.0009259085 0.074683614 1.1190324
0002e0 3a 2f 97 bd b7 95 30 3e 28 f3 7b bd 67 b9 a4 3f
       -0.073820546 0.17244612 -0.06151119 1.286908
0002f0 3b 0f f3 3e 3f 71 a1 3e 10 2e 71 be 6a c0 a2 3e
       0.47472557 0.31531712 -0.23552728 0.31787425
000300 b4 10 f5 be 7e 04 57 be d6 d8 1b bf 1c 6a 3e be
       -0.47864306 -0.20997807 -0.6087774 -0.18595165
000310 10 56 b3 be eb 5f 89 3f 69 62 d9 3e 7f cd 73 3e
       -0.35026598 1.0732397 0.42457893 0.2380886
000320 25 42 17 3d 09 a8 6a be b9 e5 1b 3e d8 6a 59 3f
       0.036928315 -0.22915663 0.15224351 0.84928656
000330 8d 75 25 3f 74 8e 48 3e ca a6 05 3f a6 91 31 bd
       0.64632493 0.19585592 0.52207625 -0.04335179
000340 e7 70 b2 3e 26 ef 83 bf e3 76 38 bf 67 e2 16 bf
       0.34851763 -1.0307357 -0.72056407 -0.5893921
000350 80 40 ca 3d 25 c2 c3 bd 3b 65 88 3e b2 2d 0c 3f
       0.09875584 -0.095585145 0.26639733 0.54757226
000360 04 1c 78 3e 7a 49 ce bc 15 17 28 be 3f 59 cf bd
       0.24229437 -0.02518152 -0.16415055 -0.10124444
000370 d5 5e e6 3e 27 bf 2c 3d 30 13 40 3e fc 3f 3a bf
       0.44994226 0.042174485 0.1875732 -0.7275388
000380 c7 9b 92 3e c2 26 36 3e 01 a5 f7 3e 50 c5 6b 3e
       0.28634474 0.17788222 0.48368075 0.23024487
000390 ce 0e 2e bf be b3 6f 3f 55 75 a2 3e 23 2a 81 3f
       -0.6799134 0.9363364 0.31730142 1.0090984
0003a0 6a 68 4e 3f 7f 9a 95 3c 50 a1 3c bf 32 74 2c be
       0.80628073 0.018262146 -0.73683643 -0.168412
0003b0 bf 02 d4 3c 40 33 4c bf 02 af df 3d c1 ea 23 3f
       0.025880216 -0.797657 0.10922052 0.6403008
0003c0 4d 27 1f bf 8f 6b 4c bf 3f cc 23 3f 53 cc d1 be
       -0.62169343 -0.7985162 0.6398353 -0.409762
0003d0 17 fd 69 3f 0d b1 33 3f b8 de 6e 3f 43 d8 97 3f
       0.9140181 0.70192033 0.9330859 1.1862873
0003e0 60 64 5c be 82 93 f9 be a5 57 05 3f 21 4e 05 3f
       -0.21522665 -0.48745352 0.5208686 0.5207234
0003f0 61 22 15 bf 22 af 50 3e 87 a0 05 bf d6 d0 d1 bf
       -0.58255583 0.20379308 -0.5219807 -1.6391857

fc2.bias f4 [64]
000000 b7 3f 10 bf 60 f1 0e 3e ad 0d 8d 3f 70 cd 3d 3e
       -0.5634722 0.13959265 1.1019799 0.185354
000010 98 f5 06 bf 8c 65 39 3e 93 c5 96 be 0c 1d b7 3e
       -0.52718496 0.18105143 -0.29447612 0.35764349
000020 26 fd a5 3e 03 d1 4d 3f 36 bf 3e bf 50 a8 18 bf
       0.324197 0.8039705 -0.74510515 -0.59631824
000030 7a db ab 3e b3 88 48 bc 17 d5 f6 3e d0 70 06 be
       0.33565885 -0.012239623 0.4820945 -0.13128972
000040 66 f6 9d be f0 59 f0 3d a6 f3 fb bd e5 0d 7e 3d
       -0.3085205 0.11735904 -0.123023316 0.06202497
000050 fd 9b cb bb 31 48 07 3e 00 19 2a 3f 97 b9 ad 3d
       -0.0062136636 0.13211133 0.66444397 0.08482664
000060 29 16 c3 be 11 43 e1 3d fa ff 04 3f ce c2 e0 3e
       -0.38102844 0.1099912 0.5195309 0.43898624
000070 8a 6b 86 be 4e 5c 05 bf 4e f6 70 3f 0d ac 91 bf
       -0.2625392 -0.5209397 0.9412583 -1.1380631
000080 67 9a 12 3f da 9f f6 bd ee d6 c9 3e 67 ba c2 be
       0.5726685 -0.12042208 0.3942179 -0.3803284
000090 a5 41 bd be ca 9b 33 3f 83 3e 31 3f 44 ff 58 be
       -0.36964145 0.7015959 0.6923601 -0.21191126
0000a0 51 27 07 3f 76 71 83 be f0 b9 fa 3e e0 16 c5 3d
       0.5279437 -0.256725 0.48969984 0.09623504
0000b0 ee b0 c5 be c8 e6 ee bd bc de a2 be ed d2 03 3f
       -0.3861155 -0.11665112 -0.31810558 0.5149372
0000c0 5a 79 1e bf 1d 9b 3f bd 67 e1 70 3e d9 40 6e bd
       -0.6190392 -0.046778787 0.23523484 -0.058167312
0000d0 ab c6 39 be 0a 69 f2 be 8d 39 94 3e 9c 28 22 be
       -0.18142192 -0.47345763 0.28950158 -0.15835804
0000e0 3c 8a 1e bf 14 65 a1 be b8 bd 3e be a9 1d f3 be
       -0.6192968 -0.3152243 -0.1862706 -0.47483566
0000f0 10 dc 94 3e 44 d1 9d 3e 48 2d 0e bd c6 f3 2e be
       0.29074144 0.3082372 -0.034711152 -0.1708518

fc3.weight f4 [64, 64]
000000 01 78 08 3d ab ab a2 3f a4 3f 71 bd 10 d0 3a be
       0.03331757 1.2708639 -0.058898583 -0.18243432
000010 ee f6 85 3e 62 23 8b 3f 6f b3 66 3f 15 3c 95 bf
       0.26164955 1.0870173 0.90117544 -1.165896
000020 4e 57 03 3f d0 a9 f9 3e b9 16 c7 3f 96 69 ab be
       0.5130509 0.4876237 1.555381 -0.33478993
000030 14 fa 94 be 71 50 9b be 83 e1 81 3f ad 42 4c 3e
       -0.29097044 -0.3033481 1.0146946 0.1994731
000040 40 14 38 be 3f 5e 8c 3e 60 2e 47 3f 9e 36 02 3f
       -0.17976475 0.27415654 0.7780514 0.5086459
000050 72 ce 58 3f ae 25 c6 be 9b c7 56 bf b1 e4 80 bf
       0.8469001 -0.38700622 -0.83898324 -1.0069791
000060 4e d1 47 3e 09 ec 68 3f 9d c4 e4 3e 5a 5f 26 be
       0.19513437 0.9098516 0.44681254 -0.16247311
000070 ce c6 50 bb 7c c2 0a bf 2d 43 2c 3d 6d c9 53 bf
       -0.0031856778 -0.5420301 0.04205625 -0.82729226
000080 e8 87 eb bf 64 a7 3e be ee bf d2 be 22 9f 2c bf
       -1.840085 -0.18618542 -0.41162056 -0.6743032
000090 28 6a 74 3e 49 72 4d 3f bf 20 75 3e 9e b8 11 3f
       0.2386862 0.8025251 0.23938273 0.5692233
0000a0 1e 53 7a 3f c7 1c fb 3f 00 ba 63 3e d0 c7 00 be
       0.97783077 1.9618157 0.22238922 -0.12576222
0000b0 1d 2f 90 be 87 65 5a 3f 29 ad 12 3f aa 91 3a 3f
       -0.28160945 0.8531117 0.5729547 0.72878516
0000c0 b4 25 27 3e b8 51 7c 3f ca a9 2d 3f f1 5b 93 be
       0.16322976 0.9856219 0.678372 -0.28781083
0000d0 d8 f1 99 be b7 96 28 3e 16 0e 2c c0 9e a5 97 bd
       -0.30067325 0.16463743 -2.6883597 -0.07404636
0000e0 c4 eb 2e be 32 ac 32 3e 54 e6 ef 3e 36 ba 07 3f
       -0.17082125 0.174485 0.46855414 0.5301851
0000f0 88 51 be bd 1f 1c 1d bf 70 09 d7 bc fc cb 87 be
       -0.092928946 -0.61371034 -0.026249617 -0.26522815
000100 94 aa d0 bf 73 d9 37 be 4e 80 21 be f7 d5 cf be
       -1.6302056 -0.17954044 -0.157716 -0.4059293
000110 de 7e 3c c0 16 52 c0 bf 59 49 74 3f 05 29 df be
       -2.9452434 -1.5025051 0.9542442 -0.43585983
000120 92 e1 ca 3d aa 27 d6 be 53 d0 2b 3f 24 fe 1d 3f
       0.099063054 -0.41827136 0.6711475 0.6171591
000130 a2 bb dd bd 39 ba 0f be 57 ab e8 3e 31 9c 81 3f
       -0.10826804 -0.14035882 0.45443222 1.0125791
000140 cf 12 6b be d8 5b 5c bf a6 b0 b5 3e 87 16 11 bf
       -0.22956394 -0.8607764 0.35486335 -0.56675
000150 df ac 99 3c 44 ce d0 3e 5a c2 bc be 88 70 f3 3e
       0.01875919 0.40782368 -0.36867028 0.47546792
000160 03 4d 6b bf b0 60 ad bf b5 ae af be 4b fa a9 bf
       -0.91914386 -1.3545132 -0.34312978 -1.3279508
000170 31 27 d5 3e 55 19 86 3f 36 97 3f bf 5a e1 74 bf
       0.41631463 1.0476481 -0.74840105 -0.9565636
000180 c7 77 a9 3e 49 cf 82 bf 42 80 fc be ad bd ca bf
       0.33099195 -1.0219508 -0.49316603 -1.5839134
000190 c0 7c c9 bf e7 79 10 3f d3 ee 30 bc 6a 8e 45 3e
       -1.5741196 0.5643601 -0.010799128 0.19292608
0001a0 84 a7 28 bf 26 97 ac 3e 3e cb d4 be f5 6a 4c bf
       -0.6588061 0.33709067 -0.4156131 -0.79850703
0001b0 89 3e 53 bf bb bd dc be fd 6f 51 bf 94 9c 3a 3d
       -0.82517296 -0.43113503 -0.81811506 0.04555948
0001c0 f9 a6 ee 3e 16 3c 95 3e 20 2b 3b 3d bf 26 88 be
       0.46611765 0.29147404 0.045695424 -0.2659206
0001d0 25 28 11 3f 83 79 64 be 72 aa a2 3f e7 15 28 3e
       0.5670188 -0.22311978 1.2708266 0.16414605
0001e0 a3 59 42 3d 6e 12 43 3f 2e 69 14 bf f7 0f 7c bf
       0.047448765 0.76199996 -0.5797299 -0.9846186
0001f0 ca 4b 1f bf 7d a7 1d 3e 3a e6 2f 3f 2d c0 c9 3e
       -0.6222502 0.15395923 0.6871067 0.3940443
000200 f9 c2 87 be 2d 23 82 bf 5a 52 71 be d3 c1 20 3e
       -0.2651594 -1.0166985 -0.23566571 0.15698938
000210 f1 68 8d bf 88 bf bd bf a3 cc 2f 3d 49 1a 0e 3f
       -1.104765 -1.4824076 0.042919766 0.5550886
000220 a7 5d 07 3d 9b 32 86 bf 55 2d 19 bf 53 f7 2c bd
       0.0330483 -1.0484194 -0.59834796 -0.042228054
000230 00 ad 9a bf 89 a8 5b be d7 b7 14 bf 2f 97 9d 3e
       -1.2084045 -0.2145101 -0.5809302 0.30779406
000240 d9 de 04 3f b8 b6 e7 bf c8 1a 03 c0 18 1b 27 bd
       0.5190254 -1.8102636 -2.0485096 -0.040797323
000250 40 14 47 be f3 a1 a4 bf be 3a d6 bd cd c9 db 3e
       -0.19441319 -1.2861923 -0.10460423 0.429274
000260 35 ee 3c bf 05 57 5b bf e3 5e 25 3e d0 63 23 3e
       -0.73800975 -0.85679656 0.16149478 0.15956044
000270 57 da 38 3f 9f 1c 95 bf 5e 65 07 bf e0 3f de bd
       0.7220816 -1.164936 -0.5288905 -0.10852027
000280 6e 33 c5 bf 81 4f e2 3f 38 26 4b 3d 89 be 1a 3f
       -1.540632 1.7680513 0.049596995 0.60446984
000290 52 7e e5 be c0 13 77 be 3b 62 1c c0 6f cd e3 bd
       -0.44822937 -0.24128628 -2.4434955 -0.11123168
0002a0 06 be f9 be 9b 40 3d bf 7c e6 01 bd e7 2f 91 be
       -0.4877779 -0.73926705 -0.031713948 -0.2835686
0002b0 77 f5 72 3f d4 01 8c 3f 97 97 7c 3e 6f aa 12 bf
       0.949058 1.0938058 0.24667202 -0.5729131
0002c0 27 6c 19 bf d5 3f d7 bf cd eb ac bd 12 90 25 3e
       -0.5993065 -1.6816355 -0.08443413 0.1616824
0002d0 a4 73 bf 3e 72 1a 70 bf b0 de 74 3f 33 66 92 be
       0.37392914 -0.9379035 0.95652294 -0.28593597
0002e0 a5 e3 25 bf 38 d5 5a 3e 82 2d 60 bf ee e6 a0 3f
       -0.64800483 0.21370399 -0.8756944 1.2570474
0002f0 30 e8 21 bf e8 ee 42 3f dc 9a 1c be 6c a2 71 be
       -0.63244915 0.7614579 -0.15293449 -0.23597115
000300 7e 4a 24 bf 18 e8 ec 3e de 27 14 3f 8e 7b 79 be
       -0.64176166 0.46270823 0.5787333 -0.24363539
000310 6b 1b ab 3e fb c8 61 bf cb e8 34 3f 65 f6 37 bf
       0.33419356 -0.88197297 0.70667714 -0.71860343
000320 87 01 3a bf 6a b5 50 bd 5e 92 cb 3e 49 e3 f1 bd
       -0.7265858 -0.05095426 0.39760107 -0.11810929
000330 b9 f2 0b bf b5 a6 98 3f 10 4f 9d bf 7d 40 9a be
       -0.5466724 1.1925875 -1.2289753 -0.30127326
000340 a2 cd a6 3e b5 94 2a bf 52 82 f2 3e c7 55 09 bf
       0.3257876 -0.6663316 0.47365052 -0.5364651
000350 e6 77 8d 3e 97 b1 59 bf 38 0f 1c 3f 9e 03 a1 3f
       0.27630538 -0.85036606 0.6096072 1.2579229
000360 35 40 df be 62 94 12 bd c7 87 0e 3f ac de a8 3e
       -0.43603674 -0.03578604 0.5567593 0.32982385
000370 a3 8a 54 3d 30 41 bd 3e f1 f0 36 3e 78 0f 93 bf
       0.051890027 0.36963797 0.1786535 -1.1489096
000380 6e 45 c5 bf 4e f8 8c be 2a 3f 19 3f 5f 11 a0 be
       -1.5411813 -0.2753319 0.59862006 -0.31263253
000390 03 3b d4 bd b5 4e 5c 3f 56 c7 da be 0e eb 90 3e
       -0.10362818 0.860576 -0.42730206 0.28304332
0003a0 a2 a3 23 be 28 bc 88 bf 1e e9 00 bf 41 cd 06 bd
       -0.1598039 -1.0682421 -0.5035571 -0.03291059
0003b0 dc d6 da bd 6d ba 05 bf 89 e9 92 be 31 d6 f8 3d
       -0.106855124 -0.5223759 -0.28693798 0.12150229
0003c0 9c 50 63 3f 58 bf f9 3e a6 87 6e bd 77 25 63 bd
       0.88794875 0.48778796 -0.058234833 -0.05545565
0003d0 50 3a 40 3f 12 62 f7 bd 4f 02 82 3f 9b 88 d0 3e
       0.7508898 -0.12079252 1.0156955 0.40729222
0003e0 db 9a 20 be 5f eb 00 c0 10 e3 a6 3d db 89 9f be
       -0.15684073 -2.014366 0.081487775 -0.31159863
0003f0 bc 12 89 bf 1e 69 b8 3e a8 78 32 3e 9d 77 3a bf
       -1.0708842 0.36017698 0.17428839 -0.72838765

fc3.bias f4 [64]
000000 3d cc 97 3e 91 20 ea bc 29 5a 75 be a1 db 5f 3e
       0.2964801 -0.028579982 -0.23960175 0.21861126
000010 88 36 69 bf ef a3 7b bd f0 03 06 bc cb f8 1a bf
       -0.91098833 -0.061435636 -0.00817965 -0.6053588
000020 fb 26 3b bd 79 63 fc be ad b4 d3 3d dd fb 76 bf
       -0.04569147 -0.49294642 0.103371955 -0.9647806
000030 2d bd d6 3c 93 7d a4 3c 8e 6c 40 bf 9f 08 71 3e
       0.026213253 0.02007941 -0.7516564 0.23538445
000040 9d c9 2a 3e 9e a2 a5 3e f4 4d ac be c1 bd 30 bf
       0.16678472 0.3235063 -0.33653224 -0.6903954
000050 46 22 89 be cb 63 98 3c 63 88 c1 3e 18 63 27 be
       -0.2678396 0.018602272 0.37799367 -0.16346395
000060 61 bd 88 3e cd b9 5e 3e 4e ce 21 3f 3b 25 f4 be
       0.26706985 0.21750565 0.6320542 -0.47684655
000070 6c ca 70 3e 99 d5 1d 3f 28 a1 d6 be 9c d6 77 bf
       0.23514718 0.6165405 -0.41919827 -0.9681184
000080 b9 8d e4 3e a5 d0 44 3f 45 a7 1e be 3a 47 8a be
       0.44639376 0.76880866 -0.15493496 -0.27007467
000090 22 a3 57 bf 6c a5 04 bf 70 3f 89 3f d3 bb 32 3f
       -0.84233296 -0.51814914 1.0722485 0.69817847
0000a0 af 59 59 3f d3 34 69 be 77 a0 8a bf 20 8e 02 be
       0.8490247 -0.22774057 -1.083022 -0.12749529
0000b0 ab bf f3 bd ad 2e 99 be d9 59 d0 be 75 5d 6e be
       -0.11901792 -0.29918423 -0.40693548 -0.23277839
0000c0 e6 9d 4b 3d fa 25 2b 3e b9 bf 27 bf 9e 8e a9 3e
       0.04971113 0.16713706 -0.6552692 0.3311662
0000d0 dc 4a d0 be cc c7 f7 be 53 3b 68 3e b5 9a 28 3f
       -0.40682113 -0.4839462 0.2267888 0.65861064
0000e0 b8 74 a0 be 81 2d 12 bf 5c 84 0a bd 6c 19 4e be
       -0.3133905 -0.57100683 -0.033817634 -0.20126885
0000f0 fb 7a 9a 3e d0 d8 d6 3c 3c 21 e9 3e e6 8e 18 3d
       0.30171952 0.026226431 0.45533168 0.037245654

action_out.weight f4 [5, 64]
000000 9e 9b 51 bf d5 e9 b2 3f 32 46 5c 3f 2f 99 11 c0
       -0.8187808 1.397761 0.8604461 -2.2749746
000010 c7 4b 52 be 40 9b c8 3d 02 0e a8 3e 83 a1 ab bf
       -0.2053672 0.097952366 0.32823187 -1.3408664
000020 92 65 c2 3d 33 b6 0d 3f 1d e2 03 3f 74 6d 61 bf
       0.09492029 0.5535614 0.51516896 -0.8805764
000030 89 3e 94 bd 55 bf 69 bf 03 fe af 3f 1e 63 37 3e
       -0.0723849 -0.91307575 1.3749393 0.17908904
000040 1b 83 a1 be 8b 27 41 bf ac 7a a8 be 31 d2 f9 bd
       -0.31545338 -0.7545096 -0.3290609 -0.12198294
000050 e5 ad ce bf 2a 3c a7 3f ab 61 5d 3f 16 34 30 bf
       -1.6146818 1.3065236 0.86477154 -0.68829477
000060 64 b2 e2 3d f4 cc 42 be 34 96 5e 3f fe ff b4 bf
       0.110691816 -0.19023496 0.8694794 -1.4140623
000070 97 a1 09 c0 8f 7e 1a bf ba 64 9f 3f fa e9 45 bf
       -2.1504877 -0.60349363 1.2452614 -0.77310145
000080 e3 d0 83 3f 2a 23 4a be e6 71 94 be 20 61 3a bf
       1.0298122 -0.19739977 -0.28993148 -0.7280445
000090 75 20 94 bd 16 c9 fa be 43 de cf 3f 66 34 a8 3f
       -0.07232753 -0.4898154 1.6239704 1.3140991
0000a0 be c4 c3 3e 51 3b 6c bd d9 64 12 c0 2c ff c1 3c
       0.3823604 -0.057673756 -2.2874053 0.023681246
0000b0 d4 0f 33 3e dc c2 ee be 71 3e 05 bf b4 28 b2 3f
       0.17486507 -0.4663304 -0.52048403 1.3918672
0000c0 79 12 18 3f a2 84 51 3f a4 78 bf 3e eb f0 9d be
       0.5940319 0.81843007 0.3739673 -0.30847868
0000d0 01 a4 21 bf 8c 4a b9 be ea 14 c1 3d 49 9f 1a 3f
       -0.63140875 -0.36189687 0.09427817 0.603993
0000e0 ef 5f 11 bf 9d 26 96 bf 4f 50 30 bc 4c 13 7f 3f
       -0.5678701 -1.1730534 -0.010761335 0.9963882
0000f0 77 97 29 be 23 38 ae bf f3 22 ea 3e a5 c2 ce 3f
       -0.16561686 -1.3610882 0.4572979 1.6153151
000100 4f ad 98 bf 84 17 34 bf 0b 40 8c 3f 16 ab 9b 3f
       -1.192789 -0.7034838 1.0957044 1.2161586
000110 32 97 00 bf 1e 56 87 bd 26 1c 46 bf 24 a5 02 bf
       -0.50230706 -0.066082224 -0.773867 -0.51033235
000120 0d ae ba 3f be f4 e5 be 44 3e 5f be 0a ea 4d 3f
       1.4584366 -0.44913286 -0.21801096 0.8043524
000130 bc 79 31 3c 9d 14 da 3f 67 6b f1 be 6a ef 69 3f
       0.010832246 1.7037541 -0.47152254 0.9138094
000140 a3 e1 5b bf 3b 70 2d 3d f4 c6 88 bf a4 e7 31 3f
       -0.8589117 0.04234336 -1.0685716 0.6949408
000150 da 0d 86 bf 34 8c b4 bf fb 8c 19 3f 53 f4 f0 bf
       -1.0472977 -1.4105287 0.59980744 -1.8824562
000160 b7 c0 42 3f ce ac 4d bf 90 02 50 3f 9f b7 53 bd
       0.7607531 -0.80341804 0.8125391 -0.051688787
000170 89 77 19 3f 55 c8 ce 3e af 02 3b be a1 40 d2 be
       0.5994802 0.40387216 -0.18262742 -0.41064933
000180 1f 44 23 3f f6 0b 10 3f 53 be d5 3e ca c7 b2 3e
       0.6377582 0.5626825 0.41746768 0.34918052
000190 5e 74 30 bf fc da 10 bf 49 2a 44 be 37 2b 10 bf
       -0.6892756 -0.56584144 -0.19156756 -0.5631594
0001a0 42 59 5e 3e c9 36 18 3f 76 ef 0c bd 9a 03 3d c0
       0.21713737 0.59458596 -0.034408055 -2.9533448
0001b0 17 71 ea bf d2 32 1a 3f c7 24 b1 bf 71 e4 b7 3e
       -1.8315762 0.60233796 -1.3839349 0.35916474
0001c0 8d 1b ab 3e d6 4d 4d bf be 59 b1 3e 7a 84 36 bf
       0.33419457 -0.80196893 0.3463878 -0.71295893
0001d0 d5 2e af bf 3b 0d eb 3d 01 7c 63 bf a4 31 91 be
       -1.3686167 0.11477133 -0.8886109 -0.28358185
0001e0 b9 70 ee be 83 c9 98 3f ba 0b 07 3d 94 25 a9 bd
       -0.46570376 1.1936496 0.032970168 -0.082591206
0001f0 0d 34 c3 be 25 9c 16 3f 09 6f 12 3f 33 c5 86 be
       -0.3812565 0.5883201 0.57200676 -0.26322326
000200 04 40 77 3f 54 e0 80 3f 11 80 98 bf e6 47 37 bf
       0.96582055 1.006846 -1.1914083 -0.71594083
000210 cf ba 29 bc 29 eb 89 3d e4 fd 78 3f 38 dc 96 bd
       -0.01035948 0.06734306 0.97262406 -0.07366222
000220 d9 82 bc bf aa 29 30 3f 0f f9 5a bf 82 4b 70 bd
       -1.4727432 0.68813574 -0.85536283 -0.05866576
000230 14 ee 4c 3d e9 77 05 c0 da ab 08 3f 71 ae 19 bf
       0.050031736 -2.0854437 0.53387225 -0.600318
000240 5f 1a da 3f e7 f9 62 bf ab 0a 83 3f 3a 62 3b bf
       1.7039298 -0.8866257 1.0237631 -0.73196757
000250 1a b7 27 3d 96 7a 6c be a4 35 31 bf 94 81 2c bf
       0.040946104 -0.23093638 -0.69222474 -0.6738522
000260 b0 83 92 3e 4b c9 ad 3f ca 60 23 40 cf 8e d1 be
       0.28616095 1.3577055 2.5527825 -0.40929267
000270 4e 46 58 bf a5 f2 9c be e2 49 34 3f d7 d0 a7 3f
       -0.84482276 -0.30653873 0.70425236 1.3110608
000280 97 98 b3 bf 9d 14 04 3e b3 0a da bd 47 fd c0 3e
       -1.4030942 0.12898488 -0.10646572 0.37693235
000290 81 99 a2 3f 84 38 72 3f 23 97 af bc 22 f5 07 3f
       1.2703096 0.94617486 -0.021434372 0.5310842
0002a0 e2 37 cd be 4a 96 6f 3e 7f c2 98 bf dd 79 aa 3f
       -0.40081698 0.23397174 -1.1934355 1.331844
0002b0 34 5c 64 3f 2c 49 82 3d 77 c1 07 3f 53 bc 6e 3f
       0.8920319 0.06361613 0.5302958 0.9325611
0002c0 dd f1 bc be ed de 07 3e 2e ce 68 3f 38 a7 f5 3e
       -0.36903277 0.13268633 0.90939605 0.4797914
0002d0 ab 75 c6 3f 2f 1e e8 be 15 83 89 bf 97 4b 41 3b
       1.550466 -0.45335528 -1.0743128 0.0029494518
0002e0 3b 83 3a 3f 4d 28 12 bf 98 56 a8 3d 92 73 cb be
       0.7285649 -0.57092744 0.082196414 -0.3973661
0002f0 4b 6b 8d bf d5 08 e6 be 33 62 b9 bf 4d 28 94 3f
       -1.1048368 -0.44928613 -1.4483093 1.1574799
000300 23 1f 27 3e d4 78 66 3e c7 4a 39 be aa a5 0d 3e
       0.16320471 0.2250703 -0.18094932 0.13832727
000310 33 36 ac 3f 8b 15 24 be fe 9b db bf 5f c7 a9 3e
       1.345404 -0.16023843 -1.715698 0.3315992
000320 36 b8 3e bf 37 db e6 bf 5c e0 ac bf 39 12 75 3f
       -0.74499834 -1.8035649 -1.3505969 0.9573093
000330 df 28 e6 3d 91 a2 03 3f a8 1d fe 3d ac 6f 4c 3e
       0.11238264 0.5141993 0.12408 0.19964474
000340 0f c7 9c 3e 26 5b 3e bf dc b6 ad bf f8 5c 15 be
       0.3062062 -0.7435783 -1.3571429 -0.14586246
000350 0d 9e 9f 3e 28 00 49 be 7f 74 63 bf e2 53 6f 3e
       0.3117527 -0.19628966 -0.88849634 0.23371843
000360 ea 94 5b 3f e3 d2 a1 3f 23 89 0c be 16 2b e8 bd
       0.857741 1.2642483 -0.13724189 -0.11336343
000370 f6 28 84 3f 20 c3 e5 be 92 17 96 3f 60 f1 99 3f
       1.0325 -0.4487543 1.1725943 1.2026787
000380 c8 9c ab bc e5 f0 15 3f 6a 49 5e 3e 13 3c 05 bf
       -0.020948783 0.585707 0.21707693 -0.5204479
000390 83 fb c4 be 06 f2 b5 3f e2 10 39 bf 1a 99 a5 3e
       -0.38473138 1.4214485 -0.72291386 0.3234337
0003a0 48 ce 01 3f 36 49 13 bf 6f 80 43 bf a6 3d 8f 3e
       0.50705385 -0.57533586 -0.7636785 0.27976722
0003b0 95 0a bf bf bf 6a 94 bf 88 5d 23 bf b3 2e b4 bf
       -1.4925104 -1.1595076 -0.6381459 -1.4076751
0003c0 98 12 d9 3f 17 5e 5d bf b1 92 31 c0 7b 19 31 3f
       1.6958799 -0.86471695 -2.7745783 0.69179505
0003d0 d1 1e 51 bf 0f 2f 67 3f 8e 12 bd bd de f6 ba 3f
       -0.8168765 0.9030618 -0.09232055 1.4606588
0003e0 c6 93 39 3e 20 33 98 3f 30 c7 43 3c 56 cc da bf
       0.18122777 1.1890602 0.0119493455 -1.7093608
0003f0 52 26 0b 3e 4a dc 56 3f c7 31 a2 3e 62 68 98 bd
       0.13588837 0.83929884 0.31678602 -0.074417844

action_out.bias f4 [5]
000000 d3 0b a8 3e e1 d8 12 bb f6 22 ec 3d 98 da 85 be
       0.3282152 -0.0022407102 0.11530106 -0.26143336
000010 be c8 59 bf
       -0.85071933
