model/simple_tag/agent_2/1_critic_params.pkl (torch_old, 51179 bytes, 7 tensors)

fc1.weight f4 [64, 63]
00000000: e1f2 ccbd cf69 0a3e 9775 083e 0aca 10be
00000010: 2b63 6bbe 62e0 04be 68f1 e1bd 9ad6 b1ba
00000020: 6d10 e33f aa0c 4bc0 fd25 55be 78a1 873f
00000030: db16 c9bf 22eb 2941 2fb5 78bd 0f7e 293f
00000040: e993 dd3e b1dc 8fbe e67a 0a3d 8c8d c5be
00000050: 3aab 883e 98b0 6a3e ecc2 383e 0f1d 373e
00000060: f7f8 e7bf 68ec 4b40 28f0 fdbf efd9 8e40
00000070: b0c4 95c0 4380 9a41 3046 1b3e c411 063f
00000080: f602 cc3d ff6f 67be 6913 9ebd 6cef a03e
00000090: 03b1 bdbd cf90 c3be ef30 78be b281 83be
000000a0: 77b9 af3e 86f6 88bf 5804 ed3f 55f2 8dc0
000000b0: aa03 61c0 e2c4 4a41 44bf 433d 4a3e 0b3f
000000c0: c2fd 4abd e660 893d b245 e2bc 2e76 6b3e
000000d0: 7ec6 cc3c 8de8 a03b 6867 c53d 2310 0fbe
000000e0: a5b5 24be 885c 363e 655a 80bc b7d4 05bd
000000f0: 22a4 ba3c 1a4f acbd 12da f23d 16e1 063f
00000100: cdf7 35be e806 0a3e 87b9 fe3d 32d6 91be
00000110: 8464 3c3e 7ba8 aabd 2ab5 7dbd f635 0bc0
00000120: af4c 383f e8ad 25c0 e658 e03e 57e1 24c2
00000130: edf8 0442 d117 a23c dab5 733c e2a1 673c
00000140: b5d2 d33d 2967 c8bc ebdf 6fbd add6 383c
00000150: 4d7c 2dbe 7da2 bfbe 6e69 f13d bcaa 0e40
00000160: 4dde 41bf 29bb 163e 3a08 fa3e b626 9bc0
00000170: bbfd 703f d970 38be c138 01be c95d ec3d
00000180: fb0d 253e 92ce bdbd 8420 4fbe 6b06 963e
00000190: 393f 9bbd 3eaf db3e 586d edbc 92e0 1f40
000001a0: 4cc1 cebe 47f0 7fbe 503d 09bf c7d1 cbc0
000001b0: 7db1 9e3f c96f 04be 4852 bbbd 424a 15be
000001c0: ef6e 113d 5442 debc 783b f13d c4ed f03c
000001d0: 34f6 2ebd 6b1a 923c eab4 09bd 2e56 9b3d
000001e0: b208 36bc 4c16 aa3c cfb8 2d3d 1b1c c7bd
000001f0: 188b 233c 8730 ba3d 8c7f c23f 2d67 f03f
00000200: 56f6 f7bd b55f afbe 53dc 92bf 0f58 e63e
00000210: 44ff 8d3e 99a4 68be 8370 8dc0 dfbd eebe
00000220: babe 74bf e9db 8abf e0b1 32c0 f7cb 48c0
00000230: 3a79 bdbf ff07 353f cc26 10bf 7fe1 d5bd
00000240: f4ff 4bbf c041 353e 71b0 e2be ffda a83d
00000250: b726 c93e b104 81bf 3bf1 8f40 5000 223f
00000260: bd04 3140 9e7d f83c e443 ef3f 7fa3 85c0
00000270: 9cdc bcbf 5bc3 243f 4b0a 253f c1fa 39be
00000280: 2dcd 87be cc40 0abf 5c63 75be c539 7b3d
00000290: 7a7d a0bd c46b 15be b19c 693f 15de 893f
000002a0: eff8 31c0 b0f6 eabd 635f 3f3e 17b4 b6c0
000002b0: 7226 cabf 93bb 373f a668 2cbe 0e53 143f
000002c0: 68ea 35be d033 2a3f 5835 fbbb 1c33 24be
000002d0: fb30 313e c8b2 203f 1229 8fbe e48e b3bb
000002e0: 9feb 02be 5ec0 523f ed56 13be 704c aa3d
000002f0: 5e7c 94be fb4c aabe 3b0b a53e 85cd c9be
00000300: 99b8 a9be cfad fa3e 2dcd 143f 9e24 b53e
00000310: ef41 0e3f 86b0 5a40 6026 3640 bd11 1cbe
00000320: 7e67 893f a208 00c1 7c67 05c1 e5d1 d1bf
00000330: 9c67 72bf 55c8 7d40 2b66 a63f d2b9 543f
00000340: 9986 493f 54fe c6be ca2d 29bf 5696 20bf
00000350: d508 45bf 8a14 59c0 ca3e 2ec0 b7d8 2ec0
00000360: 0775 78bf 91bf 22c1 282f d9c0 9f94 dabf
00000370: 81ca 8dbf 267f ddbe 18f1 a63e 2fc5 4abe
00000380: 15e4 7dbe e51b 423e 0a50 82bc 9ec7 f63d
00000390: 66f4 2d3e e6e7 693d f909 64bf 13c8 2d40
000003a0: 1bc8 883f 9395 a5c0 eb10 a7c0 ad53 efbf
000003b0: 49ae 8cbf d8ee 32bd ff73 c13c 4cac 5cbe
000003c0: 22ff 853e b2b6 03bf 64fb 35bd b467 a63f
000003d0: fed4 d8bf baa7 e73e 05cd dfbe 8fbf 063e
000003e0: 19a5 d4bd 1c66 b33e fd40 d73d 7290 983d
000003f0: 331a 3dbf c410 f0be 2f04 323e e17f b13f
-0.10007263 0.13516925 0.13326107 -0.14139572 -0.22987048 -0.1297622 -0.11032373 -0.0013567985
1.7739388 -3.172648 -0.20815273 1.0596151 -1.57101 10.619905 -0.060719665 0.66207975
0.4327691 -0.28098062 0.03380861 -0.38584554 0.26693135 0.22918928 0.18043107 0.17882179
-1.8122853 3.186304 -1.9838915 4.464103 -4.6802597 19.312628 0.15163493 0.5237086
0.09961502 -0.22601317 -0.07718546 0.31432664 -0.09262278 -0.38196418 -0.24237417 -0.25684887
0.34321186 -1.0700233 1.8516951 -4.4358315 -3.5158486 12.673067 0.047789827 0.5439192
-0.04955841 0.06707935 -0.027621124 0.229943 0.024996992 0.0049105347 0.09638864 -0.13971
-0.16084917 0.17808735 -0.015668103 -0.032673564 0.022783343 -0.08413525 0.11858 0.52687204
-0.1777031 0.13479197 0.1243773 -0.2848373 0.18397719 -0.08332916 -0.06194035 -2.1751685
0.7199201 -2.5887394 0.43817824 -41.22006 33.24309 0.019786747 0.0148749 0.014137717
0.103429236 -0.024463253 -0.058563154 0.011281651 -0.16941948 -0.37428656 0.11787687 2.2291708
-0.7572983 0.14719833 0.488344 -4.8484755 0.9413716 -0.18011798 -0.12619306 0.115413256
0.16118614 -0.09267916 -0.20227247 0.29301772 -0.07580418 0.42907137 -0.028982803 2.4980817
-0.4038185 -0.24994002 -0.5360918 -6.3693576 1.2397915 -0.12933268 -0.09146553 -0.14579108
0.035506185 -0.027131237 0.11778921 0.02941025 -0.042715266 0.017834863 -0.0336198 0.07584797
-0.011110472 0.020762585 0.042412575 -0.097221576 0.009981893 0.09091287 1.5195174 1.8781487
-0.12107532 -0.34252706 -1.1473488 0.44989058 0.27733815 -0.22719039 -4.4199843 -0.46629235
-0.95603526 -1.0848361 -2.7921066 -3.137449 -1.480262 0.70715326 -0.563092 -0.104434006
-0.7968743 0.17700863 -0.4427524 0.08244895 0.3928735 -1.0079557 4.498197 0.63281727
2.7659142 0.030333336 1.8692594 -4.176208 -1.4754825 0.6436059 0.6446883 -0.18162061
-0.26523724 -0.5400512 -0.23963684 0.06133439 -0.07836433 -0.1459189 0.9125472 1.0770899
-2.7808187 -0.11472833 0.18688731 -5.7094836 -1.5792983 0.7177059 -0.16836795 0.5793923
-0.177652 0.6648531 -0.007666271 -0.16035122 0.17303841 0.627728 -0.27961022 -0.0054796804
-0.12785195 0.8232478 -0.14388628 0.083153605 -0.29001135 -0.33261856 0.3223513 -0.3941461
-0.3314865 0.4896073 0.58125573 0.353795 0.55569357 3.4170241 2.8460922 -0.15241142
1.0734708 -8.002108 -8.337765 -1.639218 -0.94689345 3.9653523 1.2999929 0.8309604
0.78721005 -0.38865912 -0.66085494 -0.62729394 -0.769666 -3.3918786 -2.7225823 -2.7319772
-0.9705357 -10.171769 -6.7870064 -1.7076606 -1.1077424 -0.4326107 0.32605815 -0.19801782
-0.24794038 0.18955953 -0.015907306 0.12049793 0.16987762 0.05710592 -0.8907772 2.7153366
1.0686067 -5.1745086 -5.220815 -1.8697411 -1.0990688 -0.04368481 0.023614882 -0.21550101
0.26171213 -0.51450646 -0.044429198 1.3000398 -1.694 0.45245153 -0.43711105 0.13159011
-0.103830524 0.3503884 0.105104424 0.07449426 -0.738681 -0.4688779 0.17384408 1.386715

fc1.bias f4 [64]
00000000: 1a00 943f 3b9b 503f 07d5 90c0 ea85 c7be
00000010: a611 dfc0 7c22 b0be 487a 43c1 42fc 353e
00000020: 4015 2441 3447 6bbe f6ec c83f 2f6e 6840
00000030: a799 d6bd 6874 ddc0 c275 cd3e 99fe b4bf
00000040: 0294 63be 6dc0 c63e df7d e0be b9a1 dfbe
00000050: 3f7f 03be ac50 ae3f d749 81c1 f659 c8bf
00000060: da5a 36c0 cd99 5dc1 ac5f 4bc1 68e3 1cbf
00000070: 691e c1be 3822 dec0 9328 0cbf 3609 8e41
00000080: e606 bcbf 9e61 82c1 5cdc 533f 16e8 8bbe
00000090: 9c48 4540 d7bb aac0 fe0c 60c1 deae 84bf
000000a0: a3b3 fabf a776 e83e 3719 01c1 24f3 48c1
000000b0: ee17 2cbe 0419 58c1 9726 ccc0 a8f4 edbe
000000c0: c71c cfbe 7cf5 93bf 8348 59bf 3fd3 86bf
000000d0: 323c d6c0 dd60 093f b976 1ebf 0459 87c0
000000e0: d7da 02c1 739b 8c41 4d75 683f a748 1ebf
000000f0: 10d5 50c0 4031 1c41 498d a4c0 8a94 9440
1.1562531 0.8148686 -4.5260043 -0.38969356 -6.9709044 -0.3440131 -12.217354 0.1777201
10.255188 -0.2297638 1.5697315 3.631725 -0.104785256 -6.9204597 0.40128905 -1.4140197
-0.22224429 0.38818684 -0.43846032 -0.43678072 -0.1284151 1.3618369 -16.161055 -1.5652454
-2.8492951 -13.850049 -12.710857 -0.61284494 -0.37718514 -6.941677 -0.5474941 17.754498
-1.4689605 -16.297665 0.82758117 -0.27325505 3.0825567 -5.3354297 -14.003172 -1.0365865
-1.9586071 0.45403025 -8.068656 -12.5593605 -0.16806003 -13.506107 -6.3797107 -0.4647572
-0.40451643 -1.1559291 -0.8487627 -1.0533217 -6.694848 0.53663427 -0.61899906 -4.229616
-8.178428 17.575903 0.90803987 -0.6182961 -3.2630043 9.762024 -5.1422467 4.643132

fc2.weight f4 [64, 64]
00000000: 5fd7 46be abcd 9d3f af73 46bf 1566 3dbe
00000010: cdd7 743f e2ac 0ebf 6a79 0d3e aba5 583e
00000020: 9d0d a1bf 51b5 99bf 27fd 58bf 643a ef3d
00000030: 65d2 113f 341a 253f 2fc7 b93f 84d5 8cbf
00000040: a706 f9be 296d 203f 1665 0b40 b883 8abf
00000050: c9b1 813f 8c05 0b40 8da7 b540 7db6 783f
00000060: 3bce 24be 24ff 0ac0 c8c5 3a40 38e3 0d3d
00000070: 723f 7a3f 8e71 cb3e e72b 1a3d 8a54 a2bf
00000080: a9f8 b1bf 5183 c8bf 3a0c 053d 7cda 813f
00000090: 6ed2 de3e f21f 243f 6e47 2c3f 0b9a 083f
000000a0: 8a69 27bf 1d6f 30be 4050 3cbf 675e b540
000000b0: a5a7 0740 c8da 28bf 70f8 7e3c d8a0 0ac0
000000c0: 95fe bf3d 318e 8bbf 6a48 dfbf 8bdf 213e
000000d0: 3bf3 a63c 00e3 e2bf 5774 42be 71f7 553f
000000e0: 58f7 453f b6f3 10be f4cd 9f3f ca95 923e
000000f0: f7a2 073f fe3b 423f b52d 05bf e613 293f
00000100: 2175 b0bf cfab 9e3f 090d 88be 8432 7c3f
00000110: 3add d03e 61ce c2be cb2e 89bf 6323 213e
00000120: dfaa 36be 0465 8640 e479 3140 37a0 203f
00000130: 2eb4 dcbe 986c e83d a437 793f 261b c83f
00000140: da12 aebe 15fb 5ebe e4d5 4ebf 5c05 773f
00000150: f80c 7ebf f32a 343f ff9d 633f b242 bc3e
00000160: ffe5 e23d 5815 2b3d f29f 9cbd f71d 01bf
00000170: 92f8 97bf 7978 f73e 8ae6 12bf 9d97 61bf
00000180: 9890 b53d 79f1 03c0 42a2 4540 5ba5 8b3e
00000190: 3ed3 33bf ff9d cd3e e198 9c3f e999 69bf
000001a0: f515 f93d d427 633f 61e0 c73f fd54 d2bf
000001b0: f47e a73f 2fcc 1dbf bbbb 9abe 2d98 6c3f
000001c0: 3eb6 5d3d 4392 d7bd 35ac 08c0 e222 ae3e
000001d0: dd1b b63e a176 55bf 5445 3e3f 0dd0 063f
000001e0: db17 9d3c 4162 bcbe c9a2 73be d4ad 483f
000001f0: 7b7c ddbd f611 e93e af84 c7be bccf bbbe
00000200: 0711 f2bf 4a16 473f 3e42 373f 2a34 17be
00000210: a406 26be 2065 353f 101e a3be 690b 473d
00000220: eca4 17bf 677e 57bf e8df 06be 19c5 d1bd
00000230: 65b0 d3be c8db b8be 20af c5bf d802 2ebf
00000240: 033c 4fbf 1ac8 bcbe 1665 1e40 d465 a1bf
00000250: f111 a23f 4897 38c0 623d abbf 94cf d43f
00000260: e620 6dbe 2acd 06c0 aedd 7c3f 91e9 923e
00000270: 3ecf fb3f 923a cb3f 02b8 533f 2327 a23f
00000280: 4240 9cbc 3750 0240 9fc5 05c0 328e ff3e
00000290: fd0b c9bf 0494 77bf 2ac1 acbd 56e9 8f3f
000002a0: aad1 11bf ca0e 153f 15e1 be3f e829 943f
000002b0: c5e5 903e 7f08 f0bc efe2 293f 8a4e 22c0
000002c0: de14 27bf eb31 273d 6597 c43f 4e64 7c3d
000002d0: e6d9 e1be 6488 6fbd 609d 253f ce2a 313e
000002e0: 326f 063f 6859 bb3e 68a5 01bf d96c 64be
000002f0: 617f 12bf d1d3 c53e 20ec 4cbf 58a6 aa3e
00000300: 6233 ff3f 6e6d 6abe 0888 a03e b671 803f
00000310: 1c67 893f 0e8b 303f f786 c6bf 8775 94be
00000320: 277c df3e fd12 83be 3c5b 1b3f 8b50 03bf
00000330: dda3 513e 50f2 6cbd 7989 f13d 142b 44bf
00000340: c622 603f 376f 8f3f 9802 93be a5d1 97bf
00000350: be63 213e 6487 86bf b470 5a3f 8566 a6bf
00000360: d312 98be 36eb bb3f c132 25bf 7841 953f
00000370: 2f28 7bbb 9bed 77bf 89af 763f 8c24 15be
00000380: 163f 993b 4828 b4bf 8ead 463e 7803 e43d
00000390: 3f88 e0bf 1768 cd3f 930d bf3e ce6d ab3e
000003a0: 78e9 f0be e1dc adbf 6f1d b73d e7b0 9dc0
000003b0: 7891 60bf ccb1 243e 48af f2bf 8699 c0bf
000003c0: 34f6 f33d 7593 edbe e15e acbf a2fa 893e
000003d0: 4f6d 67bf 441d 47bf d150 1b3f 4ec5 ae3e
000003e0: 4bd3 5b3f db77 e8bd ae28 3f3f 168e f83f
000003f0: c2b2 893f c7ba 6dbe fa03 9a3f 41b6 973c
-0.19418095 1.232839 -0.7752027 -0.18495972 0.95641786 -0.5573255 0.13815847 0.21156947
-1.258228 -1.2008458 -0.8476128 0.11681059 0.5696166 0.6449311 1.4513911 -1.100266
-0.48637888 0.62666565 2.1780448 -1.0821447 1.0132381 2.1722136 5.676703 0.97153455
-0.16094296 -2.1718225 2.9183216 0.03464052 0.9775306 0.39735073 0.037639525 -1.2682049
-1.390401 -1.5665075 0.032482363 1.0144801 0.4351992 0.64111245 0.67296493 0.5336005
-0.65395415 -0.17229886 -0.7355995 5.6677737 2.1196072 -0.65958834 0.015562162 -2.1660671
0.093747295 -1.0902768 -1.7443974 0.15807931 0.020379653 -1.7725525 -0.18989693 0.8358069
0.7733054 -0.14155468 1.2484727 0.28629905 0.5298304 0.7587279 -0.5202287 0.6604599
-1.3785745 1.2396182 -0.26572445 0.9851458 0.40793782 -0.3804808 -1.0717405 0.15736155
-0.1783862 4.199831 2.7730646 0.6274447 -0.43106216 0.113488376 0.97350526 1.5633285
-0.33998758 -0.21775468 -0.8079512 0.9649255 -0.9923854 0.70378035 0.8891296 0.36769634
0.110790245 0.0417684 -0.07647695 -0.5043635 -1.1872733 0.483341 -0.57383025 -0.8812197
0.0886547 -2.0616133 3.0880284 0.27274594 -0.70244205 0.40159604 1.2234155 -0.91250473
0.12162391 0.8873265 1.561535 -1.6432186 1.3085618 -0.61639684 -0.30221352 0.924197
0.054128878 -0.10525944 -2.1355107 0.34010988 0.35568133 -0.8338414 0.74324536 0.5266121
0.019176414 -0.36793712 -0.23792566 0.7839024 -0.108147584 0.45521516 -0.38968417 -0.36681926
-1.8911446 0.77768385 0.7158545 -0.14765993 -0.1621347 0.7085743 -0.31858873 0.048594866
-0.59236026 -0.8417725 -0.13171351 -0.102426715 -0.41345516 -0.3610518 -1.5444069 -0.6797309
-0.80950946 -0.36871415 2.4749198 -1.26092 1.2661725 -2.8842335 -1.3378108 1.6625848
-0.23157081 -2.1062722 0.98775756 0.28693822 1.967262 1.5877249 0.8270265 1.2668194
-0.01907361 2.036146 -2.0901868 0.49913174 -1.5706784 -0.9671023 -0.084352806 1.1243083
-0.56960547 0.5822569 1.491244 1.1575289 0.283003 -0.029300926 0.663619 -2.5360436
-0.65266216 0.04081909 1.5358702 0.061619096 -0.44111556 -0.05847968 0.6469326 0.17301485
0.5251342 0.3659165 -0.50643015 -0.22307147 -0.57225615 0.38638166 -0.800478 0.33330035
1.9937556 -0.22893307 0.31353784 1.0034702 1.0734591 0.6896218 -1.5509938 -0.28995916
0.43649408 -0.25600424 0.6068609 -0.51294774 0.20472665 -0.057848275 0.11793799 -0.7662823
0.8755306 1.1205815 -0.28712916 -1.1860853 0.15760705 -1.0510068 0.8532822 -1.3000036
-0.29701862 1.4681156 -0.6453057 1.1660604 -0.0038323512 -0.9684693 0.96361595 -0.14564723
0.00467671 -1.4074793 0.19402143 0.11133474 -1.7541579 1.6047391 0.37315044 0.33482212
-0.47053123 -1.3583032 0.08941161 -4.9278445 -0.8772197 0.16083449 -1.8959742 -1.5046852
0.11912194 -0.46401563 -1.3466455 0.2694903 -0.90401167 -0.7777903 0.6067019 0.34134907
0.8586928 -0.113509856 0.7467145 1.9418361 1.0757678 -0.23215781 1.2032464 0.018519523

fc2.bias f4 [64]
00000000: 721b 93c0 c04c 0dc1 0a73 1d41 8a9d 7640
00000010: 1af0 9ac0 18e9 1840 8b0b 2bc0 c6a0 4e3e
00000020: f404 b43f 3091 0dc0 84e7 75c0 8f86 563f
00000030: 779d eb40 32e9 5641 cd0f a0c0 dac5 2f41
00000040: aa71 63c0 2090 433f 0e9a 43bf 0058 7141
00000050: 78a6 8c41 b4de 33c0 1451 41c0 8882 3c41
00000060: 2e35 0a41 5aec d1c0 1362 6541 12d9 9bbe
00000070: a078 27c0 eee1 5241 830f 0dbf 8cde a8c0
00000080: b0e5 31c0 2364 743f 6560 f93f b8b9 b140
00000090: 9828 8bc0 84c4 34c0 98c4 f440 6f5c 36c0
000000a0: 598e a6c0 47f0 7fbf 27a6 5b40 9399 c340
000000b0: 4441 11c0 0cc4 36c1 ba54 5e3f b3bf b6bf
000000c0: c1fb 70c0 b25a c83f 291f 87bf 66e7 7fc0
000000d0: 0f53 b640 7304 ddc0 faa4 30c0 7ccd c6c0
000000e0: e584 90c0 8316 31bf d141 acbf 620d d6be
000000f0: 7e85 7f40 6d78 743f 76ee 9140 3d47 0ec0
-4.5971003 -8.831238 9.840586 3.8533654 -4.8418093 2.389227 -2.6725795 0.20178518
1.4064012 -2.2119865 -3.8422556 0.8379907 7.362972 13.431932 -5.001929 10.985804
-3.5538125 0.7639179 -0.76406944 15.083984 17.581284 -2.8104677 -3.0205736 11.781868
8.637983 -6.5601015 14.336444 -0.3043905 -2.6167374 13.180159 -0.55101794 -5.2771664
-2.779644 0.95465297 1.9482542 5.5539207 -4.3487053 -2.8244944 7.6489983 -2.8493917
-5.2048764 -0.9997601 3.4320161 6.112497 -2.2696085 -11.422863 0.8684803 -1.4277252
-3.7653658 1.5652678 -1.0556384 -3.9984984 5.697639 -6.906793 -2.7600694 -6.2125835
-4.5162225 -0.69174975 -1.3457586 -0.41807085 3.9925227 0.95496255 4.560359 -2.223098

fc3.weight f4 [64, 64]
00000000: 188f 52c0 fed4 663f 4df9 9abf 609f 2ac0
00000010: ec96 093d 7d6d ee3f feef 8e3f 7a7f b5bd
00000020: 0f4b 35c0 6aaf 42c0 87ca 5cc0 6b10 92c0
00000030: b2cf 593f d2b8 e8c0 7420 26be f0bc 03bd
00000040: 5fd9 fa3f 9c2b 313d b132 a2c0 7341 e93f
00000050: bf32 f2be a863 09c0 5fe7 c3c0 2ac3 01c0
00000060: efbe f73f c08a febf dd66 32c0 ed83 84c0
00000070: 4f05 283f 809c d3bf 5bff a53f 5346 393f
00000080: 6f0c 353f fd0b 78c0 4122 70be 8ee5 95c0
00000090: e491 fabf 9f5d 70bd de71 e2be 8f6c 10c0
000000a0: 47e1 39be 6f7b 8bbe 3c35 ec3f 18bb f0be
000000b0: 56ce 1d40 4698 14c0 5f96 bebf 788c 97c0
000000c0: ed46 9e3d c896 b7bf f4b3 5cbf 78eb 7fbf
000000d0: 9457 f63e 70cd 55bf 69de 36bf 88f1 103d
000000e0: b315 f93e cddd a6be 4300 5abe 62ea f7bf
000000f0: b162 453d ae15 68bc 4630 783f e3ba 4e3f
00000100: e65b 44c0 41d8 6b3d bfb4 e2be 67ae c23c
00000110: e672 a1bf ce32 1c40 d5cb 9840 9417 b5bd
00000120: 647f a53d d58f 643e 16ac 10bf 1e16 913f
00000130: 8c59 2bc0 70d5 d9bf 7484 c6bf d650 a8be
00000140: f6e1 43c0 33e8 be3e 4435 52c0 b081 10c0
00000150: 2942 1cbf d01d bc3f 3ef1 88c0 548b 383f
00000160: 8dda 03c0 028c fdbc 6101 2740 5d79 ae3f
00000170: 3f1a 413f 5cab b4bf 66b3 6a3f 6563 093f
00000180: 7554 0bc0 fae2 0640 d098 f93e c6f4 853f
00000190: 60cb 3e3f 0353 2b3f a890 9b3e 0ded 9dbf
000001a0: 03f0 a8bf f09a 1a3e ab20 de3e 04a6 b03c
000001b0: bd94 2b40 11e8 0a3e 74b1 1840 283f b0bf
000001c0: b34f a0bb 3f9a 11c0 141c 11bf 1f7c 61be
000001d0: 8a13 a83f 5f6a d5bf e9c2 253f 0ff0 1e40
000001e0: 3e70 de3f 491e 743f 1b78 cc3e 3718 7c3f
000001f0: 22ef 5abf b56f acbe a91d 99bf e517 fdba
00000200: 0cff 02c0 f1a1 6cbe efc2 a0bf 9385 74bf
00000210: 1a8a 0f3f 9c02 41c0 5059 3a40 4b87 76bc
00000220: 530e 3ec0 a3af a5be 5951 95bf 3c39 94bf
00000230: 1997 41c0 37b2 88bf b2ac 7c3e 2860 49c0
00000240: f58a 0b3f dc90 f0bf 63ce a4c0 6d27 8fbf
00000250: 5fd0 353f a02d aebf 691c aa3f bfa2 a63e
00000260: 9fb5 cabf 5423 04bf 3d3b 3ac0 3b02 6b3f
00000270: 6860 593e 7dd8 39c0 f0c3 82c0 f163 62bf
00000280: 931a 1cbf 339c df3f 3468 d6bf 3947 09bf
00000290: 9671 c1bd e700 853e 71ea 76c0 2dc1 e7bf
000002a0: e640 cc3f 05f0 abbe b4ec fbbe 8f70 273f
000002b0: 5174 fbbf 41df 873f 92e4 4640 ba1c b0bf
000002c0: 084f 92bf 7977 41c0 b6d3 dc3f 4ea8 7ec0
000002d0: fbc2 8dc0 c9a3 2d3f c2e4 9dbe ae61 aabf
000002e0: 32dd af3d 7b07 b3bf fd05 dfbf e586 483e
000002f0: 0b1d 4b3f 0ec3 84bf 4c3c 8cbe 9269 423f
00000300: 149c 9abf 3ae8 84bf 8abf 01c0 b64a 05bf
00000310: 2fd9 b4bc 7fa4 1ebf bf7a 3d3e f84a af3c
00000320: e41b a93e bf12 103e 2470 babe a246 03be
00000330: 9313 84be 72c5 3ebf 0d7b 07bf 71fd e0bf
00000340: 3d42 9e3d 6208 10c0 a4c0 573e 3dc7 883f
00000350: e7b7 b1bf c15f 7a3f bf84 79bf f9f5 17bf
00000360: 35e5 e5bd f315 62bf 2426 7fbf f824 35bf
00000370: c816 8abf 7e8e c23e a639 18bf 3be8 443f
00000380: 5e83 85bf f013 9b3f f0ae 493f f06a 813e
00000390: 1f7c ccbe 28ec bd3f a466 b6bf 6a14 3bbf
000003a0: c240 d5be 8d35 83bf 1830 9ebf bcf7 adbf
000003b0: fbd1 40be 7ba0 b3be 8d98 5e3f 0645 c2bf
000003c0: 8b1b 1ac0 d6b4 39bd 7fe9 4fbf c684 f3bd
000003d0: c451 f9be ae65 cabe ec6b ff3e 0315 3f3e
000003e0: f1e6 9dbe dc91 473f 4bb2 663f fc39 c73e
000003f0: 3955 a2bf 03e8 10bf 1933 73be 4239 d13c
-3.2899837 0.9016875 -1.210733 -2.6659775 0.033591196 1.8627163 1.116699 -0.08862205
-2.8327062 -3.0419564 -3.4498613 -4.564504 0.8508254 -7.272561 -0.16223317 -0.032162607
1.9597586 0.04325448 -5.068688 1.8223099 -0.4730434 -2.1467075 -6.1219935 -2.0275369
1.9355143 -1.9886093 -2.7875283 -4.141104 0.656331 -1.6532135 1.2968553 0.7237293
0.707221 -3.8757317 -0.23450567 -4.684272 -1.9575772 -0.058683034 -0.442275 -2.256626
-0.18152343 -0.2724261 1.8453746 -0.4701774 2.4657187 -2.321794 -1.488964 -4.735897
0.07728372 -1.434289 -0.86212087 -0.9996867 0.48113692 -0.835166 -0.7143312 0.035386592
0.48649368 -0.32591096 -0.21289162 -1.9368403 0.048189823 -0.014165325 0.9694866 0.80753917
-3.068109 0.057579283 -0.44278523 0.023764802 -1.2613189 2.4406009 4.774882 -0.08842388
0.080809385 0.22320493 -0.5651258 1.1334875 -2.6773405 -1.7018261 -1.5509171 -0.32874173
-3.0606666 0.3728653 -3.284501 -2.2579155 -0.6103845 1.4696598 -4.2794485 0.720876
-2.0602143 -0.03095055 2.6094592 1.3630787 0.75430673 -1.4114795 0.9167999 0.5366729
-2.1770298 2.1076035 0.487494 1.0465324 0.74529076 0.6692354 0.303838 -1.2337967
-1.3198246 0.15098166 0.433843 0.021563537 2.6809533 0.13565089 2.3858309 -1.3769274
-0.0048923134 -2.2750394 -0.5668347 -0.22020005 1.3130963 -1.6673087 0.64750534 2.483402
1.7378004 0.9535871 0.39935383 0.9847445 -0.8552114 -0.33678976 -1.1962177 -0.0019309489
-2.0468168 -0.2310865 -1.2559489 -0.9551632 0.560701 -3.0157843 2.9117012 -0.015046905
-2.9696243 -0.32360563 -1.166545 -1.1579967 -3.0248473 -1.0679387 0.24675253 -3.146494
0.54508907 -1.8794208 -5.1501937 -1.1183907 0.71021074 -1.3607674 1.328992 0.3254604
-1.5836676 -0.51616406 -2.9098656 0.9180028 0.21228182 -2.9038384 -4.086418 -0.8843375
-0.6097805 1.7469543 -1.675055 -0.536243 -0.09445493 0.2597725 -3.8580592 -1.8105828
1.5957305 -0.33581558 -0.49204028 0.65406126 -1.9644872 1.0615007 3.1077008 -1.3758767
-1.1430368 -3.022917 1.7252109 -3.9790225 -4.4300513 0.6782804 -0.3083859 -1.331106
0.085871115 -1.3986658 -1.7423702 0.19582708 0.7934119 -1.0372026 -0.27389753 0.7594234
-1.2078881 -1.038337 -2.0273156 -0.52067125 -0.022076217 -0.6196975 0.18503855 0.021398053
0.3302909 0.14069651 -0.36413682 -0.12819913 -0.25796184 -0.7452003 -0.52922136 -1.7577344
0.07727478 -2.2505116 0.2106958 1.0685803 -1.3884248 0.9780236 -0.9746818 -0.593597
-0.112253584 -0.8831474 -0.9966757 -0.70759535 -1.0788202 0.37999338 -0.59462965 0.76916856
-1.0430715 1.211546 0.7878256 0.252769 -0.39938447 1.4837694 -1.4250073 -0.73078024
-0.4165097 -1.0250717 -1.2358427 -1.3591228 -0.18830101 -0.35083374 0.86951524 -1.5177314
-2.407931 -0.045338474 -0.8121566 -0.11890559 -0.48695195 -0.395307 0.49887025 0.18660359
-0.30840257 0.7795694 0.90115803 0.38911426 -1.2682258 -0.5660402 -0.23749961 0.025539998

fc3.bias f4 [64]
00000000: eff7 2d40 775e c33f e85b 9b3f 22db a0c0
00000010: a6a7 7341 5a86 3d40 47e6 80c0 2453 9041
00000020: 366e b4c0 bb7c 2840 d48a 7140 2b15 d83f
00000030: 125c 44bf 513d babf ed12 8d41 adb4 19c1
00000040: 0a89 c73f d17d 3541 aaaf 5841 9ba4 f2bf
00000050: 05a5 1ebf a0ab 5540 ca73 c9bf 66cd 8bc0
00000060: 666a 90bf 46d7 6cbf 4f34 f53e cac0 2141
00000070: d233 09c0 3a66 4641 a4f6 2ebf a551 2dc0
00000080: c68a 1e3f 214b 2e40 0426 9f40 3a0d 8841
00000090: 7bf5 6e3e c8d0 10bf 3d1e 69c0 b2c3 09c0
000000a0: 1feb 3a40 7094 b3be 8106 83c0 d78f edbf
000000b0: e14b 5a3f fd3c 9340 8f1e 99c0 3f40 21c0
000000c0: cc25 31c0 ec74 0e40 49f7 f1bf da1c 20c0
000000d0: 2bcb 3fbe 2f09 fc3e 57cf 06c1 71a9 cdbc
000000e0: 5494 323d db51 8bc0 e8e0 c33f 3c61 12bf
000000f0: 1a78 a0bf a320 dabc 7473 47c0 2b2d 50be
2.7182577 1.5263203 1.2137423 -5.0267496 15.22843 2.9613252 -4.02811 18.040596
-5.6384535 2.632613 3.7740984 1.688146 -0.7670299 -1.4549962 17.634241 -9.60661
1.5588696 11.343217 13.542887 -1.8956484 -0.6197055 3.3386002 -1.5738461 -4.368823
-1.128247 -0.9251598 0.4789147 10.109568 -2.1437879 12.399958 -0.68345094 -2.7081082
0.619305 2.7233355 4.9733906 17.006458 0.23335831 -0.56568575 -3.6424706 -2.1525693
2.9206007 -0.35074186 -4.094544 -1.8559521 0.8527203 4.601195 -4.7849803 -2.5195463
-2.767932 2.2258863 -1.890359 -2.501761 -0.18729846 0.49225757 -8.42562 -0.02510521
0.043598488 -4.353742 1.5303011 -0.5717962 -1.2536652 -0.02662689 -3.1164217 -0.2032973

q_out.weight f4 [1, 64]
00000000: fb28 7abe bdf8 5ebd 3e8c a73e 33e8 22bd
00000010: 357f ea3d 1bd1 4e3e 486b 9dbc b91b 053e
00000020: 5f59 53bd 4057 81be 9a97 253f 17ce 38bd
00000030: fbab 9bbf c49f 9d3c 4d91 d03e 1980 12bf
00000040: 49d5 9abe 8a49 623d f880 fb3e 3c40 343f
00000050: 3415 473c 371b a03d 85db eabe 337e 1dbe
00000060: 94a3 c7bf bb84 babe 0c4f abbd d5ca 703d
00000070: 2dcc 953e 4be7 da3d 81f4 ef3e cd5c ebbe
00000080: efa2 cb3f ca95 71bd 0d30 913d 4dd8 4e3f
00000090: 452a 22bd c8d4 63bf bf5c 04be baf2 83bd
000000a0: 4d92 17be 752a eebc b9e3 b73c 0855 c43c
000000b0: 2f13 6f3c 921b a83e 7b9b 0abd e6b8 60be
000000c0: df66 8bbd 1f5c dcbd bf0d ce3b fd54 bdbd
000000d0: 58fd be3c 8f32 42bb b5b7 7e3e cb74 623d
000000e0: e25e 993d 07d6 223e e9e3 90bc dc31 12bd
000000f0: 70b9 3f3f 7163 2abe e2f1 2fbc 9234 0b3d
-0.24429695 -0.054436434 0.32724184 -0.039772224 0.11450044 0.20196955 -0.019216195 0.12998857
-0.051598903 -0.2526188 0.6468445 -0.045118418 -1.2161859 0.019241221 0.40735856 -0.5722671
-0.3024085 0.055245914 0.49121833 0.70410514 0.012151051 0.07817691 -0.45870605 -0.15380172
-1.5596795 -0.3642939 -0.08364686 0.058787186 0.29257336 0.10688647 0.4686623 -0.4596924
1.5909098 -0.05898074 0.07089243 0.807988 -0.039591093 -0.88996553 -0.12926005 -0.06442781
-0.14801903 -0.02907298 0.022447454 0.023966327 0.014591976 0.32833534 -0.033839684 -0.21945533
-0.068067305 -0.10759758 0.0062882598 -0.09244726 0.023314163 -0.0029632186 0.24874766 0.055287164
0.074888006 0.15901957 -0.017686801 -0.03569208 0.7489233 -0.16639496 -0.010738822 0.03398568
